trained_models/doom-model.pth (torch, 106629 bytes, 27 tensors)

weight f4 [8, 1, 3, 3]
00000000: 0989 23c0 5d98 f5bf 8d81 1b40 7bce 77c0
00000010: 834c 993e d79f 6340 2c6b 3440 c62a 243f
00000020: d6e0 febf c2d2 1cc0 9cf8 8e3e 1ab1 08c0
00000030: 1558 8dbf e3e1 9a3f 19ba 6340 5f4c 2b3f
00000040: 69bd c8bf 65ab 96c0 2865 8840 7b05 b8be
00000050: 0c66 94c0 3b49 8ebf 7858 dc3f d075 88be
00000060: ce77 27c0 05a9 45c0 65d1 943f 9714 72be
00000070: 7cac 483f 7f9b 9e3e 2de8 933d 4758 8040
00000080: 8a0f ad3f 60ad 16c0 c764 963f 17c1 1c3e
00000090: 71d2 40bf 5374 7f3e b359 943f 7454 6640
000000a0: bef2 69c0 fa0f fc3f c8cd 143f eba0 ddc0
000000b0: a2f8 1ebf 0497 7540 f49e b8bf 960e 9940
000000c0: be33 ddbf 217d 0cc1 2a8c 48c0 ec77 0ec0
000000d0: 2e9d 543f a8a3 b53f 38bb 053f 0e26 3340
000000e0: 8929 ff3f f643 b7bf bcb4 323f 7a00 35c0
000000f0: ec3d 0a3f a110 5640 3430 07c0 09b7 5dc0
00000100: 453e 13c0 ba30 12bf 18dd 17c0 8ca1 17c0
00000110: 9219 333f 85da c3bf 779c 5f40 fe71 2b3f
-2.555239 -1.9187123 2.4297822 -3.8719776 0.29941186 3.5566308 2.8190413 0.6412777
-1.9912364 -2.4503636 0.2792405 -2.1358094 -1.1042506 1.2100185 3.5582335 0.6691341
-1.5682803 -4.708422 4.262348 -0.3594168 -4.637457 -1.1116098 1.7214499 -0.26652384
-2.6166873 -3.0884411 1.1626402 -0.23640667 0.7838819 0.3097801 0.072220184 4.010776
1.3520367 -2.354332 1.1749505 0.15308033 -0.7532111 0.24946718 1.1589874 3.5989046
-3.6554408 1.9692376 0.581265 -6.9258933 -0.62098134 3.8373423 -1.4423509 4.7830305
-1.7281415 -8.780549 -3.133555 -2.2260695 0.8305234 1.4190569 0.522388 2.7991977
1.993455 -1.4317615 0.6980703 -2.828154 0.54000735 3.344765 -2.112317 -3.4642966
-2.3006756 -0.571056 -2.3728695 -2.369235 0.6996089 -1.5301062 3.4939249 0.66970813

weight f4 [8]
00000000: f32e 3e40 8e6a 8f40 9f78 b840 3c5a 3840
00000010: 44f7 ac40 5303 ec40 c3c9 6340 2785 a340
2.9716156 4.481757 5.7647243 2.8805075 5.405184 7.375406 3.5591896 5.110004

bias f4 [8]
00000000: 255d 053e f9d1 753f 5f7f 85bf 6fce c63e
00000010: a370 073f 920d f9bc b1f5 abbf 0988 f9be
0.13023813 0.9602352 -1.0429496 0.3882937 0.52906245 -0.030401979 -1.3434354 -0.487366

running_mean f4 [8]
00000000: d704 83bd 544e 6cbf 3c44 3ebf 85d8 403f
00000010: 0c70 2fbf ffba 77bf 4184 fd3e ae7d 89bf
-0.063974075 -0.9230702 -0.7432287 0.7533038 -0.68530345 -0.9676971 0.49514964 -1.0741479

running_var f4 [8]
00000000: 56b1 4b3d b7e8 023e 877d 093e 5368 d03d
00000010: 562d 333e 3f6b 863e cb9b 713d 4bda 433e
0.049729668 0.12784086 0.13426791 0.10176148 0.17497763 0.26253697 0.058986466 0.19126241

weight f4 [8, 8, 3, 3]
00000000: 6e9d 963e 171c 463e c988 933f 5707 043f
00000010: 6d95 81be 2954 03bf aa34 dfbe 23fb c5bf
00000020: 01c6 5ebf 0c04 cbbf 35f1 8fbe 8ca8 7a3f
00000030: c3e9 b53e bb9a 963f c541 2640 8ef6 0640
00000040: ef4d a3be c8dc 1440 e7c6 ec3f 868a 1abe
00000050: 862a 543f 3192 1fbf c54b 2d3e 2adf 913d
00000060: 9185 cdbf e7c4 c03f 51ee e93f 0ae5 1bbf
00000070: 9742 b0bf 1357 afbd 97e9 b9bf 360e c6bd
00000080: df52 133e 8cb1 f5be 258a 543e 8239 01c0
00000090: 4756 cfbe 14ef f63f 06d4 ddbe 15c2 4cbe
000000a0: 2e4a 8abf ca47 8e3e 1578 9b3f 89c3 163f
000000b0: ccee 08be 7a7f 5cbf 4a74 fb3f 04ed c23e
000000c0: 8d20 a33f 6538 b2c0 a1b9 5ebf a7dc fbbe
000000d0: c7fa aabd e4fa 8ebf e645 6ebe 3f7c 6cbf
000000e0: 6929 893f 5530 1cbe 8b81 3bbf f4bd 4abc
000000f0: a1b8 21bf dc2b a6bf fb79 ecbe b6f8 bcbe
00000100: b41b 2abf 2f43 f9be 6a5c b7be 7806 9dbf
00000110: 671e 8cbe f323 543f 4d6a c8bf 2605 253f
00000120: 01c3 c13f c0d5 d6bf 6223 933e dd95 64bf
00000130: 5d94 7b3e 9c90 bcbf 60e9 5abf e2e7 ce3e
00000140: 0b2a dc3e 2475 31bf 1b2c 0ebf 6c59 1fbf
00000150: 0d73 b8bf 6817 84be 9a34 92be 9bcc b13e
00000160: 3d45 9fbf 9a52 cc3d a789 703e 6b7d ecbe
00000170: 47f2 d2bf bfe2 f13f 6cd1 8bbf 894c a83f
00000180: b5d3 72bf 8e85 933f 6714 34bf 7fef e93a
00000190: 5969 153f 0def 5fbe eb89 20bf 24f3 47bc
000001a0: 6505 40bf 2017 54bf 7074 4dbf 54dc c8bf
000001b0: 49fb abbf a4fc 7dbe 69bc 213f 4a5b da3e
000001c0: 7a34 92be 4796 d83f 1b2f 4fbf 7769 e03f
000001d0: 3b1b 913f 90ac b2c0 d06f 9cbe 9b9d 2c40
000001e0: c70b e33e ed4c 92bf 130b 4c40 e0a8 703f
000001f0: 9b19 e13f 0426 80bf 46f7 653e fa6b 233e
00000200: 57ae f2bf d1aa 3cbf 8a39 dd3f 0d9f b6bd
00000210: 1961 59bf ca7d 31bf f979 05bf 4840 e7bf
00000220: 3f01 14bf c397 12bf 92fc 8ebe c915 70be
00000230: 2626 80be ee44 7b3e 3ec1 243f 9f0f 57bf
00000240: fe48 bbbe 71c7 9dbf c5a3 ad3f b6bc a5be
00000250: 9ffc 843f d82e 2ebf 7e19 0e3f 44d7 0bc0
00000260: 262c 643f c458 6cbf 1b38 17c0 69b4 babf
00000270: c1f0 3e3f 1367 4a3f 13be a6be c225 073f
00000280: 9b19 1dc0 2084 bdbd ff32 d5be 0814 f5bf
00000290: c5bc 7cbf 2395 8b3d 6ffb 09bf 5c68 2c40
000002a0: 9e41 12bf e01c 06be 227b 08c0 9a25 98be
000002b0: 6824 f9be 298c 333f ea57 0bbf 004f 1ebe
000002c0: dd91 17be 185a 6d3c 8b43 13bf b61f 33bf
000002d0: a549 103e 6db1 033f 1f08 91bf 751c a3bf
000002e0: 94ec c13f bcad 803f 2f2a 57bf 2d3c b3bf
000002f0: 0050 0ec0 b200 4640 7fa5 6040 0b2e 21bf
00000300: a143 06c0 ccf0 4740 a018 c43f 5583 9fbf
00000310: 28ae bfbf f848 1b3f 1bc3 c13d a841 b93c
00000320: 6578 1b3e 5068 833e fa28 70bf 221b bd3e
00000330: ba46 c13e 03c7 17bf 8e37 0e3f 83f6 0ebf
00000340: 9bcf 0ebe 3724 29c0 5954 1c3e ca42 833e
00000350: 5bd6 79bf 72b0 47bf 5037 c83f fb62 bd3d
00000360: c669 ee3e 7978 0f3f 406c 84bf 0feb d5bf
00000370: 86b9 c33d 8c9c 04c0 2db9 423d c6d5 ec3d
00000380: 255d 543f fa64 1b40 d662 913f b067 e7bf
00000390: 1200 37bf 4fdc a13f f68f 19c0 9fa3 9b3e
000003a0: 9ad0 a2bc 0e19 8ebf aeb0 ccbe 5374 a7be
000003b0: 3160 8d3e 5e42 5cbf 8911 1dbf 27f3 1e3f
000003c0: 26a7 6b3f c0bc bebf ff7b f43f a10d a0bf
000003d0: ae8c a4be 8ec5 8dbf 632f 10c0 49a8 80bf
000003e0: 8459 3b3e 5b82 c3be 7b15 01bf b665 9a3f
000003f0: 7af3 95bf 678c c93e bef5 2b3f 1ec2 6ec0
0.29416984 0.19346653 1.1526119 0.515737 -0.25309315 -0.51300293 -0.43594867 -1.5467266
-0.8702088 -1.586061 -0.28113714 0.9791343 0.3552991 1.176597 2.5977643 2.1087985
-0.31895396 2.3259754 1.84982 -0.15091905 0.82877386 -0.62332445 0.16923435 0.07122643
-1.6056386 1.506009 1.8275853 -0.6089636 -1.3770322 -0.0856153 -1.4524411 -0.09670679
0.14387082 -0.4798702 0.20755823 -2.019135 -0.40495512 1.9291711 -0.43325824 -0.19995911
-1.0803888 0.27789146 1.2146021 0.5889211 -0.13372344 -0.86132014 1.9644864 0.38071454
1.2744309 -5.569384 -0.87002 -0.49191782 -0.08348613 -1.1170316 -0.23268852 -0.92377084
1.0715762 -0.15252812 -0.7324454 -0.01237439 -0.63172346 -1.2982135 -0.46186814 -0.369085
-0.6644852 -0.4868407 -0.35812694 -1.2267599 -0.27366945 0.82867354 -1.565744 0.6446098
1.5137635 -1.6783981 0.28737932 -0.89291173 0.24568315 -1.4731631 -0.8551235 0.40411288
0.43000826 -0.6931937 -0.5553605 -0.6224582 -1.4410111 -0.25799108 -0.28555757 0.34726414
-1.2443005 0.099766925 0.2349001 -0.46189436 -1.6480187 1.8897322 -1.0923285 1.3148357
-0.9485429 1.1525133 -0.7034363 0.0017847865 0.5836387 -0.21868534 -0.62710446 -0.012203965
-0.7500823 -0.82847786 -0.80255795 -1.5692239 -1.3436061 -0.24803406 0.63178116 0.42647773
-0.2855566 1.6920861 -0.8093125 1.7532185 1.1336435 -5.5835648 -0.30554056 2.6971195
0.44344923 -1.1429726 3.188176 0.9400768 1.7585939 -1.0011601 0.22457609 0.15959159
-1.8959454 -0.73698145 1.7283185 -0.08917055 -0.84913784 -0.69332564 -0.5213924 -1.8066492
-0.578144 -0.5726282 -0.2792707 -0.2344581 -0.25029105 0.24538013 0.64357364 -0.8400821
-0.36579126 -1.232649 1.3565603 -0.32370538 1.0389594 -0.6804023 0.5550765 -2.1850138
0.89129865 -0.92322946 -2.3627994 -1.4586307 0.7458611 0.7906353 -0.3256689 0.5279199
-2.4546878 -0.092537165 -0.4164047 -1.9146738 -0.9872554 0.06815555 -0.5389928 2.6938696
-0.57131374 -0.13096952 -2.1325154 -0.29716188 -0.48660588 0.7013574 -0.5443102 -0.15459824
-0.14801736 0.014486812 -0.5752494 -0.6997026 0.14090593 0.51442605 -1.1330603 -1.2743059
1.5150323 1.005302 -0.8404874 -1.4002739 -2.2236328 3.0937924 3.510101 -0.6296088
-2.0978777 3.124072 1.5320015 -1.2461954 -1.4975023 0.60658216 0.094610415 0.022614315
0.15182646 0.25665522 -0.93812525 0.36934763 0.37749273 -0.5928804 0.5555352 -0.558449
-0.13946383 -2.6428354 0.15266551 0.25636894 -0.97592705 -0.7800361 1.564188 0.09247395
0.46565074 0.560432 -1.0345535 -1.6712359 0.0955687 -2.0720549 0.04753988 0.115642115
0.8295463 2.4280381 1.1358287 -1.8078518 -0.7148448 1.2645358 -2.3994117 0.3039827
-0.01987486 -1.1101396 -0.39978546 -0.32705936 0.2761245 -0.8603877 -0.6135488 0.6208977
0.92051923 -1.4901352 1.9100341 -1.2504159 -0.3213858 -1.1075914 -2.2528923 -1.0051357
0.18295866 -0.3818539 -0.504234 1.206229 -1.1714928 0.3936493 0.6717185 -3.730598

weight f4 [8]
00000000: ef22 7340 fc3d 8a40 0a94 8440 8539 a840
00000010: 1035 9f40 7da1 9940 8de8 9840 30dd 9440
3.7990072 4.3200665 4.143071 5.2570214 4.9752274 4.800963 4.7783875 4.6520004

bias f4 [8]
00000000: 0d4c 8d3f 2bd0 5cbf bbe8 0ebf 4096 06bf
00000010: f4f7 81bf 4844 993e 6b30 d93e a382 83bf
1.1038834 -0.8625514 -0.5582387 -0.52573013 -1.0153794 0.29934907 0.42419752 -1.0274242

running_mean f4 [8]
00000000: 882f 2b3e ab49 8ac1 a436 93c1 d262 d9c1
00000010: 923a 18c2 b145 cfc1 3fd0 1dc2 396f 96c0
0.1671735 -17.28597 -18.40168 -27.173252 -38.057198 -25.909029 -39.453365 -4.701077

running_var f4 [8]
00000000: 57e7 1344 c529 1544 33ea 0344 ab58 1f44
00000010: 1a21 0a44 2a19 3e44 d421 3344 a844 ea43
591.6147 596.65265 527.65936 637.38544 552.5172 760.3932 716.52856 468.53638

weight f4 [8, 8, 3, 3]
00000000: 7a71 a83f 00fa 213e a83c 7cbf aeb7 d43f
00000010: 4e25 40be 27c0 0e3e 53dc 1b40 ab69 b3bf
00000020: 7c7e 8ebf 26e9 fb3e f2d6 693f 0612 0cbf
00000030: 0459 49bf 1522 0e3e 900c ffbe d527 21be
00000040: 6b5e bd3c 820c 1040 46bc bcbf 1868 8c3e
00000050: bc0e c2bf ec23 66bf 9359 29bd b9d0 c3be
00000060: 87f4 18bf 22cd bf3d 5255 50bf 1bdb babf
00000070: 41b8 28bd b4a2 62bf cd5c 5c3f 1756 f0bf
00000080: fde9 e93d d2a0 e2be b84f d33f 0c18 1740
00000090: 8eae 83bf dc73 07c0 8c3f 543f 4f6a 71bf
000000a0: 8e39 603e 714e 1940 7cf2 1cc0 4348 91be
000000b0: c13e 82be 35c8 92be 4673 d5bf 9429 393e
000000c0: b96d 1c3f 769a 863f eb12 1dc0 4636 32c0
000000d0: b3d1 d13e d9b8 713f 8c80 debe 1685 003f
000000e0: 8c19 99bf 7ca3 853f 255c 8dbe 3e80 a4be
000000f0: d17c f5bf 930e 42c0 bf88 abbf c777 debf
00000100: 3a07 9b3f 64aa ccbe 94ef 6b3c daff 7d3e
00000110: 0bb7 0040 8ea7 fc3f d5be 6bbf 8ca6 b63f
00000120: ee77 473e 0429 f73e 6f2e 43bf 326b 25bf
00000130: 37bc 823f b112 8d3e dec0 d5bf 7fc7 d3be
00000140: e749 cdbf 2fa0 1340 4889 10c0 2ade 933f
00000150: 54eb 26c0 ab01 e93e 150b 2a3f c088 303f
00000160: 67e7 24c0 c5e6 7abf 05c2 ee3e 48d8 a7bf
00000170: f34f 1abf ace4 c1bf 17ed 193f b44a af3f
00000180: 400c bbbf b1aa 303f 0837 02c0 8ff4 49bf
00000190: 14d1 14c0 339d bdbf 1122 16bf b513 afbf
000001a0: 1762 593e dc2d 0cc0 c343 1340 21f1 a83f
000001b0: e00b f83f bd82 f43d 0d67 673e 6f49 c93e
000001c0: fd41 04bf 9a24 0340 e56c cf3f e3f2 3cbf
000001d0: dc20 0040 fbb3 ff3e e697 32bf 8398 73bf
000001e0: ec7e 083f 0721 aebe 3377 263e 3899 0c3f
000001f0: 5897 3cbe cb17 03c0 e721 e33f aad0 ea3f
00000200: 3237 2fbf d64f 2a40 d837 923f 70c3 25bf
00000210: c1af b0bf ad10 f43f c5f5 7dbf acc2 6b3f
00000220: cfd8 35c0 a569 5d3f b46a 20be e395 0540
00000230: 3ad4 8d3f 13a1 d53c d291 cbbf eeae bebd
00000240: 859e b4be 5b7c 43be be1d 63bf 3372 0f40
00000250: e604 56bf 6761 6a3f 8ddf 2940 932a f2bf
00000260: 409b 1abf 5cd2 2fbf 8490 12c0 9c41 063f
00000270: 4f5c a53f f829 513f 9e06 123f 56ea 9dbf
00000280: d4e7 19c0 b33b 97be b31a 89bf bb22 92bf
00000290: 75d2 013f a063 b53e 8cd5 11bf e498 8fbf
000002a0: c0e7 3cbf 9856 38bf 194d 5a3e 7f98 1040
000002b0: a590 30c0 edc5 37bf 1d89 47c0 1929 603f
000002c0: 9e58 b63e 8c0c 0e40 33e0 a5be 2e5a 7cbe
000002d0: 177b b63e e457 fc3f f2ff c43f 3029 933d
000002e0: 3da5 9bbf 3fe4 173f 8e48 40c0 2ed5 1b40
000002f0: 365f 493f 3010 10c0 ed07 f13f 70ea 1640
00000300: 9761 14c0 6ef7 1d3f 275a 19bf 4721 0d3e
00000310: e9c4 c3bf b38e 36bf ff41 bebf 3f96 2dbf
00000320: cdc7 8d3f 6c87 5ebe b55e 0c40 cc6b c2bf
00000330: 5d7f 3c3f 569a 6bbf 5fd3 0040 19cb 30be
00000340: 8908 03bf 0f74 f6be 8ca0 883f ea80 9d3c
00000350: 10ee 92bf e656 cb3d 3835 ed3e d467 acbe
00000360: a779 3bbf a159 bcbf d36c c4bf 10a7 203d
00000370: 31e7 72bf 1967 463f 523a 42bf 19c3 2b3e
00000380: 1f87 72be f5d8 693f 38b5 1a3f 0864 db3f
00000390: 7903 303f 9df8 9b3e 1d7f f93e 63b0 6bbf
000003a0: e4c2 99bf e557 fd3e a536 de3f f8ba 25c0
000003b0: 5c37 93be fd13 d8bf 6253 5abe 36a3 893e
000003c0: 0ae7 313f 0cfe a9bf 521b 5c3f 8530 ae3f
000003d0: 9285 24c0 c0e1 0a3e 5c22 c73e d872 413f
000003e0: f52f 04bf 0c5e c5bd f1fd 743f 82ea 653f
000003f0: dc74 0ebf 9c3c a8be ece9 eebd fa03 a03f
1.315963 0.15818024 -0.98530054 1.6618555 -0.1876423 0.13940488 2.4353225 -1.4016622
-1.113235 0.49201316 0.91343606 -0.54715 -0.7865145 0.13880189 -0.49814272 -0.15737851
0.023116311 2.2507634 -1.4744956 0.27423167 -1.5160747 -0.8989856 -0.04134519 -0.3824518
-0.5974812 0.09365298 -0.8138019 -1.4598116 -0.041191343 -0.88529515 0.860791 -1.8776273
0.11421583 -0.4426332 1.6508703 2.3608427 -1.0287645 -2.1164465 0.82909465 -0.9430284
0.21896955 2.3954127 -2.4523 -0.28375444 -0.25438502 -0.2866837 -1.6675804 0.18082267
0.61104923 1.0515888 -2.4542797 -2.7845626 0.409803 0.9442268 -0.43457448 0.50203073
-1.1960921 1.0440516 -0.27609363 -0.3212909 -1.9178716 -3.0321395 -1.3401107 -1.7380303
1.211158 -0.39973748 0.014400382 0.24804631 2.011172 1.9738634 -0.9208806 1.4269576
0.19479343 0.4827348 -0.7624273 -0.6461669 1.0213689 0.27553323 -1.6699483 -0.4136314
-1.6038178 2.3066518 -2.258379 1.1552174 -2.6081133 0.45509085 0.6642316 0.68958664
-2.5766237 -0.98008376 0.466324 -1.3112879 -0.6027824 -1.514791 0.60127395 1.3694673
-1.4613113 0.69010454 -2.0346088 -0.7888879 -2.325261 -1.4813598 -0.5864573 -1.3677889
0.21228825 -2.190299 2.3010108 1.3198587 1.9378624 0.11938999 0.22597905 0.39313838
-0.5166319 2.049109 1.6205107 -0.73808116 2.0020056 0.49942002 -0.6976303 -0.9515459
0.5331867 -0.34009573 0.16256408 0.54921293 -0.18417108 -2.0483272 1.7744721 1.8344929
-0.68443596 2.6611228 1.1423292 -0.6475134 -1.3803636 1.9067589 -0.9920314 0.9209392
-2.841358 0.86489326 -0.15665704 2.0872734 1.1080391 0.026077783 -1.5903876 -0.09310709
-0.3527719 -0.19090407 -0.8871726 2.2413452 -0.83601224 0.91554874 2.6542695 -1.8919243
-0.6039314 -0.6868036 -2.2900705 0.5244386 1.2918795 0.81704664 0.5704135 -1.2337139
-2.4047747 -0.29537734 -1.0711273 -1.1416849 0.50711757 0.3542757 -0.5696647 -1.1218534
-0.7379112 -0.7200713 0.21318473 2.2593076 -2.7588284 -0.71786386 -3.1177437 0.8756271
0.35614485 2.2195158 -0.32397613 -0.24643776 0.35640785 1.9714322 1.5390608 0.0718559
-1.2159802 0.5933265 -3.0044284 2.4348865 0.78660905 -2.250988 1.8830544 2.358059
-2.3184564 0.6170567 -0.59903187 0.13782226 -1.5294467 -0.7131149 -1.486389 -0.6780738
1.1076599 -0.21731347 2.1932805 -1.5189147 0.7363184 -0.9203237 2.012901 -0.17264976
-0.511849 -0.4813542 1.0673995 0.01922651 -1.1478901 0.09928684 0.46329665 -0.33672965
-0.732325 -1.4714853 -1.534571 0.039221823 -0.9488402 0.77501065 -0.7587024 0.16773643
-0.23684357 0.91346675 0.6043277 1.7139902 0.687553 0.30463114 0.48729792 -0.9206602
-1.2012601 0.4948112 1.7360426 -2.5895367 -0.28753173 -1.68811 -0.2132087 0.26882333
0.6949316 -1.3280654 0.8597919 1.3608557 -2.5706525 0.1356268 0.38893402 0.7556586
-0.51635677 -0.09637079 0.95699984 0.89810956 -0.55647063 -0.3285874 -0.11665711 1.2501214

weight f4 [8]
00000000: ad3d 8240 76a0 6840 892b 9940 30ec 8e40
00000010: 532a 8440 c662 6240 e300 8640 66c3 8f40
4.070029 3.6347938 4.7865644 4.4663315 4.1301665 3.5372787 4.1876082 4.4926023

bias f4 [8]
00000000: 30b6 88bf f285 c7be 6d47 28c0 b4e6 cebf
00000010: 53c0 67bf 3855 76bf 7aeb 96bf 219d 19c0
-1.0680599 -0.3896938 -2.6293595 -1.6164155 -0.9052784 -0.96223783 -1.1790612 -2.4002154

running_mean f4 [8]
00000000: 51b4 85c1 67e1 b53e 675f f7c0 e9f1 9141
00000010: b521 31c0 0878 ed40 de2c 81c1 aed5 393d
-16.713045 0.3552353 -7.730396 18.24312 -2.7676823 7.4209023 -16.146908 0.045369796

running_var f4 [8]
00000000: 7f49 1344 e0c7 3344 0225 1944 15e3 6844
00000010: bfeb 2a44 22ed 1a44 e940 1844 5d70 2744
589.1484 719.12305 612.57825 931.54816 683.68353 619.7052 609.0142 669.7557

weight f4 [16, 8, 3, 3]
00000000: f4a1 60bf 841e aebf f579 1abf de7a 8a3f
00000010: fa6d 7dbf 70c3 72bf d682 c53f 7bd8 a3bf
00000020: bc34 30bf 59d8 54bf 3085 7a3f 9e6f c03d
00000030: 6eac bebe e033 9f3f 5c66 91bf 94d6 45be
00000040: dd55 76bf 481b c1bf efc2 e1bf 526a c6bf
00000050: f7a0 8e3e 88a8 b63f 980f f2be a0dc f3be
00000060: 7f01 d3bf 9912 2d3f 0b50 9a3f 4eda 7ebf
00000070: 12c6 c5bf b29c 403f 3bc6 8fbf 5355 c23d
00000080: 7659 d63f 4aab 90bf b838 913e 9ee2 8dbe
00000090: df5b 4b3e 45e9 1abf 0fb3 8a3d 7e79 4ebf
000000a0: d82c c4be b865 cabf 4ec0 d5be 09d6 2a3f
000000b0: 4547 5d3f 66f4 a9bf 36c0 6d3e bc9b 4c3f
000000c0: 9e94 6bbf 74f7 06be 3356 413f 83ff a33e
000000d0: 4b5a e3be 10d0 f03e eecb bf3e 9223 3c3f
000000e0: 3ed9 56bf 9923 f23e 4a5e b53f 4363 65c0
000000f0: 3bbf d7bd 2cbf 86be f87f aabf ae01 e23f
00000100: dc6c 23c0 07f7 16bf e53f b33e 95f4 9b3f
00000110: 79db 113e 4362 9b3f 6c50 cd3f e522 acbf
00000120: 8dfa b6bf 8df4 ca3f a3bb c7be 3091 833d
00000130: dadb 1fbd adb3 893e 13c2 85bf 0dcf dabe
00000140: bad9 7bbf c544 603f ff96 433f 6573 13bf
00000150: c8d4 96be bc59 f4be 6050 093f 7918 0140
00000160: 3181 15be f3ff 95bf 0856 073f fb71 e83f
00000170: 6deb 48bf 247f 13bf d316 e73e dfa5 2f3e
00000180: d308 503d d11f 08c0 6b73 5ebe 5adb 9e3f
00000190: 4aed 24c0 6126 d3be 56f0 abbd bd7f b6bd
000001a0: 218c d6be b48c 713e a54c d8be 3280 293f
000001b0: cc92 313f 22fa 35bf 3c81 463f 522f e6bf
000001c0: ac0e d9bf f5f7 bcbf d404 80bf 1c58 0dbf
000001d0: 2b73 80be 5960 23be 5717 5abf f346 a53d
000001e0: 92e2 0fbf 028f 64bf ebe7 953e 2e90 483f
000001f0: cf52 023f e97b 82be ed30 c73f 13ca a0bf
00000200: 5e33 24bf a2a5 5ec0 b3de 86be 8007 7f3f
00000210: 9998 11be c35a 61bf c2bf 05bf ac82 1b3f
00000220: 18a0 de3f d96c a2be 283a b1bf 662c 97bf
00000230: 7d05 ecbd dea2 f33e 51b0 dbbe 2c81 b2bf
00000240: b1ff 82be e43d 193f 63a9 a43f c141 86be
00000250: 0a70 a6be d137 7abf 6872 8ebf 426f c9be
00000260: e1e5 14bf 0e6d e43e 418d bebe b9ac 593f
00000270: c915 b53d 2988 03c0 2c20 08bf 68fe f6bf
00000280: cccd fb3e 2686 ccbd cb5a d13e 5597 6abf
00000290: 29c1 db3e 6f3a d8bf 0a84 c2bf 96fe 2fc0
000002a0: f4c1 21be a099 1a3e 017c cfbd 7d2c bc3e
000002b0: bd0d 24bf 77b2 c0be d6df d33e 9cfe 0fc0
000002c0: df5c cb3f beac a73f 4877 85bf b13e 0240
000002d0: cc21 1040 0ba4 753f 517e 053f bce2 373f
000002e0: c7be 7b3f f016 63be 2400 b23e fe4f f63d
000002f0: e924 8abf 8901 26c0 e68e ed3e 8447 08c0
00000300: dbfb 30bf bd96 423f 38c0 863e 7186 e6bd
00000310: 76e6 ecbd ba4b 10c0 5746 a4bd 31e4 0fbf
00000320: f62b 973f bcd5 1e3f 7a92 6bbf 0ca8 9b3f
00000330: 7762 e13e 5301 dcbd 4ac6 ee3f f718 9b3e
00000340: 0bdc c3be 0b90 2a3f db9c 5e3f f817 24bf
00000350: 0d2d d0be 68b9 323f 8684 abbf 11d2 d23d
00000360: 3646 a6bc 6bd7 2ebf cc25 15bf e4e2 7cbf
00000370: 3d91 9abf 78db 773f dd43 8abf 8c1a 91be
00000380: a26c 1b3e 358f 803f 1e01 20bf d3d2 073f
00000390: 3c02 0b3f c3a5 da3e dce0 7bbe 6900 643d
000003a0: 856f febe e48f dd3e 0107 823f 61fb d23e
000003b0: 3691 b2bf b37d b2be a53c af3f 25c7 16c0
000003c0: 28a7 403e 7877 6fbe f9a7 63be d6bd ffbf
000003d0: 2a35 54bf f065 68bf 39f0 2e3f 4117 8a3f
000003e0: a29a 30c0 c704 743f 5d88 02bf 36bd f83d
000003f0: 4422 5a3f 10a8 bdbf d8ed d93e 1b94 34c0
-0.8774712 -1.3603063 -0.6034234 1.0818746 -0.98995936 -0.94829464 1.5430553 -1.280044
-0.68830466 -0.8314262 0.9785948 0.09396289 -0.37240928 1.2437706 -1.1359363 -0.19320136
-0.96224767 -1.508645 -1.7637614 -1.5501196 0.2785718 1.4270182 -0.47277522 -0.4762926
-1.6484832 0.676065 1.2055677 -0.99551857 -1.5451071 0.752391 -1.123237 0.094889306
1.6746051 -1.1302273 0.28363585 -0.27711958 0.19859265 -0.6051219 0.06772434 -0.8065413
-0.38315463 -1.5812292 -0.4174828 0.6673284 0.86436874 -1.327771 0.23217854 0.7992513
-0.92023647 -0.13180333 0.75522155 0.32030877 -0.44404826 0.4703374 0.37460274 0.73491776
-0.83925235 0.47292784 1.41694 -3.5841835 -0.10534521 -0.26317728 -1.3320303 1.7656763
-2.5535192 -0.58970684 0.35009685 1.2184016 0.14243878 1.2139362 1.6040168 -1.3448149
-1.4295212 1.5855881 -0.39010343 0.06424177 -0.039028026 0.26894894 -1.0449852 -0.42736092
-0.983791 0.87604934 0.76402277 -0.57597953 -0.29459214 -0.47724712 0.5363827 2.0171187
-0.14600064 -1.1718735 0.5286565 1.8159784 -0.7848423 -0.57615876 0.451346 0.17153119
0.050789665 -2.126942 -0.21723716 1.2410691 -2.576983 -0.41240218 -0.0839545 -0.08911083
-0.41903785 0.2358883 -0.42245975 0.66211236 0.6936462 -0.710848 0.77540946 -1.7983191
-1.6957603 -1.476317 -1.0001473 -0.5521257 -0.25087866 -0.15954722 -0.85191864 0.08070173
-0.56205094 -0.8928071 0.29278502 0.78345 0.50907606 -0.2548516 1.5561806 -1.2561668
-0.6414088 -3.4788594 -0.2634178 0.9962082 -0.14218368 -0.88029116 -0.52245724 0.60746264
1.7392607 -0.3172367 -1.3845873 -1.1810424 -0.11524484 0.47585195 -0.42907956 -1.394567
-0.25585702 0.5986006 1.2864193 -0.2622204 -0.32507354 -0.9774142 -1.1128664 -0.39342695
-0.5816327 0.44614452 -0.37217143 0.8502918 0.08842046 -2.0551856 -0.5317409 -1.9296389
0.49180448 -0.09986524 0.40889582 -0.91637164 0.42920807 -1.6892833 -1.5196545 -2.7499137
-0.15796643 0.15097666 -0.10131074 0.36752692 -0.6408346 -0.37636158 0.4138171 -2.2499151
1.5887717 1.3099592 -1.0427027 2.0350764 2.2520628 0.95953435 0.5214587 0.71830344
0.9833798 -0.22176719 0.34765732 0.12026976 -1.0792514 -2.5938437 0.46398085 -2.129365
-0.691343 0.7601126 0.26318526 -0.112561114 -0.115673944 -2.254622 -0.08021229 -0.5620757
1.1810291 0.6204488 -0.9202038 1.2160659 0.44020435 -0.1074244 1.8654263 0.30292484
-0.38253817 0.6662604 0.8695809 -0.64099073 -0.4065937 0.6981416 -1.3399818 0.10293973
-0.020297151 -0.6829745 -0.582608 -0.9878371 -1.2075573 0.9681926 -1.080196 -0.28340566
0.15178159 1.0043703 -0.62501705 0.5305607 0.54300284 0.4270459 -0.24597496 0.055664454
-0.49694458 0.43273842 1.0158387 0.41207412 -1.3950565 -0.34861526 1.3690382 -2.3559048
0.18813765 -0.23385417 -0.22232045 -1.9979808 -0.8289362 -0.90780544 0.683353 1.0788347
-2.759438 0.9531979 -0.50989324 0.12145464 0.85208535 -1.4816914 0.42564273 -2.8215396

weight f4 [16]
00000000: 738e 4d40 4390 6d40 0bd4 6b40 58c5 5840
00000010: e9b6 5440 2b6e 6740 ea6d 8b40 8478 6240
00000020: 9082 d040 9d80 cc40 e818 d840 f561 e940
00000030: 2e72 d440 7df3 d940 11ad d140 7299 d940
3.2118194 3.71193 3.684817 3.387045 3.323664 3.616099 4.3571672 3.5386057
6.515938 6.3907 6.7530403 7.2932076 6.638938 6.8109727 6.5523763 6.799981

bias f4 [16]
00000000: 5941 3abf 36b7 c1bf 426b e1bf 1be5 a8bf
00000010: 3449 b7be 63e5 b3bf da66 aebf 1508 b6bf
00000020: dc6f 7c3f d924 a33e 9efb c13e 581d 88be
00000030: 6baa bc3d 47b2 72be b5bb 24be 678c 993f
-0.7275596 -1.5134037 -1.7610857 -1.3194917 -0.35798037 -1.4054378 -1.3625138 -1.4221216
0.98608184 0.3186405 0.3788728 -0.26584888 0.09212192 -0.2370082 -0.1608723 1.1995972

running_mean f4 [16]
00000000: ffd5 99c1 61fc a1c1 8ed4 5dc1 4656 c8c0
00000010: 7fb4 c9c1 6ccd 2bc0 b3e1 a8c1 89b7 eac0
00000020: 7cb0 79c0 0e0d c7c1 e5d0 a1c0 cbdc bcc1
00000030: 9a2f 973f 9e8e 61c0 8fa9 7ac1 1477 be40
-19.22949 -20.248232 -13.864393 -6.2605314 -25.213133 -2.684413 -21.110205 -7.334904
-3.9013968 -24.881374 -5.05675 -23.60781 1.1811402 -3.5243297 -15.666396 5.952036

running_var f4 [16]
00000000: 095c bc43 ba01 9d43 eeb3 8043 fc03 be43
00000010: b743 aa43 0c07 aa43 1f2d b743 f730 9b43
00000020: 2cb1 5343 f22f 1243 379e 1643 2563 2f43
00000030: 45af 1f43 f86f 2543 031a 4a43 26f9 1743
376.71902 314.0135 257.4057 380.03113 340.52902 340.05505 366.3525 310.38254
211.69208 146.18729 150.61803 175.38728 159.68465 165.43738 202.10161 151.97324

weight f4 [64, 96]
00000000: 62ee 36bc 6c6a 2abf 9f7b 3ebf 208b 293f
00000010: 548a ba3e b1e2 6bbf 1dcb d4bd ddf2 bc3f
00000020: f900 e2bd d2e5 62bf 5a7a a7be e998 bebe
00000030: db79 4f3f 7198 8f3e 0728 72be 0450 f6be
00000040: 268f 58ba c49e 663e 6a49 6abf b85c e9be
00000050: 0974 17bf e998 82be 5e55 803d 1075 813e
00000060: 8b38 d1ba 750b acbe 9ae0 cf3e 58e6 9fbe
00000070: 0795 c53d 2717 ac3e 3a84 7e3f a8a6 98be
00000080: 22b3 cd3e 14fa 123d 682a f03d 343f 6e3e
00000090: d240 263d 8e08 8b3f 7ccd 1e3e dee2 1bbe
000000a0: 76fa d4bc 0269 003f c04e debe d892 b5be
000000b0: bbff 833d c4bc ecbd 288d 423f d834 66be
000000c0: ecdf 303f 521d febe 76e0 463e f28e 91be
000000d0: 15ff 87be e0e0 103e 324d d1bd 7c09 34be
000000e0: 5b26 eebe 5367 efbd 93e7 773d 2047 2c3f
000000f0: 8360 5f3d f5fa df3e 4302 0bbe 456e ef3e
00000100: 465f d7be 1e0d 0bbf d38b 74bd 1551 04bf
00000110: cd58 00be 5e8d 203f f47a 25be 5cab 163e
00000120: fbce 273f b5c2 eebe dd36 7c3e be5e 65bf
00000130: d6e6 ccbe 6ebf 12bf cdab dabe a460 7cbe
00000140: 4749 23bf 64a0 4fbf a380 09bf 3686 25bf
00000150: e6b4 0bbf a32f f4be c944 83bd 7763 19bf
00000160: 34d9 71bd 6079 1b3e cab1 71be 20c9 bf3d
00000170: f176 253e e746 0abf d09a ca3d a19a 40bd
00000180: 325a 1dbf 50f8 63be b006 afbe 53fc 86be
00000190: 17f7 573e dbc1 a43d 6a6e 97be 19c5 14be
000001a0: 5fae 373e 25fb dd3d 4bff 613e 14e8 d93e
000001b0: a66b 40be 9b1d 8a3d 2d5d 7c3d ac06 65be
000001c0: d101 21be 8e24 35bf 3a4a 0e3f 282b 9dbe
000001d0: 8527 11bd 6276 fcbd 1fd9 69bd b76e bfbe
000001e0: 1a41 bd3c aeff 0f3f a464 39be 79fd 9dbe
000001f0: 333d 17be cf91 51bd ec20 6ebe 295b b43d
00000200: 112e 2c3e c83b aebd 49ca b93e cfb6 973d
00000210: 5c56 1c3d 85a0 9dbe ada0 013e f75f 5bbe
00000220: 2e7f 0abf 76af cc3d 50e3 c83e a3bc d5be
00000230: e034 453e 09c2 bf3e b7c1 02be b60d d4be
00000240: 0706 263f ef01 4c3e 2ff9 8f3e 1084 44bd
00000250: 2b8f b6be cd84 0cbd da10 1ebe fd29 46bf
00000260: 34a9 43bd 78f0 0cbe 3e28 aabe c170 c73d
00000270: a664 0cbe ed97 46be 3acf 90be 1a7a 573e
00000280: 4657 3ebd b6f4 833e eac8 b63d 3f96 30bd
00000290: 4c5b a0be 7615 d9be 15f0 503e 2cec 003d
000002a0: 4a63 4a3e 7b0a febe 2553 5bbe c012 2dbd
000002b0: 2ed4 2f3e 4e3e 8fbe e52d 1c3f 68e4 af3e
000002c0: 9ce0 f9be 31a1 d9be b519 2abe 7a0d b33e
000002d0: d7ce eb3d 3351 1e3e 9c92 b1bd 7017 63be
000002e0: f0cf 6c3a 8fd4 0bbf f7b4 aabd 1898 f1bd
000002f0: 5ba7 973e 1187 13be b928 8a3d 52c4 8c3e
00000300: c588 903d 29ac 1bbe d72e d73d f542 d83d
00000310: e4a4 3cbe 0677 953e 6ccc c0be c20d bfbd
00000320: 2943 c5be 69df 19bf ebb5 bebe 4dee 443e
00000330: ad36 003e 60e2 24bf 4feb 963a 6322 0abf
00000340: f729 b93e d451 e5be 5def 023f 585a f73e
00000350: 0b3e f73e 761f dfbe ceb5 90be 3127 eabc
00000360: 3369 a5be 7a99 ba3d 3c23 ddbe 6f1b 953d
00000370: 3d58 26be 66ba 743e 4545 35be fd37 1d3e
00000380: f3d8 053e d436 3cbe 2e65 d7bd 2955 c53d
00000390: 97c7 3dbf 40ce 073e ace4 dfbd 585b 833c
000003a0: bfd3 02bf 1ef5 15be f394 19be d530 48bf
000003b0: 4f1b d5bc ee7b 05be 530d 92be 413a 133f
000003c0: 92d9 bc3d 0e91 ad3e 3a2d 07bf a595 c4bd
000003d0: ed86 dbbd 664f 093f 2fc3 e0be 0066 2e3f
000003e0: a3d7 88bd d248 893e 631b 3cbf 2e22 08bf
000003f0: 37b6 1cbf 95cb 6c3e e7aa 183f 5ee8 cabe
-0.011165233 -0.66568637 -0.7440738 0.6622791 0.3643366 -0.9214278 -0.10390303 1.4761616
-0.11035342 -0.8863193 -0.32710534 -0.37226036 0.8104531 0.2804599 -0.23648082 -0.48107922
-0.0008261077 0.22521502 -0.9151827 -0.4557855 -0.5916143 -0.25507286 0.062662825 0.25284624
-0.0015962286 -0.3360249 0.40601045 -0.31230426 0.09647565 0.33611414 0.9942051 -0.2981465
0.4017573 0.035883024 0.11726838 0.23266298 0.04058916 1.0861986 0.15508074 -0.15223262
-0.025998335 0.5016023 -0.43419456 -0.35463595 0.06445261 -0.11559442 0.7599664 -0.22481096
0.6909168 -0.49631745 0.19421563 -0.2842937 -0.265618 0.14148283 -0.10219802 -0.17581743
-0.46513638 -0.116896294 0.06052358 0.6729603 0.0545354 0.43746153 -0.13575082 0.46763816
-0.42064875 -0.5431689 -0.05970366 -0.5168622 -0.12533875 0.6271571 -0.16160184 0.14713806
0.655502 -0.46632925 0.24630304 -0.8959769 -0.40019864 -0.5732335 -0.427092 -0.2464624
-0.6378369 -0.8110411 -0.5371191 -0.64657915 -0.54572904 -0.47692594 -0.06409604 -0.59917396
-0.05904503 0.1518302 -0.23602977 0.093645334 0.16158654 -0.5401444 0.098928094 -0.047022466
-0.6146575 -0.22262692 -0.3418479 -0.26364383 0.21090351 0.080447875 -0.29576427 -0.14528312
0.17937611 0.10838918 0.22070043 0.42559874 -0.18791065 0.06743928 0.061612297 -0.22365826
-0.15723349 -0.70758903 0.5558201 -0.30696988 -0.03543808 -0.12327267 -0.05709183 -0.37389156
0.023102332 0.5624951 -0.18104798 -0.30857447 -0.1476944 -0.051164445 -0.23254746 0.0880645
0.16814448 -0.08507496 0.36287144 0.07407915 0.038168296 -0.3078653 0.12658949 -0.21423326
-0.5410031 0.09994404 0.39235926 -0.4174548 0.19258451 0.37452725 -0.12769209 -0.4141671
0.64852947 0.19922613 0.281198 -0.047977507 -0.35656103 -0.034306336 -0.15436116 -0.7740782
-0.047768787 -0.13763607 -0.33233827 0.09738303 -0.1371027 -0.19393893 -0.282831 0.21042672
-0.04646995 0.25772637 0.0892504 -0.043112036 -0.31319654 -0.42399186 0.20404084 0.03147523
0.19764438 -0.4961737 -0.21418436 -0.04225421 0.17170784 -0.27977222 0.6100753 0.34353948
-0.48804176 -0.42505792 -0.16611369 0.3497122 0.11514061 0.15460663 -0.08670542 -0.2217691
0.00090336706 -0.54621214 -0.083352976 -0.11796588 0.2961987 -0.14406992 0.067460485 0.2749353
0.07057337 -0.15202393 0.10506981 0.10559646 -0.18422276 0.2919237 -0.37655962 -0.09328796
-0.38527802 -0.6010652 -0.37248167 0.1923153 0.12520857 -0.6440792 0.0011514219 -0.5395872
0.3616483 -0.44788992 0.5114649 0.48311114 0.48289523 -0.4357869 -0.28263706 -0.028583141
-0.32306823 0.091113046 -0.43190944 0.07280623 -0.16244598 0.2389923 -0.17702205 0.15353389
0.13071041 -0.1838029 -0.10517345 0.09635384 -0.74132675 0.13262272 -0.109322876 0.016034767
-0.5110435 -0.14644286 -0.14998226 -0.7819951 -0.026013998 -0.13035557 -0.2852579 0.57510763
0.09221186 0.3389973 -0.52803385 -0.09598855 -0.107190944 0.5363678 -0.43898913 0.6812439
-0.066817544 0.2681337 -0.7347929 -0.53177154 -0.6121554 0.23124535 0.59635776 -0.39630407

bias f4 [64]
00000000: 17fb 6abe ddd5 c03e 3fa8 cdbd 7b4a 863e
00000010: 47d0 223f f238 09bd 37ef 9d3f 362d 323e
00000020: c659 bebe daea da3e e411 13be cfaa 9dbe
00000030: e0d7 313f cd3d 033f 62d5 443f 79dd 90be
00000040: 141e e1bd fe05 113f b6d6 6dbd 8418 05bd
00000050: c5d4 253f 6be8 35be aae6 873f 8e21 63be
00000060: 0cd3 ee3e 356b a23e 998c ec3e a6b4 a63e
00000070: dfed 67be 7268 243f 4fd4 a7be 20d9 a43e
00000080: c715 563f 375b f63e 2423 d3bd 89cd c83e
00000090: e3d2 a03e 10c6 b0be 6d14 04be 0721 97bd
000000a0: bd45 2f3f 43d1 6ebe 7eff 833e 12da 58be
000000b0: da81 ffbd 8eac a6bc 3976 7f3d 4887 683e
000000c0: ac84 5e3f ac32 cdba d0a4 05bd 8944 d33c
000000d0: bfb1 cc3e 24a1 92be 168b 4e3f 52d6 4c3f
000000e0: d291 583d f306 d63e 0704 46bd bdd9 4dbe
000000f0: b154 6bbe 39c1 513e ae49 563e f6c7 47be
-0.22947346 0.37663165 -0.10041856 0.262287 0.63599056 -0.033501573 1.2338628 0.17400059
-0.37177867 0.42757303 -0.14362293 -0.3079438 0.69470024 0.51266176 0.76888096 -0.2829397
-0.10992065 0.5664977 -0.058066092 -0.032494083 0.64777786 -0.17764442 1.0617268 -0.22180769
0.4664539 0.31722417 0.46201017 0.325597 -0.22649334 0.6422187 -0.32779166 0.32196903
0.8362698 0.48116466 -0.10309437 0.3921931 0.31410894 -0.3452611 -0.12898417 -0.07379346
0.6846579 -0.23322015 0.25780863 -0.21176937 -0.12475939 -0.020345952 0.062368605 0.22707856
0.8692119 -0.001565536 -0.03262788 0.025789516 0.3997936 -0.28638566 0.8068098 0.80014527
0.05287344 0.41802177 -0.048343685 -0.20102592 -0.22981526 0.20483865 0.20926544 -0.19509873

weight f4 [1, 64]
00000000: 5541 20c0 8a36 9d3f 77ab 07c0 8ae3 cc3e
00000010: c8ca d93e 5865 8b3e 835f 573f 49b0 7a3f
00000020: 7469 dfbf 2c59 1940 10e6 01c0 cf6e 2ec0
00000030: 83b4 b03f 5dd0 8f3f c135 f23e 4ee7 01c0
00000040: ca9c fdbe 3066 e83e ead4 b0bf 4bf7 08c0
00000050: 1a82 e13e 801d 01c0 8562 3d3f 0b98 27c0
00000060: 0211 ae3f 7128 0c3f 7e65 b03f 0180 c53f
00000070: 8a28 ccbf b743 2e3f 6974 16c0 339f af3f
00000080: 9c9a 023f 425a d33f 7571 c3bf 9fac 7d3f
00000090: be37 6e3f 45da 1ac0 765e 81bf 1f73 46c0
000000a0: 44d0 cd3e 54eb 44c0 56b7 d63f c38d 1dc0
000000b0: 406c b8bf 3173 3bbf 94ae acbc ae16 2a3f
000000c0: e914 093f e32e 893e 2dc2 1bc0 83d3 283f
000000d0: 43d4 b73f 31cf 2ec0 8125 1d40 9b0e a23e
000000e0: 7ac5 4f3f 0f1a 2a3f d82c 09c0 e347 25c0
000000f0: 4ee4 f7bf 18ed be3f f8e9 9f3f 4f51 7cbf
-2.5039876 1.2282269 -2.1198404 0.4001735 0.42537522 0.27225757 0.84130114 0.9792524
-1.7454057 2.3960676 -2.029667 -2.7255132 1.3805088 1.1235462 0.47306636 -2.0297427
-0.49533683 0.45390463 -1.3814976 -2.1400936 0.44044572 -2.0174255 0.73978454 -2.618655
1.359894 0.5474921 1.3780973 1.5429689 -1.5949872 0.68072075 -2.350855 1.3720459
0.51017165 1.651192 -1.5268999 0.99091524 0.93053806 -2.419572 -1.0106952 -3.1007764
0.40197957 -3.0768633 1.67747 -2.4617774 -1.4408035 -0.73222643 -0.02107934 0.66440856
0.5354753 0.26793584 -2.4337265 0.6594774 1.4361652 -2.731396 2.455414 0.31651768
0.811607 0.6644601 -2.143362 -2.5825126 -1.9366548 1.4916105 1.2493277 -0.9856157

weight f4 [64, 96]
00000000: d6da e5be 3428 023c 257b 2a3e c9ba 023d
00000010: 3dd4 19bf d289 71bf 54f3 e5be ff19 06bf
00000020: c8e8 c8be 001f 8abf 13ed 423f 2912 013f
00000030: d9df df3d 9bc9 06bf 8600 5bbf ccce bf3e
00000040: 6543 f8be 9fd8 7b3e 19c8 6e3e 3244 943b
00000050: bd38 ebbe bb8b 963e 4531 c63e 0ab1 e43e
00000060: 98fb 463e 70fb e93e 53b9 21bf 73b6 ba3e
00000070: 01eb a73d f9cf 2abf 1c7f 0e3e 07d4 3c3e
00000080: e2d2 8bbe 6209 8d3d 0b7d 60bd f549 bb3e
00000090: 559d 913d f2d2 e7be 4f2d 563f 9d9e 163f
000000a0: 19d1 c33c adba 96be e057 603e 9178 633e
000000b0: a0b0 80be 772f f03e c8ad 0c3f efef ddbc
000000c0: 87e1 d4be ba08 43bd 9238 7fbe fb4e 0fbf
000000d0: b3e1 60bf 3401 243f ccd2 4d3e 8ae3 713d
000000e0: b4c0 a93e 1b46 6e3e 91bd 053e ebf5 6fbe
000000f0: f1a7 5fbf 7878 2abf 812d 1f3f 9a01 2fbf
00000100: 23cd 123f 74ab ea3e 5991 463f e992 84be
00000110: 5f15 073e d177 c5bd 8bbe 3cbd 94a4 a73f
00000120: 9b83 5a3e ba9a ad3e 55a6 ac3e 76fa c7bd
00000130: 8213 3b3f 1c98 e23e f51e 96bd 1ca9 b33c
00000140: 6155 a23c 7e0d edbe b532 013f f3fb 15bf
00000150: f2a2 12bd a085 15bf cddb 313f fb3d 81bf
00000160: 30f5 2bbe 33ef 0cbe 9da4 033f c46a 77be
00000170: d4ff f23e 40c2 6dbe 109f 653d f6ad 42be
00000180: e475 2abe ea8f d33d e653 8fbe 8056 8dbe
00000190: 227e bc3e 50d6 4abd 905c 963e 64d2 263e
000001a0: ad47 743d befc ee3e 0766 59be 415a 143d
000001b0: 5924 80be d19d c0bc 4a2d dc3e ef88 c8bd
000001c0: 0226 de3e 5799 0b3e bdc1 80be 6eb5 cbbd
000001d0: 1041 57be 4db0 933e 3195 8c3e 8b2a ba3c
000001e0: 7314 5abe 624b 7dbe bfff bb3e 99f4 083e
000001f0: 992c e63d 0e5a 283e 7bb5 b03e b802 6c3e
00000200: cddb 1b3e 4d0d d73d 0208 9b3e 0c92 29be
00000210: c396 4abd 4c57 46bf bb01 01bf 3dd8 c63e
00000220: 7c2c 28be 97bc 9abe fe4f f13d d5d2 8c3e
00000230: 0f23 2abc d676 d3be c685 5ebe f1a6 81be
00000240: a39a 983e 1db6 633d ec30 25bf c011 6dbe
00000250: 1a63 c13e c293 5cbf b75b d93e f28a 883e
00000260: 3212 a8be a9a1 1bbf 84cb c4bc f0b2 963e
00000270: fb7c cdbc c41f 83be 4b60 04be 4494 c83e
00000280: adf8 ecbd fc4d ad3e b503 083e 2618 3a3d
00000290: 7328 0e3e 85fb 043f b7e4 063e f498 f7be
000002a0: c91a 08be 963d 59be 9b7f a4be c6b6 3b3f
000002b0: 6d8e aebd 0b1b 3abe 363a 91bc 8290 a4be
000002c0: 4ff1 753e f21a 4cbd 4840 80bd 7add 06bd
000002d0: b496 fd3e 4cde 5bbe 16ac 0d3f ffdf a13e
000002e0: e410 7abd 7877 473e 2294 73be e7d2 003e
000002f0: a04f 8f3e ef8e b5be 8593 99be 7ebb b1be
00000300: 3845 2fbc d6c9 3abd 26d8 9b3d 5dc5 943f
00000310: d90c 54be 5b4c fabe f1a6 b7be 7a0a edbe
00000320: 6277 dcbe 7fe4 1fbe a5bb 4f3f 250f 7bbe
00000330: f129 49bd 7af2 7b3d 2c6c 5c3f 4c6b 94be
00000340: 915b b83e 8127 893d 9c23 60be 3b54 e23e
00000350: ea90 2b3e e4d7 88be 9c9d 73be 8e38 0abf
00000360: dafc 903c 411a bbbe d0fe 1f3f efd7 003e
00000370: d1b0 2fbf 9659 75be 0f52 0dbe 914f 8d3e
00000380: 36e9 dcbe 2bc0 40be 5f43 1dbf ca34 13be
00000390: e281 a4bc c742 85be a1f6 4cbc 39a1 293d
000003a0: 9fb1 97be 72a4 76bf 3bc2 3fbd 1fdf 8d3d
000003b0: abe7 87be 96f6 0b3f 65d8 743e 753a d7be
000003c0: 82c1 78bb ac15 36bf 8d2f c83e 3160 963e
000003d0: 3473 0d3f 6b4b f03d 07cb 07bf e7f8 1d3e
000003e0: 33c8 f1be 1bd1 6cbe 8c4a f8be 0314 ee3e
000003f0: d184 b03e 2082 b83e f3cc 603d afbd d8bc
-0.4489352 0.0079441555 0.16648538 0.031916413 -0.60089475 -0.9435092 -0.44912207 -0.52383417
-0.39240098 -1.079071 0.76142997 0.50418335 0.109313674 -0.52651376 -0.85547674 0.3746246
-0.48488918 0.24594353 0.23318519 0.004524731 -0.45941725 0.2940348 0.38709465 0.4466632
0.19431913 0.45699644 -0.6317341 0.36467323 0.0819912 -0.6672359 0.13915676 0.18440257
-0.27309328 0.06886555 -0.05480675 0.36579862 0.07110087 -0.45278126 0.83662885 0.58835775
0.023903416 -0.29439297 0.21908522 0.22213961 -0.25134754 0.46911213 0.5495267 -0.027091948
-0.41578314 -0.047615744 -0.24923924 -0.5597989 -0.8784439 0.64064336 0.20099944 0.05905489
0.33154833 0.2326893 0.13060595 -0.23433654 -0.87365633 -0.6659007 0.6217881 -0.6836182
0.57344264 0.45833933 0.7756553 -0.25893334 0.13191746 -0.09641994 -0.046080153 1.30971
0.21339266 0.3390711 0.3372065 -0.097645685 0.7307664 0.44256675 -0.07330123 0.021931224
0.019816102 -0.46299356 0.50468 -0.5858757 -0.035799928 -0.5840702 0.69476014 -1.009704
-0.1679275 -0.13763122 0.51423055 -0.24161822 0.47460806 -0.23218632 0.056059897 -0.19011673
-0.16646534 0.10330184 -0.27993697 -0.27605057 0.36814982 -0.04952079 0.29367495 0.16291195
0.059638668 0.46677202 -0.21230327 0.036218885 -0.2502773 -0.023512753 0.43003303 -0.09791743
0.43388373 0.13632713 -0.2514781 -0.09946714 -0.21020913 0.28845444 0.27457574 0.022725364
-0.21296863 -0.24735788 0.36718556 0.13374557 0.11238975 0.16440603 0.3451346 0.23047912
0.15220566 0.10500584 0.30279547 -0.16559619 -0.049460184 -0.77476954 -0.50393265 0.38836852
-0.1642322 -0.30222008 0.117828354 0.27504602 -0.010384335 -0.41301602 -0.21730718 -0.2532268
0.29805478 0.0555936 -0.64527774 -0.23151302 0.3777092 -0.8616296 0.42452785 0.26668507
-0.32826382 -0.6079355 -0.024022825 0.29433393 -0.02508401 -0.25610173 -0.12927358 0.39175618
-0.11570869 0.3384856 0.13282664 0.045433186 0.13882618 0.5194629 0.13173185 -0.4835888
-0.13291468 -0.212149 -0.32128605 0.73325765 -0.08523259 -0.18174379 -0.017727952 -0.321415
0.24017833 -0.049830385 -0.06262261 -0.03292606 0.4952904 -0.21471518 0.5534071 0.31616208
-0.061051264 0.19479167 -0.23786977 0.12580453 0.27990437 -0.35460612 -0.2999536 -0.34713358
-0.010697655 -0.045602642 0.076095864 1.162273 -0.20708026 -0.4888638 -0.35869554 -0.46297055
-0.43059832 -0.15614508 0.811457 -0.24517496 -0.049112264 0.06151054 0.8610256 -0.2898811
0.3600736 0.06696988 -0.21888584 0.44204888 0.16754499 -0.2672721 -0.23790592 -0.53992546
0.017698694 -0.36543468 0.6249819 0.12582372 -0.68629175 -0.23959956 -0.13800834 0.27599767
-0.43146676 -0.18823306 -0.61430925 -0.14375606 -0.020081464 -0.2602751 -0.012509973 0.04141352
-0.29627702 -0.96344674 -0.046816092 0.069273226 -0.26543936 0.54673135 0.23910673 -0.42036787
-0.0037957137 -0.7112682 0.39098778 0.29370263 0.5525391 0.11733135 -0.5304417 0.1542698
-0.47223052 -0.23126642 -0.48494375 0.46499643 0.3447633 0.36036777 0.054882955 -0.026457636

bias f4 [64]
00000000: ed0e e03c f092 333d ae10 17bc 44f9 66bb
00000010: b76d 273e c4d7 9abd d1d9 10be a1ad e03c
00000020: f78f 783d 21c0 d93d d959 003e b0e2 943d
00000030: 5631 0a3d 39fa 2c3e 8d1d 7d3d 9c16 6abd
00000040: ae9d 143c 7b3f 74bd 2664 753d 6014 dbbc
00000050: 5565 133d 8f5c 943c a39c a93c 2341 fe3d
00000060: 4556 8dbd 805f b03d f0c3 c8bd d4f9 78bd
00000070: f964 ef3c 57d4 193d 867e 26bd a868 2d3e
00000080: 0a2f a83d b37e 92bd ad53 9abd cbe7 e2bd
00000090: a938 2fbb 172c b73c a2f5 41bd deea 863d
000000a0: f266 cd3c 89e3 5dbd 3ff1 083d 3c61 ef3b
000000b0: 7558 0bbd 3ea5 b73d 585f 74bc 6a2a b23d
000000c0: 30c5 053c 5319 943d cdc6 a63d 5ca0 903d
000000d0: 651e 553e 8450 303e 73b7 963d 6e79 8cbc
000000e0: f7ce fd3b af8c 533d ae29 f23d c332 7fbc
000000f0: 26d1 633d 0444 f73d 0a3d a23c 3ac9 843d
0.027350867 0.043841302 -0.009220285 -0.0035243789 0.16350447 -0.07560685 -0.1414559 0.027426543
0.06068417 0.10632349 0.12534274 0.072698 0.033738457 0.16892327 0.06179576 -0.05715047
0.009070797 -0.059630852 0.059909962 -0.026743114 0.03598531 0.018110542 0.020704573 0.124147676
-0.0690122 0.08611965 -0.09802997 -0.06078513 0.029222952 0.03755602 -0.040648006 0.16934454
0.08212097 -0.07153072 -0.07535491 -0.11079367 -0.0026736653 0.02235989 -0.047353394 0.06587766
0.025073502 -0.054172073 0.033433195 0.0073052924 -0.034019906 0.08967064 -0.01491531 0.08699496
0.008164689 0.07231393 0.08143387 0.07061836 0.20812376 0.17218214 0.07359209 -0.017147746
0.0077456194 0.05164784 0.11824356 -0.015576067 0.05561938 0.1207352 0.019804496 0.064836934

weight f4 [128, 64]
00000000: b642 9b3d 58dc 8cbd 982f e7be f08e 6f3d
00000010: dee5 853e 6f7f 66be 8ad1 563e 4450 113f
00000020: 8346 bdbe a7a4 d53c 2aa6 7bbe 9f6f 9bba
00000030: 092a 51bc b43e 903e e6fa 89bd a7ea 18be
00000040: 81c9 bcbd 8d72 ff3e 58f4 ad3e fe3e c93c
00000050: 600c 92bc 46df d03e 9756 94bc 0e3c e83e
00000060: b774 113e 88e9 bfbd c75f 60bd 679a f03d
00000070: 4f69 57be d4ff a3be 3b1f 893e 04d8 d8be
00000080: 8d13 e0be 0c2a 2c3e e84c 0b3e ac88 49bd
00000090: 22cd 153f 523a 8cbe e2c8 a23d d295 f93d
000000a0: 6fd3 243d 4ada 3ebe 1e78 23bf 4865 83be
000000b0: 9f20 c3be b6fd 9e3d 88f0 843e f9ec 44be
000000c0: 0e59 2e3d e511 9e3e 869b c5be 396e 8f3c
000000d0: af5c 993e 449e 4d3d ab6b d3bd 82bf 8cbe
000000e0: 6df2 34be 30de b8be 88f2 83be 2cd9 893e
000000f0: ebe3 133d dd3c f2be ca8f 46bc b358 ee3d
00000100: ba7c 3b3e 96db bbbd cb0a 283c 8849 273d
00000110: e34b f6bd 3528 da3d 3701 6cbe bfbe 10be
00000120: cec2 bdbd 6d66 1bbe 4cbd 84be 349d e33e
00000130: 4e0e 19bc 67fd 65be 4017 06bf 4401 afbe
00000140: 9269 723b e26e b7be 65e8 6abf 9c1b b6bd
00000150: cad4 95bd 4a09 e3bd 909f 86bd 9b35 4b3d
00000160: 3644 783d ae8e fd3e c749 43bd 619a 6b3e
00000170: 2034 13bf ca46 213e a206 01be 9f61 87be
00000180: 5958 1b3d 8007 10bf d625 acbe 1b69 a3bd
00000190: 58a1 40bf 88e9 c6be 43b8 9d3e b127 56bc
000001a0: bac2 1abf 8082 b3bc 7c95 563c 9eff 3fbe
000001b0: 0173 70be e2b9 de3e ad3f a83e 805b 683d
000001c0: 19f0 a2bd 30b9 c0be 8bf1 e03d b994 4cbd
000001d0: 0e03 d4bd 8a74 103e 7f77 b03d db78 5c3e
000001e0: 0a75 b4bd 660e 8ebe 9387 2f3e bf2e 64be
000001f0: c8d3 b9bd 6ac1 a23e bcda 4f3a f3f5 ccbe
00000200: 3b31 47be 63b9 9ebe a412 fabc de18 2c3e
00000210: 712c c43d fe21 183e 1aec 3b3e 1d05 1f3e
00000220: 54bd 60be c7a3 db3c 25c0 c53b affe 20bd
00000230: c768 803e c3bc 2a3e b7c8 ea3d 2cc4 4ebc
00000240: 8731 ba3c 7921 1d3e bbeb b6be 6ba9 adbd
00000250: 36f8 873e c39f 7a3e d1ac b9bc 3a25 4d3c
00000260: b395 fe3e 304f 0bbe 2ae4 b53d c45e 0f3e
00000270: 4fee eb3e 6dfa 1c3c e888 b9bd 0fbb 963e
00000280: b61c 54bd 4491 a23e c133 ab3d 419d 823d
00000290: edff 193f ddbb da3d e85f 203e 170f c93d
000002a0: 4f82 6b3d d263 753c dbd0 6e3e 2259 8d3e
000002b0: e3de 293d 1f52 2dbd a7c6 3a3e f910 51bd
000002c0: fa33 283e bc03 7e3e 56ca e63e 31ae e53e
000002d0: 06cb a3be 49f8 153e 0998 7c3d da31 023d
000002e0: 2f3e 863e 311c d83e 61a9 87be 94d2 74be
000002f0: 6ded 0d3c 21f7 d7be 52c3 27bd 6688 563e
00000300: 9c4e 31bd a75e 38bc 4254 073e 3882 843d
00000310: a41b 12be 1eda c23c 3a6f 2a3c c44f 27be
00000320: afc3 8e3d ad22 8dbd a74f 113e 8aa6 dcbe
00000330: 2a76 a5be ad30 c23d 9ff0 883e a838 37bb
00000340: 6979 ac3d bf36 b03d 5f96 973e f78e 8f3c
00000350: e9ad d83b 03fc d1be 81c0 6d3d 03a3 85bc
00000360: 3a01 0d3e 2e67 833e fc1b 933d b349 cbbd
00000370: 0865 833e 6e05 0fbe e1e9 a8bd 4647 883e
00000380: eb79 513e 6086 673e 9696 273e a0e1 5a3e
00000390: df09 e93e 0d75 c83e f9e3 57bc c685 d63d
000003a0: 5cc2 1a3e 4019 683d 3807 a83e f42d a4bd
000003b0: 7966 0b3e 58e2 b1be d566 fcba 48aa 2c3c
000003c0: ff4e e2be 101b 293e 2dd3 083e ed4c 95be
000003d0: dfd9 0a3e 08a5 3ebb 73f2 b0bc b9d9 b93e
000003e0: 06ea 5d3c ac07 343e 0d76 883e 66f2 ca3e
000003f0: d23f 45be c99a 73be 5dd3 31be 0580 be3e
0.075810835 -0.06877965 -0.451535 0.058485925 0.26151937 -0.2250955 0.2097837 0.567631
-0.3696786 0.026079489 -0.24575105 -0.0011858827 -0.01276637 0.2817284 -0.06737308 -0.14933263
-0.09218121 0.49892083 0.33975482 0.02456617 -0.017828166 0.40795344 -0.018107696 0.45358318
0.1420468 -0.093707144 -0.05477884 0.117482 -0.21036266 -0.3203112 0.2678164 -0.42352307
-0.43764916 0.16812915 0.13603556 -0.049202606 0.5851613 -0.27388245 0.079484716 0.12186779
0.0402407 -0.18637958 -0.6385516 -0.2566321 -0.38110825 0.07763235 0.2596476 -0.19231023
0.042565398 0.30873027 -0.38595217 0.017508613 0.29953524 0.050199762 -0.103232704 -0.2748986
-0.17670603 -0.36107016 -0.25770974 0.26923501 0.03610603 -0.4731206 -0.012119243 0.11638012
0.18309298 -0.09172742 0.0102564795 0.04084161 -0.12026193 0.106522 -0.23047338 -0.14135264
-0.09265672 -0.15175791 -0.25925672 0.44455874 -0.009341789 -0.22459947 -0.52379227 -0.34180653
0.0036989194 -0.35826784 -0.91760856 -0.08891985 -0.07315977 -0.11085756 -0.06573403 0.04961167
0.060611926 0.49522918 -0.04767778 0.2300811 -0.5750141 0.1574966 -0.12600186 -0.26441666
0.03792605 -0.56261444 -0.33622617 -0.07979032 -0.7524619 -0.38850045 0.30804643 -0.013070987
-0.6045338 -0.021912813 0.013097163 -0.18749854 -0.2348137 0.43501192 0.3286108 0.056727886
-0.07955951 -0.37641287 0.10983571 -0.04994652 -0.10352145 0.14106956 0.08616542 0.21530478
-0.08811386 -0.2774536 0.17141561 -0.22283457 -0.09073597 0.31788188 0.00079290173 -0.40031394
-0.19452374 -0.31000814 -0.030526467 0.16806361 0.09578789 0.14856717 0.18351784 0.15529294
-0.21947223 0.026811494 0.0060348683 -0.039305385 0.2507994 0.1667357 0.114640646 -0.012620013
0.022728695 0.153448 -0.35726723 -0.084795795 0.26556557 0.24475007 -0.022665413 0.012521083
0.49723586 -0.13604426 0.088814095 0.14000994 0.46080253 0.0095811905 -0.09059316 0.2943959
-0.051785193 0.31751454 0.08359481 0.0637765 0.60156137 0.10680363 0.15661585 0.09817331
0.05749732 0.014977412 0.2332186 0.27607065 0.041472327 -0.042314645 0.18239842 -0.051041577
0.16426077 0.24806112 0.45076245 0.4485946 -0.31990832 0.14645495 0.06166843 0.031785823
0.26219317 0.42209008 -0.26496413 -0.23908454 0.008662564 -0.42180732 -0.040957756 0.2095047
-0.04328786 -0.011253036 0.13215736 0.0647015 -0.14268357 0.023785647 0.010402495 -0.16339022
0.069709174 -0.068913795 0.14190541 -0.4309581 -0.32316715 0.094819404 0.2674608 -0.0027957354
0.08421595 0.08604192 0.29606912 0.017524226 0.0066125286 -0.41012582 0.058044914 -0.016313082
0.13769999 0.25664657 0.07183072 -0.099261664 0.25663018 -0.13966915 -0.08247734 0.26616877
0.20456664 0.22609854 0.16366038 0.21375132 0.45515344 0.39151803 -0.0131769115 0.10474734
0.15113205 0.056664705 0.32818007 -0.08016577 0.13613309 -0.34743 -0.001925672 0.010538645
-0.44200894 0.1651423 0.13361807 -0.29160252 0.13559674 -0.0029090066 -0.021599984 0.36298922
0.013544565 0.17581052 0.26652566 0.3963806 -0.19262627 -0.23789515 -0.17365785 0.37207046

bias f4 [128]
00000000: 5409 cabc 8b7a 993d 5aca 943c 807d b0bd
00000010: 7df0 aabd d2a0 d63d 38f7 04be 47df e8bb
00000020: f418 543e 0518 b23d 1c1d 033e 3232 363d
00000030: 2b95 4f3d 4c75 a43c 9413 84bd 450b 5f3d
00000040: 5d74 d3bd cb80 f43d 5c1f ed3c 53c6 ebbd
00000050: 564e bcbd 9328 75bd 8ced ac3c 8cb1 ad3c
00000060: e7a3 c63d 90da 393e 5ea3 983d fc2d 36bd
00000070: 928f 8c3d f4e2 bebd 3724 97bd f31c e2bd
00000080: 2755 1dbd 08cb e0bd d2bd ac3d d869 143e
00000090: d08b 25be cdf5 9c3c f3f2 89bd 3e11 5fbd
000000a0: 7df3 a63b 09b0 093e 4cbd 903c 0dc0 d4bc
000000b0: ba43 80bb 8d81 093d 5b24 05be bda5 e63d
000000c0: 73e1 96bc dfdf 75bc f9e0 af3d 1d3a e0bb
000000d0: 5a8a 293d d527 7ebb c59e d3bd 12f8 853c
000000e0: ff7b 453e 7afd a8bd 56f3 cc3c bae0 ddbc
000000f0: b50b 56bd be3e 9dbc a8da 5f3d b31e b83d
00000100: 600f b33d 5b98 b63d 7e0d 92bd 9ac1 b23b
00000110: a2ae 843d f09b aeba 52fa 16be 1995 ae3c
00000120: acda d8bc 132c 483d f84b f83d 6e6a 923d
00000130: 6740 253d c012 2abc 0700 09bd 79b1 103e
00000140: cb4d 40be 38a3 fb39 7da5 913d dcd6 86bd
00000150: 7439 59bc ccce 51bc 9c44 35bd 0a96 ecbd
00000160: 3774 183e 7328 d23d 2bed 69bd 4cb4 943d
00000170: d4b5 9a39 d816 b23d bfb7 d13d 8586 bb3b
00000180: 2b7b 61bd 899c c63d ef40 963b a556 9ebd
00000190: f1c4 f93c 81b2 10be 3341 b73d 04e8 0dbc
000001a0: b12f bb3d ead2 063e cdc9 5fbd 493b db3d
000001b0: bff2 fb3c 5ac4 993b 0e29 07be d0e8 043d
000001c0: a37c 8e3d ad61 b53d 4f57 c9ba 5b60 09be
000001d0: cdd4 4cbe 2403 c6bd f739 9fbd 4dd9 b53c
000001e0: e720 3bba afd5 1d3c 8a4c afbd 726b a4bb
000001f0: ded0 7cbd 5b8e 47bd cb4a 29bd 1c67 5e3d
-0.024662651 0.07494076 0.018162895 -0.08617687 -0.08346651 0.10479893 -0.12984931 -0.007106695
0.20712644 0.086959876 0.12804073 0.044481464 0.050679367 0.020075463 -0.06449047 0.054454107
-0.10324929 0.11938628 0.028945617 -0.11512437 -0.09194629 -0.059853148 0.021109365 0.021202825
0.09699231 0.18149781 0.07453035 -0.044477448 0.06863321 -0.093206316 -0.07379954 -0.11040678
-0.038411286 -0.10976225 0.08434643 0.14493501 -0.16166615 0.019160176 -0.06735792 -0.054459803
0.005094944 0.13446058 0.017668389 -0.025970483 -0.0039143236 0.033570815 -0.1300215 0.11262081
-0.01841805 -0.015006988 0.08587832 -0.006842865 0.041391708 -0.0038781066 -0.10333017 0.01635364
0.19285582 -0.08251472 0.025018375 -0.027084697 -0.05225726 -0.019194957 0.054651886 0.089902304
0.08743167 0.08915778 -0.0713148 0.005455208 0.06478621 -0.001332162 -0.14743927 0.02131133
-0.026471458 0.048870157 0.12123865 0.07149206 0.040344622 -0.010380447 -0.03344729 0.141302
-0.18779676 0.00047996058 0.071116425 -0.0658395 -0.013258327 -0.012805652 -0.044254884 -0.11552055
0.14888082 0.10261621 -0.057110947 0.072609514 0.00029508641 0.08695763 0.10240125 0.005722823
-0.055049103 0.096978255 0.0045853774 -0.0773137 0.030489417 -0.14130594 0.08947983 -0.008661274
0.09139956 0.13166395 -0.05463581 0.10704667 0.030755399 0.0046925964 -0.13199255 0.03244859
0.06957366 0.08856521 -0.0015361103 -0.13415663 -0.20003052 -0.09668568 -0.07774728 0.022198344
-0.0007138387 0.009633466 -0.085595205 -0.0050176913 -0.06172263 -0.048719745 -0.041331094 0.05429755
