model/doom-model.pth (torch, 75397 bytes, 27 tensors)

weight f4 [8, 1, 3, 3]
00000000: 8568 0f3e 084d a13e da57 423e 38b9 35bf
00000010: d920 663e 8140 78be eec0 47bf 0c01 57be
00000020: c52e 6c3e a186 ed3e 01cb 3dbf ed2b 19bd
00000030: e0ad 7bbf 780e 3c3e a533 6a3f 7c5a 3c3e
00000040: b09c 943e 2ae6 4ebf 8566 843e 6b84 dfbe
00000050: 146c d63d b7b3 d2bc 3a55 55bf 8b71 853f
00000060: fa61 383f 91fa 47bf 039d 3a3e ba1d c3bd
00000070: 24b6 30bd 575b 253d 42e6 203f 5c2f 0f3f
00000080: 7465 9dbe dd6f ff3e fccc 7bbd f429 34bf
00000090: 2ddf d03d 839f 923e 0f0c cabe a784 e3bd
000000a0: feb8 033f eb04 bcbc fdea bfbe 2cb7 fc3e
000000b0: 70b1 7d3d c45d 593e 96ba 3dbd 246d 0f3f
000000c0: cd99 193d 823c ae3d cece 883e c15e 543e
000000d0: 4df4 2a3e cbe5 e3bd 60a2 843e 6fda 753e
000000e0: dbf0 19bd 9da1 093f 5480 9a3e d921 893e
000000f0: d230 4dbd 151b 3abf 1133 cabd 4ae4 743e
00000100: 36e3 03bf d3e7 afbe 25fb 8d3e bdb7 8dbe
00000110: 6c40 66bd 274e 9a3d d9fc 953d 043f 1bbf
0.14004715 0.31504083 0.18978825 -0.70985746 0.22473468 -0.24243356 -0.7802876 -0.20996493
0.23064716 0.46391776 -0.74137884 -0.037395407 -0.9831219 0.18364894 0.91485053 0.18393892
0.29025793 -0.8081995 0.25859466 -0.43655714 0.10469833 -0.02572046 -0.8333317 1.0425276
0.720245 -0.7811671 0.18223958 -0.09527154 -0.043142453 0.04037031 0.62851346 0.5593164
-0.30741465 0.49890032 -0.061474785 -0.70376515 0.101988174 0.28637323 -0.39462325 -0.11109286
0.5145415 -0.022951564 -0.3748397 0.493585 0.061936796 0.21227175 -0.04632052 0.5602591
0.03750019 0.08507635 0.2672028 0.20739271 0.16694756 -0.11127814 0.25905132 0.24009107
-0.037583213 0.5376223 0.30176032 0.26783636 -0.050095387 -0.72697574 -0.098730214 0.2391521
-0.5151857 -0.34356555 0.2773067 -0.27679244 -0.05621378 0.075344376 0.073236175 -0.6064303

weight f4 [8]
00000000: 8f8b 963f 880d ad3f 1e08 6f3f 5b1f 3d3f
00000010: 1890 643f c457 633f 606b 863f c473 753f
1.176134 1.3519754 0.9337176 0.7387597 0.8928237 0.88805795 1.0501518 0.9587977

bias f4 [8]
00000000: 14fe 32be 7876 7fbe 63d1 f2bd c279 6dbe
00000010: ddb5 dabe 8e43 91be 4dcc 9bbe 2871 5ebc
-0.17479736 -0.24947536 -0.118563436 -0.23190978 -0.42716876 -0.28371853 -0.30429307 -0.013576783

running_mean f4 [8]
00000000: 3953 90be 26bd 31be a4db 963d 49b3 2f3e
00000010: 014d 383e 7a1c e23e 909a 603e 2120 b8be
-0.28188494 -0.1735731 0.07366112 0.17158236 0.17998125 0.4416235 0.21933961 -0.35962012

running_var f4 [8]
00000000: b473 903c b654 e63b 9710 9f3b 41d3 483c
00000010: af1c cb3b 4618 bb3c 41f8 7e3c 2bc6 8b3c
0.017633297 0.0070291413 0.0048542726 0.012257398 0.0061984877 0.022838723 0.015562118 0.017062267

weight f4 [8, 8, 3, 3]
00000000: 1943 a03e de50 a63e abca e93b 6af4 a0be
00000010: 31d8 9bbd b324 573e 273c 563e 572c b63e
00000020: b712 7a3e a509 bc3e 465e e23e 1ba4 d6be
00000030: 19c3 b3bd 6a51 a73d 80c5 13be 73d0 123f
00000040: c7b7 8d3d c4e3 083e 08d9 21be 8e36 81be
00000050: a63c 21bc 36f5 27be 49aa 953e fdca 10bd
00000060: 1441 b4bd 9920 b33c d395 243d 85ed 37be
00000070: 3f2f 08be 894b 87bc 8056 923e f861 ca3d
00000080: 5f0a 0dbe bb1b 443e 3153 6fbe 3284 22be
00000090: dc71 403e 8fdf 903d 819b 7cbd 8f6c af3d
000000a0: 6ef5 0fbe efa5 f8bc 71cc c4bd 428b c4bd
000000b0: 52c3 9ebc 2d30 8b3c 9863 42be a230 2fbe
000000c0: d330 303e 1476 49be 0dac 143e 721d 9abd
000000d0: eb02 50be 264b 03be 2da3 4bbe 98e9 29bd
000000e0: c521 9dbe 6a67 b93e 1b52 04bd 8ff8 2f3d
000000f0: 9020 7fbe e867 b83c 1cfa 8bbd ab09 89bb
00000100: 7e4b c1bc f55b 21be c02b e4bd 6e65 e5bc
00000110: 08b1 97bd f242 4e3e 5f80 08bd 89ed 25be
00000120: 4ce3 d63d 526b c8be 933e 25be e088 91bd
00000130: 874f bf3d 6cd0 243e f677 b8bd 33c9 aa3e
00000140: f026 403e 3d42 a23e 6dc8 803e 2ece 4e3e
00000150: 9be5 aabd da26 7dbd f56f 933e 4ce6 4a3e
00000160: 8f78 a6be 3eda 9b3d 8d73 11bd c6b5 d2be
00000170: ad07 083b c574 21be c83f 553e 8217 863e
00000180: 8961 97be 6a3a f6bd f81a e5b9 0775 56be
00000190: 9bcc 723e e135 5abe 0bb6 48bc f5be db3d
000001a0: 8350 7cbe 8c27 1d3d 7a52 a53e ea18 f9bd
000001b0: d152 383d ec33 323e f8cc 85bd b412 a0be
000001c0: 4f3b 3b3e 9fa4 b1be a317 8dbb acd5 763e
000001d0: 46d0 f5bb e1d5 363d eca8 153e 7bf7 07bd
000001e0: 7bc0 4abd d735 91be 6796 14bc 2efb 2c3e
000001f0: f87c b1bd 4111 953d 4731 153e 7c8e b13d
00000200: 6bb8 583e f938 b43d 44e6 b43e ddf4 a1be
00000210: 09c5 63bd 9d61 77be feb4 353e a271 88be
00000220: 1a11 99bd ddf7 03be 6d41 863d 5059 d6be
00000230: 3961 0abe d9b7 b8bd 021f 99bd 66c2 17be
00000240: 0148 183e e89c da3e 749b c8bc 4178 70be
00000250: 17cc e03d 0daf b1bd 6f46 223e 869e fc3e
00000260: 2d8e 7cbd 42bf c2bd 08b5 eb3c 7da3 a23e
00000270: 0258 a23e 5185 cebc b53b bfbe 91f1 ea3c
00000280: 88eb c13d 8e49 883e 492f 9cbd be7d d1be
00000290: 82d9 14be afa7 db3d 8a9f d5bd b7be cfbd
000002a0: 5d1d 813c 29e7 1bbe 7cdf b33d 34fe a83e
000002b0: 6c57 1bbc 07bb d03d b2c0 acbd f956 b9bd
000002c0: 4313 823d 9ebf 643e 5d38 c7bd adf3 0bbe
000002d0: 600e 853d bb1b 77be 9700 0cbd 6a23 05bc
000002e0: 3c57 8c3e 946f 903d 7fca 34be f47f 2c3c
000002f0: fa68 053e 0e3c 053d 3d24 1abe e2f7 e83c
00000300: 07df 213e 5487 96bd 607e 09be 46c0 fabd
00000310: 9c30 13be 56ff 46bd febd 903c 3bcb 1abd
00000320: 9079 73bd f7ff f43d 35a8 d3bd fdc3 76be
00000330: f852 83bd 034b 5dbd fc04 063e d0d6 e73d
00000340: a09b 8fbe 9e13 8bbd fa75 a73d 22dc bdbb
00000350: 5900 fcbd 507a ba3e 7358 67be 8a01 25be
00000360: bc0b acbd 47b4 013e 299f 80be ac6e 833e
00000370: 326a b63d 8c1c bd3d 70ce 94be e16f a6bd
00000380: 7850 d7be a4fb d9bb 4b67 4bbe d04f 8c3e
00000390: d954 783e 3678 fabd 211f 443d 2a57 07be
000003a0: 7339 8b3d be62 37bc 0847 38bd a7cf 5dbd
000003b0: 575e e23d adb7 8cbb cb56 f1be 7801 263e
000003c0: a168 85be a250 fb3d d079 843d c3c9 ee3d
000003d0: ff24 ccbd 2d37 f5be e36c a83d ceaa dfbe
000003e0: 69c8 53be d7df b8be fe4f ddbd 7517 1ebe
000003f0: ce0b a23d 47e2 82bd ce5c 8f3e 7985 2b3e
0.3130119 0.32483572 0.0071347556 -0.31436473 -0.076095946 0.21010093 0.20921384 0.35580704
0.24421202 0.36726108 0.4421255 -0.41922078 -0.08777446 0.081698254 -0.14430809 0.5734932
0.06919818 0.13368136 -0.15805447 -0.25236934 -0.00984112 -0.16402134 0.2923148 -0.035349835
-0.08801475 0.02186613 0.040181946 -0.179617 -0.13299273 -0.01651551 0.2858162 0.09881967
-0.13773488 0.19151203 -0.23371579 -0.15870741 0.18793434 0.070738904 -0.061671738 0.08565628
-0.14058468 -0.03035256 -0.096093066 -0.09596874 -0.019380245 0.016990745 -0.18983305 -0.17108396
0.17206125 -0.1967395 0.14518757 -0.075251475 -0.20313613 -0.12821636 -0.19886465 -0.041482538
-0.30689827 0.3621171 -0.032304864 0.042961653 -0.24914765 0.022510484 -0.06834814 -0.0041820607
-0.023595568 -0.15757735 -0.11141157 -0.028002467 -0.07406813 0.20142725 -0.03332555 -0.16203894
0.10492572 -0.3914438 -0.16137151 -0.07106185 0.093413405 0.16095132 -0.09007256 0.33356628
0.18764853 0.3169116 0.25152913 0.20195839 -0.08344575 -0.06180463 0.28796354 0.19814414
-0.32513854 0.07609986 -0.03551059 -0.41154307 0.0020756528 -0.157672 0.20825112 0.2618981
-0.295666 -0.1202286 -0.00043698377 -0.2094308 0.23710863 -0.21309616 -0.012250434 0.107297815
-0.24640088 0.038367793 0.32289487 -0.12162955 0.045000855 0.17402619 -0.06533235 -0.3126427
0.18284343 -0.34695908 -0.004305796 0.24104947 -0.007501635 0.044637565 0.1461522 -0.033195
-0.04949997 -0.2836139 -0.009069062 0.16892692 -0.08666414 0.072786815 0.14569579 0.08669755
0.211641 0.08799929 0.3533193 -0.31632128 -0.05560783 -0.2415833 0.17744824 -0.26649195
-0.07473965 -0.12887521 0.06555448 -0.41865015 -0.1351365 -0.09019441 -0.074766174 -0.14820251
0.14871217 0.42697835 -0.024488188 -0.23483373 0.10976427 -0.086759664 0.15847181 0.49339694
-0.061659027 -0.09509136 0.028772846 0.31765357 0.3170777 -0.025210055 -0.3735024 0.028679641
0.09468752 0.26618618 -0.076262064 -0.40916246 -0.14536098 0.107253425 -0.1043082 -0.10143798
0.015761072 -0.152249 0.08782861 0.33006442 -0.009481292 0.10191923 -0.08435191 -0.09049792
0.0635133 0.22338721 -0.09727547 -0.13667174 0.064968824 -0.24131672 -0.03418025 -0.008126119
0.27410305 0.07052532 -0.17655371 0.010528553 0.13028327 0.032527976 -0.15052886 0.028438512
0.15807734 -0.073500305 -0.13427114 -0.122437045 -0.14374012 -0.04858335 0.01766872 -0.037791472
-0.059442103 0.11962884 -0.10334817 -0.24098201 -0.064123094 -0.054026615 0.13087839 0.11320269
-0.2804842 -0.06790851 0.08176799 -0.005794064 -0.12304754 0.36421442 -0.22592334 -0.16113868
-0.08400676 0.12666427 -0.2512143 0.25670373 0.08906974 0.092339605 -0.2906375 -0.08126808
-0.4205358 -0.0066523124 -0.19863622 0.27404642 0.24251117 -0.1222996 0.04788125 -0.13216844
0.06798067 -0.011192976 -0.044989616 -0.05415311 0.1105315 -0.004294357 -0.4713653 0.16211498
-0.26056388 0.12271239 0.064685464 0.11659577 -0.09967994 -0.47893658 0.082238935 -0.43685
-0.20681919 -0.36108276 -0.10806273 -0.15438636 0.07912408 -0.06390815 0.28000492 0.16750135

weight f4 [8]
00000000: 6217 8c3f 7f29 543f f05c 883f ff12 883f
00000010: 04af 703f 8750 7f3f 7e1c 9a3f 69b5 783f
1.0944636 0.8287582 1.0653362 1.0630797 0.9401705 0.9973225 1.2039945 0.9715181

bias f4 [8]
00000000: 14b8 b5bd 383e 3abe 0d5d 08be eaf9 b9bd
00000010: 89da 183d af7c 353d 7d4d 42be aa10 263d
-0.08873001 -0.18187797 -0.13316746 -0.090808704 0.037317786 0.04430836 -0.18974872 0.040543236

running_mean f4 [8]
00000000: cadc 8c3e 5dc3 13be 5841 41bc 43a8 efbe
00000010: a255 ec3e eedc 20bf dde6 84bf 098c 7abe
0.275122 -0.14429994 -0.011795364 -0.4680806 0.46159083 -0.6283711 -1.0382954 -0.24467482

running_var f4 [8]
00000000: 2745 ec3f 8961 213f bb32 883f a20c 833f
00000010: 6676 e53f 6463 2f3f 19bc 323f bc73 293f
1.8458604 0.6303945 1.0640482 1.023823 1.7926757 0.68511033 0.69818264 0.6619222

weight f4 [8, 8, 3, 3]
00000000: 8a0d acbe b81b 31be 84ac ddbd f7bb 1fbb
00000010: 8f5e bfbc f321 80bd 49b3 7a3e 8559 12be
00000020: f1a1 393e f936 343d 634f dfbd a135 433e
00000030: d9d7 493e 0450 d23b afee d43d b478 523e
00000040: 0969 873e 5b96 2cbc 1eac 16be 9390 2ebe
00000050: d3c1 453e 11d5 003d cd0c 013e 6828 123d
00000060: f5f9 073d c08b e7bd e76f d43d b8a2 88bc
00000070: 4a9f a7bc b01a 5fbd 84c1 2e3e 73b0 05bf
00000080: e7b7 85bd cceb 553d f62b 1fbe 0e4c 89be
00000090: 98ef 693e 99f4 b0bd 18e5 adbe 1576 053e
000000a0: 6b8c 8abe 8989 fe3d ba55 d93d fd9d b83d
000000b0: adf6 8a3e 17d3 923e 2496 2d3d 3bb0 30bd
000000c0: 3b5c 5bbe 9bac 973d 7efa d23d 0dcc 823c
000000d0: acc9 20be a843 003e ca2b 223e 18c3 98bd
000000e0: 42c6 c73d 9d16 63bd 7879 8e3e d68a 1b3d
000000f0: 313e 7d3e ba2a 2e3e 3311 1b3e 3868 a93e
00000100: 4a4b 8b3d ced8 86be ed3a 5f3e a243 1d3e
00000110: b71e 583e 349f 63be 0099 a73e eed6 afbe
00000120: 3091 aebc 34fa e6be eef9 00be 4a07 f33b
00000130: 979d d73d ddbe 3abe f149 023e 97ce 04bc
00000140: 3a54 bf3d eab6 bcbe e0ec a23d fb88 183d
00000150: 723b 483e f685 6fbe 51ee c3bd 0d52 e83d
00000160: cf8f d8be 16f8 74bd 0f31 343e b395 f4bd
00000170: 0c51 60bb 7cca 0a3e 7adc d0bd 0922 0bbe
00000180: fee5 03be 359d 043e fe4b f4bd 3a71 e93d
00000190: 1775 673c 915e 703e 76aa 73be 6cad 2c3d
000001a0: 0c5a 6bbe 76fb a0be 37da a8bc 5284 1ebe
000001b0: a8d4 83be bd66 99bd fe6d 52bd 78fc 34be
000001c0: e66f bdbe a1eb 4ebe 891c 533e 1448 1b3e
000001d0: 389d c13b d067 f93d 60d7 10be a5d7 2fbe
000001e0: b563 edbd 75ec d93d 5566 0fbe 66b2 aebe
000001f0: 4bcf 8ebc e853 243e cead 2fbe 32ea 163e
00000200: 2fc1 9a3c d75b 423e 5868 6abd e5cd 073e
00000210: d2d5 58be f567 00be 18ed 67be 6b2a 91bd
00000220: 9f54 513c 1bc7 7c3e b89c 36be c02e 283e
00000230: 5151 d9bd 3e31 a53e 4244 e9be 2836 423e
00000240: 6494 ed3d 0c93 06bf 7108 c9bc 2644 a7bd
00000250: 834a bb3d e949 bd3a afc6 c63c 343e be3e
00000260: a88c 993d 3881 babd 5d97 13be 4050 b53d
00000270: a219 873e f9ea 0c3d 4901 803d 6a05 baba
00000280: 9d25 2bbe c7d2 15bd 79b6 f73d dd3b ecbe
00000290: 93a3 0e3e 7579 113e 7344 ac3d c7ea eeb8
000002a0: c2b3 a5bd 6d1d 8c3e 32c8 eebe f30e 093d
000002b0: 24ff 0ebd 45e0 5cbc 80a0 76bb 8d8a 8bbd
000002c0: 9ae7 e93d 7129 6cbe 0b90 02be b0bf d23d
000002d0: c22d 073e 973a 78be 6170 a5be 4241 7e3d
000002e0: 2b2b 8dbe 4dc9 133e 1e2e 773e ff07 f33d
000002f0: 95b7 f6bd 37a9 623e d853 06be ec00 7bbe
00000300: 2bd5 5d3d 2355 a13e 4e51 a8bd c4f4 91bd
00000310: 1b5a b7bc a3e3 3a3e 4656 8ebd 4c82 333d
00000320: 848a 7a3e 2849 05bd 624a c03d a941 b73c
00000330: f321 b0be 5d2b 55be 62b1 643e 44c8 5ebe
00000340: 4e03 a83e 147a dabd 1994 62bd 37d4 08be
00000350: a9fc f03d 3df9 d23e 587c d6bc 784e c0bc
00000360: bd21 51be 6f4e 2a3d 8287 783d d086 aabd
00000370: 41f2 8f3d ecee 833d e360 84be 03b3 47bd
00000380: 66f9 0f3e f3a2 22be d93a a9be 7c02 04be
00000390: b3f5 0e3e 2531 213e a721 58bd 1bd9 d23d
000003a0: 3e13 c6bd bf31 91be cbe1 23be 3a3a 44bd
000003b0: 4d86 a0be 2cbf e8bd 7bc3 a3bd 951d 1c3e
000003c0: d42b 91bc 924c 9abd 7789 ca3d c4da cbbd
000003d0: 81eb 783e b436 803e f488 223e a6e9 2ebe
000003e0: 9650 ea3b 24ca 903d ea6b 81be dee8 cabc
000003f0: d1ae 433e 0422 12bd 4883 7ebd dcbc f2be
-0.3360408 -0.1729573 -0.1082392 -0.002437351 -0.023360519 -0.06256475 0.24482454 -0.14291961
0.18128182 0.04399774 -0.10903814 0.19063427 0.19711246 0.00641823 0.10397088 0.20553857
0.26447323 -0.010533894 -0.14714095 -0.17047338 0.1931222 0.031453196 0.1260254 0.035683066
0.033197362 -0.11305952 0.10372906 -0.016679153 -0.020461697 -0.05446881 0.17066008 -0.52222365
-0.06529217 0.052226827 -0.15544114 -0.26815838 0.22845304 -0.08640403 -0.33963847 0.13033326
-0.27060255 0.124285765 0.10612054 0.09014509 0.27141324 0.28676674 0.042379513 -0.043136816
-0.21421902 0.07405969 0.10301684 0.01596644 -0.15701932 0.12525809 0.15837017 -0.07459086
0.097546116 -0.055441488 0.27827048 0.0379742 0.24730755 0.17008486 0.1514328 0.33087325
0.068014696 -0.26337284 0.21799822 0.15357831 0.21105467 -0.222287 0.32733917 -0.34343666
-0.021309465 -0.45112765 -0.1259534 0.0074166404 0.10528105 -0.18236871 0.12723519 -0.0081058955
0.09342237 -0.36858302 0.079553366 0.03724001 0.19553927 -0.23390946 -0.095669396 0.11343775
-0.42297217 -0.059806906 0.1759684 -0.11942615 -0.0034227995 0.13553804 -0.101983026 -0.13587202
-0.12880704 0.12950595 -0.11928557 0.113985494 0.0141270375 0.23473574 -0.23795494 0.042157575
-0.22983569 -0.3144185 -0.020611865 -0.15480164 -0.2574818 -0.07490299 -0.051374428 -0.17674434
-0.36999434 -0.20207073 0.20616354 0.15164214 0.0059086345 0.12178004 -0.14144659 -0.17172106
-0.11591283 0.10640804 -0.1400388 -0.34120482 -0.01743283 0.16047633 -0.17156145 0.14737776
0.018890945 0.18980347 -0.057228416 0.13262136 -0.21175316 -0.12539656 -0.22649038 -0.07088169
0.012776523 0.24685328 -0.17833221 0.16424084 -0.10611213 0.3226413 -0.4555989 0.18965971
0.11600569 -0.52568126 -0.024540158 -0.08167295 0.09145071 0.0014441583 0.024264662 0.37156832
0.07497531 -0.09106678 -0.1441321 0.08853197 0.26386744 0.034403775 0.06250245 -0.0014192287
-0.16713567 -0.036577966 0.12095351 -0.46139422 0.13929586 0.14206488 0.08411493 -0.00011392455
-0.08090927 0.273662 -0.46637112 0.033461522 -0.03491129 -0.013481204 -0.0037632287 -0.06813536
0.114211276 -0.23062684 -0.1275026 0.10290468 0.13201049 -0.242411 -0.323123 0.062073953
-0.27571997 0.14432259 0.24138686 0.118667595 -0.12046734 0.22134863 -0.13117921 -0.2451207
0.05415837 0.31510267 -0.08218633 -0.071267635 -0.022381833 0.18250899 -0.06950049 0.043825433
0.24466902 -0.03254047 0.093891874 0.022370176 -0.344009 -0.20817323 0.22333291 -0.21756083
0.3281502 -0.10667816 -0.05531702 -0.13362204 0.11766941 0.4120578 -0.026182339 -0.023474917
-0.20423026 0.041578706 0.060676105 -0.08326495 0.07028628 0.06442055 -0.2585517 -0.048754703
0.14059982 -0.15882473 -0.3305271 -0.12891573 0.13960914 0.15741403 -0.05276647 0.10295316
-0.09671639 -0.28358266 -0.16004102 -0.04790709 -0.31352463 -0.11364588 -0.07996269 0.1524566
-0.017721094 -0.07534136 0.098895006 -0.099538356 0.24308588 0.25041735 0.15872556 -0.17081317
0.00715072 0.07069805 -0.25277644 -0.024769243 0.19109656 -0.03567697 -0.06213692 -0.47409713

weight f4 [8]
00000000: d2b5 7b3f 06c9 6e3f e45b 6f3f 7871 7c3f
00000010: a894 7d3f dd4b 693f 7936 7c3f 9e62 6e3f
0.9832431 0.9327549 0.9349959 0.9861064 0.99054956 0.91131383 0.9852062 0.9311923

bias f4 [8]
00000000: d927 f8be 39c4 74be a069 a4be 54a0 bdbe
00000010: 3355 cabe 738a 88be 96b1 e9be cd6f a8be
-0.484679 -0.23902978 -0.32111835 -0.37036383 -0.39518127 -0.26668128 -0.456433 -0.32897797

running_mean f4 [8]
00000000: 5072 8a3e 19a3 93bf 90a0 e8bd cc72 32bf
00000010: 03fe 79bf 9933 b1bf b075 98bf 4800 39bf
0.2704034 -1.1534148 -0.1135875 -0.69706416 -0.97653216 -1.3843871 -1.1910915 -0.72266054

running_var f4 [8]
00000000: 78e6 a83f c629 563f b6a6 8c3f f2a8 ea3e
00000010: ffee 423f 65b8 6c3f f27e 2d3f 517c 0e3f
1.3195333 0.8365749 1.0988376 0.4583202 0.7614593 0.92468864 0.6777183 0.5565844

weight f4 [16, 8, 3, 3]
00000000: f013 b53b c88a 5b3c fa71 b1bd 299f 2cbb
00000010: aedf df3d 8d4b af3c 0ce1 a23d f877 0f3d
00000020: 0d66 8fbc 5843 e43d 97b3 a63d eb66 1ebe
00000030: 4072 3abd 0da1 11bc ba1f 5b3e 2c3c bc3d
00000040: 72ff 253d 517a 5c3d bcd6 8fbd 3aad 083c
00000050: e659 cfbd f045 54bc 4d88 edbd b8ad 3b3d
00000060: 82ff e4bd b3e8 67bd 7444 7a3e d475 adbb
00000070: 2df6 26be 1649 18bd 8cc1 d63d 6ed5 8e3d
00000080: 7dd9 1c3e e3cd 62bd a4be a2bd 500f 483a
00000090: d726 34bd 6853 f5bd b12e 11be 804b 1f3d
000000a0: fc03 2e3d 1f3e c3bb 7788 203e 4066 abbc
000000b0: 0cb6 7f3d 0508 e8bc bc76 233c 2b2e 943d
000000c0: 129d fd3c 397d 993d 9dfe 363e ebd4 473d
000000d0: 6c21 c0bb d422 a73d 7a38 f9bd 623b 53ba
000000e0: 8eed 39bd 47f0 b0bd 3006 e5bd 8885 c63d
000000f0: 30a8 b1bd 2f61 8abd 95bf 5d3d 2c3e 8e3d
00000100: 3304 01be a437 493d 09cb fc3c 4c9e 503d
00000110: 0d07 a1bc f9be 85bc e69e a23c 48a6 013e
00000120: c446 6d3e dfba bd3d aba5 f33d 9391 2f3e
00000130: 651b c23d 2ee2 42bd abf7 c73d ca84 01be
00000140: f897 b33c 174b 36bd d81c 5e3e 5638 11bd
00000150: 9c0b d53c 3a8e 523d 1346 1fbe 7427 febd
00000160: 1c4b 83bd ffca 4a3d b4af 983d 6311 b6bd
00000170: c2da 6fbd 5ab3 c8bc 6c49 c9bc e84f ec3c
00000180: ee65 34be 2f43 ddbd f681 453d 4052 7d3d
00000190: 46ba 07be fc21 9a3d 7c93 b53d 2b33 efbd
000001a0: 1ea0 063d fed4 29be 289d 9dbb 0724 efbd
000001b0: 3cf0 4dbd 02be 33bd 0863 aa3d a666 173e
000001c0: e06a b1bd 7954 fd3d 0205 81bd d66d fdbb
000001d0: cd2b fcbc 06e3 18bc 6b55 983d 8fe4 063e
000001e0: 9df5 d9bd 3b16 ba3d 2d0c 743d 42fd 9ebd
000001f0: e7c0 87bd 60dd 943d 6b36 2a3d 0792 2ebe
00000200: 17c2 ca3d 6a59 2dbe f099 f83d 25b7 1dbd
00000210: 6fb7 323d 5537 16bd e12a 6dbd 5a9b 7bbd
00000220: 07fc c1bd 0d93 b6bd efb4 90bd 3bfd b0bd
00000230: 2260 f1bd 582d ad3d ce8b 2e3e 73d5 17bc
00000240: 29c2 c5bc 4a68 1bbc 5280 c83e c9c6 a13e
00000250: 6c39 9d3c 0cd8 f13c b848 c63b 9e27 aabd
00000260: a24d e33c 2274 39be e328 13be 7bbb 433e
00000270: c5c0 653d 7f35 83bd b874 6cbe 987c 62bd
00000280: 6864 17bc fe0d 8bbd 3e12 72bd 17c7 d7bd
00000290: dc87 fb3d 76dd 493e 70bc d0bc 8cd0 1dbe
000002a0: 52b5 89be af5a 92bd c7a2 40be 90b7 b2bb
000002b0: 6394 5f3e fe46 8c3d 8e45 1ebd aa45 fabd
000002c0: 4895 84be c493 4ebe d5bc 053e 1fcb 253e
000002d0: 68f6 83bd 7ba7 e53b 8e0d 483e f9ab 623e
000002e0: a7c7 3f3c 4d6d aa3e 1023 173d f10d 9fbd
000002f0: 1fde 8b3b 2e31 4fbd f05e b1bd f7a1 a8bc
00000300: ca22 3abd 71ab 6e3e 54da 1cbd 2ec0 603d
00000310: 2f20 afbb 4232 06be aebf 733d b34e 89be
00000320: f628 b8bd 4192 a73d e189 933e 21ea 863a
00000330: b7ba 623b 3e7b e3bd 4e8f acbc ff43 823d
00000340: d109 6ebd f3e2 7cbe 40bc 48be 7117 373d
00000350: 9893 9f3d fc82 9d3d bc94 9dbd 5e55 e1bc
00000360: e8a7 ff3d 3bdc e03d c3ca 003e e687 73bd
00000370: eab1 79bd 71f2 323d 476a 81bd 9408 893d
00000380: 8839 c63c 9e9f 133e 71d8 d13d 5c11 08be
00000390: f3ea 88bd 67f3 633c 6fee 813d ae59 8dbb
000003a0: cbee 283d 8c39 b0bd 7151 183e e5e6 7ebb
000003b0: 4811 c43b d99c 42be fc05 563d 88a6 60bd
000003c0: 55bb 17be 95e2 fd3c 8e25 04be da40 903d
000003d0: 5423 4dbc 69d6 093d bace 12be 22fb a93d
000003e0: 72ae cd3d e972 383d 9c89 a03d fba6 0dbe
000003f0: af1d d73c a670 41bc 4046 443e b100 813d
0.0055260584 0.013399787 -0.086643174 -0.0026339984 0.109313354 0.02139833 0.079530805 0.03502652
-0.017504716 0.11145657 0.08139723 -0.15468948 -0.045519114 -0.008888495 0.21398821 0.091911644
0.040526815 0.053827588 -0.07023379 0.008342082 -0.10124569 -0.0129561275 -0.11598263 0.045819968
-0.11181547 -0.056618404 0.24440175 -0.005293587 -0.16304846 -0.037179075 0.10486135 0.06974302
0.1531734 -0.05537213 -0.07946518 0.0007631676 -0.043982353 -0.11978799 -0.14177968 0.03889036
0.04248427 -0.005958333 0.15677057 -0.02092278 0.062429473 -0.028324137 0.009977039 0.07235368
0.030958686 0.074945875 0.17870565 0.04878704 -0.005863359 0.0816094 -0.12168975 -0.000805786
-0.045392565 -0.08639579 -0.11182821 0.09693438 -0.08674657 -0.067568175 0.054137785 0.06945452
-0.12599258 0.04912533 0.030858533 0.050932214 -0.019656682 -0.016326414 0.01985116 0.12661088
0.23171526 0.092641585 0.11896833 0.17145376 0.09477881 -0.047578983 0.09764036 -0.12648311
0.02192305 -0.044505205 0.2169069 -0.035454117 0.026006512 0.05140517 -0.15554075 -0.12409869
-0.0641081 0.04951 0.07455388 -0.08890035 -0.058558233 -0.024499584 -0.024571143 0.028846696
-0.17617008 -0.1080383 0.048219644 0.061846018 -0.13254651 0.07526013 0.08866021 -0.116796814
0.032867543 -0.16585156 -0.0048099943 -0.116767935 -0.050277933 -0.043882377 0.0831967 0.14785251
-0.08662963 0.123696275 -0.06299783 -0.0077340407 -0.030782605 -0.00933147 0.07438167 0.13173126
-0.1064255 0.090862714 0.059581924 -0.07763149 -0.0662859 0.072687864 0.041555803 -0.17047893
0.09900301 -0.1692864 0.12138736 -0.03850474 0.043631967 -0.036673862 -0.05790222 -0.06142745
-0.094718985 -0.089147665 -0.0706576 -0.0864205 -0.11785914 0.08455914 0.17045519 -0.009267199
-0.024140434 -0.009485314 0.391604 0.31596974 0.01919242 0.029521964 0.006051149 -0.08308338
0.02774698 -0.18110707 -0.14371066 0.19114487 0.056092042 -0.06406688 -0.230914 -0.055294603
-0.009240247 -0.06789778 -0.05909943 -0.1053602 0.122817725 0.19713387 -0.025480479 -0.15411586
-0.2689615 -0.07146203 -0.18812095 -0.0054540113 0.21833949 0.06849478 -0.03864055 -0.122203186
-0.25895143 -0.20173556 0.13060315 0.16190766 -0.06443483 0.0070084906 0.1953642 0.22135915
0.011705316 0.33286515 0.036898673 -0.07766331 0.0042684223 -0.05058401 -0.08660686 -0.020585043
-0.045443334 0.23307587 -0.03829415 0.054870777 -0.0053444128 -0.1310511 0.059508972 -0.26817855
-0.08992188 0.081821926 0.2881613 0.0010293165 0.0034596154 -0.11107491 -0.021064427 0.063606255
-0.05811483 -0.2469595 -0.19603062 0.04470009 0.07791823 0.07690999 -0.076943845 -0.027506527
0.124831975 0.10979506 0.12577347 -0.059455775 -0.060960688 0.04368824 -0.06319099 0.06691089
0.024197355 0.14416358 0.10246361 -0.13287872 -0.06685438 0.013913012 0.06344306 -0.004313669
0.041243356 -0.08604726 0.14874817 -0.0038894948 0.0059835054 -0.19005145 0.0522518 -0.054846317
-0.14817555 0.030991832 -0.12904951 0.070436195 -0.01252063 0.033651743 -0.14336672 0.08299853
0.100430384 0.045031462 0.07838747 -0.13833229 0.026259271 -0.011806643 0.19167423 0.0629896

weight f4 [16]
00000000: ea32 af3f 7c13 a13f 299a e03f 9ff0 b43f
00000010: cfe3 d13f 40f0 af3f c374 ab3f a70d a43f
00000020: c94e a63f daa5 9e3f dc95 c93f 87bb af3f
00000030: 2573 d53f 95d1 ef3f 9f73 cc3f 56c6 d53f
1.3687413 1.2584071 1.7547046 1.4135932 1.6397647 1.3745193 1.3395008 1.2816666
1.2992793 1.2394364 1.5748858 1.3729104 1.6675764 1.8735834 1.5972785 1.6701152

bias f4 [16]
00000000: 04fe 973e d82d ff3c 7eae b7bc eb2d 3a3e
00000010: 14f6 62ba 806f 123e ddd2 983e 35d4 483e
00000020: c129 b33d 72b3 423e c668 323e 0dc5 323e
00000030: 4642 cb3d 045d 1e3e f1f3 af3d 6760 023e
0.29685986 0.03114979 -0.022422072 0.18181579 -0.00086578843 0.14300346 0.29848376 0.196122
0.08748198 0.19013765 0.1742278 0.17457981 0.0992475 0.1546517 0.0859145 0.12732087

running_mean f4 [16]
00000000: 647d a13e dfe7 a0be 3e93 d6be 9ef2 6dbd
00000010: 8e2d b0be 90de 98be 2d63 01bf 527b 42bd
00000020: 3c1c 84bd 8180 49be a0be 55be 9b1f 06bd
00000030: c1ec 44be 5395 01be bb7e 59be 66ec 3dbe
0.31540978 -0.31426904 -0.41909212 -0.058092706 -0.34409755 -0.29857302 -0.50541955 -0.04748089
-0.06450698 -0.19677927 -0.20873499 -0.032744985 -0.1923094 -0.12654619 -0.2123975 -0.1854721

running_var f4 [16]
00000000: 2130 503e ca14 9c3d a74c 133e bb10 1b3e
00000010: 3c34 993d a734 a63d 1e20 473e 5cba 863d
00000020: f802 5e3d 0f87 d53d 2bf2 493d 9511 b83d
00000030: e00b 3b3d 65ef a23d ec31 163d 02d9 993d
0.2033086 0.07621153 0.1438471 0.15143101 0.07480666 0.081155114 0.19445845 0.06578514
0.05420205 0.10426151 0.049303215 0.089877285 0.04566562 0.07955817 0.036668703 0.07512094

weight f4 [64, 96]
00000000: 0fd7 df3c dbf1 283d 3a75 a3bd 2946 a6bd
00000010: c82b f53c 062c b5bd eeb4 6c3c 8c1a 8d3b
00000020: f633 a0bd 1dfa d13c 581e 213d 9f6a bc3d
00000030: a0d9 be3d 0118 a0bc 666c 053d 843a 623c
00000040: da76 993c a2a1 11bc f0a5 afbd 73c2 313d
00000050: 3ca4 98bd d2d7 1abd 962e 303d abe8 c3ba
00000060: 8ce9 95bd 5da9 2b3d 93fd 9d3c 1044 a1bd
00000070: 6d06 9a3d d0b1 503d 4882 d43d 8c1e e73b
00000080: e19d cd3c afe2 d5bb 2012 b3bd f752 bbba
00000090: 9351 2f3d 9ba7 08bd e22c 133c 7001 333d
000000a0: 0adb 5abd 3906 c5bd db6b 233d 3df9 d2bc
000000b0: 283d 443c 6565 6c3d 298f 5dbd ee92 113d
000000c0: 6993 723d c961 893c 45e6 b23b 76c0 18bd
000000d0: 62d7 c3bd d9a9 cbbd ca2d ab3d 578e 423d
000000e0: f39b 20bd 1a02 5dbd b3a9 623d 81c5 0bbd
000000f0: 034f 97bd fca7 b23d c81d ab3d deaa cfbc
00000100: f451 4fbc e42c b63d 9bea cebd 60fc cebc
00000110: 68cc a13d 7763 aabc 86ad a3bd 8842 61bd
00000120: 5507 813b eb08 e23c 8d61 29bd dae1 40bd
00000130: f177 3ebd 0ba7 51bd 3824 88bb 60e3 053d
00000140: 2370 0a3d 705c 9e3d 173d c1bd 5639 88bb
00000150: 428d 19bd a8e0 afbd 09d1 22ba 75da 88bd
00000160: 0f2a a33d 7efc c7bd 7ff2 3fbd cc15 a53c
00000170: 7dce 94bd 75a6 553d ac1f d03c 6a70 e7bc
00000180: 2c6c 37bd 0df7 db3d da39 dbbc 2ece e5bd
00000190: ed56 95bb 287c b6bd aa1d 133e 3b8c 203e
000001a0: 96e1 973e 7645 93bd c9ac 84bc 6a42 063e
000001b0: 802c 873d 0fae 40bd 0ecd f13d 12e8 a8bd
000001c0: 4c89 20be 2cd7 ce3d 4f3a c0bd 7721 2b3c
000001d0: b188 15bc 22a2 a7bd 9523 053e e74d 7cbc
000001e0: e046 21bd 32e6 b9bd 482c d23c f0e8 8ebd
000001f0: 4caa 1bbe a5f2 c2bd b0e7 af3d 2173 1e3c
00000200: d1fa 63be b4b2 b8b9 c2f9 9b3d 3741 0c3d
00000210: 0dd1 d8bc 77fb bebd cb56 d8bd 7f65 bdbd
00000220: dbef 683d 2b0f 25bc 8e71 9d3d a7c9 f33d
00000230: 03d1 063e 4af1 1e3e f150 40be 32dd de3d
00000240: 39a2 ec3d 3d45 113e f32a 923d f7d5 033e
00000250: 905e 19be c470 9c3c 3492 903d 0808 aa3d
00000260: 122e 0a3d 8ef7 81bd 9a47 673d adf4 abbd
00000270: 4ffb 0c3e 447f f23c 940c d73c 23d2 a93d
00000280: 2e0b 0fbd 60cd e2bc 22a3 a7bd 6df0 a63c
00000290: 3b99 933b 980d 323d 5f0e b23c 87c0 493e
000002a0: 9bef 0a3d e53d 483e f7d6 a63d 2d9d 973d
000002b0: e361 493e 6eee cfbc 938e 863c 26e8 3e3d
000002c0: 6b74 d63d c81b 3cbd 41ed ef3d 787a 1d3e
000002d0: ae2c 2bbd e5d9 4fbb 58f0 85bd f776 b63b
000002e0: 95d5 143e 6da5 8e3d 1971 2cbd e9e8 dd3c
000002f0: 402c aa3d 33e8 df3d ca74 403e be92 083e
00000300: 29e1 25bd 3d82 9d3d 0590 b1bd faff 673c
00000310: 6cea cabd 1695 66bd 3785 4dbc 3f7c c53d
00000320: b133 4b3d daa8 c43d d364 9a3d 16ae 8ebd
00000330: 3740 af3b ac15 87bd 7211 c6bb 3f61 c9bd
00000340: e75c c93c 3882 cfbc 418b 66bd 40f8 8f3c
00000350: 27b3 e13c 880a 58bd bb67 d53d ae31 83bd
00000360: b515 903d 98a1 88bd cf97 a43d c241 423d
00000370: 5f87 02bd bf50 8bbb 77c1 58bb 744d 11bd
00000380: 5420 f73b 2895 9c3d 1ff7 143d e033 dabc
00000390: c3ae d03d f64e cbbd 1f15 e83c 8199 ae3d
000003a0: 080c d9bc 9fd9 8ebd 55fc b7bd 43bc 9c3c
000003b0: 62c5 cbbc a171 b53c 1d37 123c edd2 9e3d
000003c0: ee17 a3bc 8d3e e63c c28e 76bd 8e0f adbc
000003d0: fca8 2b3b 9416 133c 65a3 19bc f1fb b0bd
000003e0: 9198 df3c 3333 b1bd d362 28bd 7afc 873d
000003f0: bb5c 813d 7b67 563d ced5 39bd 5080 c73d
0.027324228 0.041246276 -0.079813436 -0.08118851 0.029928103 -0.088462874 0.014447434 0.004306143
-0.07822411 0.025631959 0.03933558 0.09200024 0.093188524 -0.019542696 0.03257408 0.0138078965
0.01873343 -0.008888634 -0.08576572 0.04339833 -0.074532 -0.03780348 0.043013178 -0.001494666
-0.07319936 0.041909564 0.019285953 -0.0787431 0.07520757 0.050950825 0.10376412 0.007053202
0.025099697 -0.006527267 -0.087436914 -0.0014291693 0.042802405 -0.033362966 0.008982869 0.043702543
-0.05343155 -0.096203275 0.03989778 -0.025753612 0.011977471 0.057713885 -0.054091606 0.035540514
0.059222613 0.01677026 0.005459579 -0.03729292 -0.095625654 -0.09944505 0.08358343 0.047499027
-0.039211225 -0.053957082 0.05533762 -0.0341239 -0.07388117 0.08723447 0.0835529 -0.02535003
-0.0126538165 0.08895281 -0.10103341 -0.025266826 0.079003155 -0.020799382 -0.07992081 -0.05499509
0.0039376416 0.027592143 -0.041352797 -0.04709039 -0.046501104 -0.051184695 -0.0041547082 0.032687545
0.03379835 0.07732475 -0.0943548 -0.0041572256 -0.03748823 -0.08587772 -0.0006210958 -0.06682292
0.079670064 -0.09764956 -0.04686212 0.020151995 -0.07265947 0.0521607 0.025405727 -0.028251845
-0.044780895 0.107404806 -0.026760984 -0.11220966 -0.0045574815 -0.089104 0.14366785 0.15678494
0.29664296 -0.07190983 -0.016195672 0.13111272 0.066002846 -0.047040995 0.11806689 -0.08247389
-0.15677375 0.100996345 -0.093861215 0.01044499 -0.009126828 -0.08185221 0.13001855 -0.015399433
-0.039374232 -0.090771094 0.02565588 -0.06978023 -0.15201682 -0.09518937 0.08589113 0.009671004
-0.22263648 -0.0003522836 0.07615997 0.03424188 -0.02646687 -0.09325307 -0.105634294 -0.092478745
0.05686937 -0.010074417 0.076876745 0.119036965 0.13165669 0.15521732 -0.18780877 0.108820334
0.11554379 0.14186569 0.07137098 0.1287459 -0.14977479 0.01909674 0.07059136 0.08302313
0.033735342 -0.063460454 0.05646477 -0.083962776 0.13767742 0.0296017 0.026251115 0.082920335
-0.03492277 -0.027685821 -0.08185412 0.020378316 0.0045043505 0.043469995 0.021735368 0.1970235
0.03391991 0.19554861 0.0814647 0.07403026 0.19666247 -0.025382247 0.016425407 0.046608113
0.10471424 -0.04592493 0.117151745 0.1537875 -0.041790657 -0.0031715569 -0.065399826 0.005568381
0.145346 0.06965146 -0.042100046 0.0270886 0.08309221 0.1093296 0.18794551 0.13337228
-0.040497933 0.076908566 -0.08670048 0.014160151 -0.09907994 -0.056294523 -0.012543968 0.09642839
0.049609844 0.096025184 0.07538762 -0.06966798 0.005348231 -0.065959305 -0.00604456 -0.09833001
0.024580432 -0.025330648 -0.056285147 0.01757443 0.027551247 -0.05274442 0.10420176 -0.0640596
0.0703539 -0.066714466 0.08036768 0.047425993 -0.03186738 -0.004251569 -0.0033074298 -0.035474256
0.0075416956 0.07645637 0.036368486 -0.026636064 0.10189583 -0.0992717 0.028330384 0.08525372
-0.026494995 -0.06975102 -0.089836754 0.019132739 -0.024874393 0.022148909 0.008924273 0.07755075
-0.019908872 0.028105998 -0.06019474 -0.021125581 0.0026193252 0.008977551 -0.009377335 -0.08641804
0.027294429 -0.086523436 -0.04110987 0.06639953 0.06316515 0.05234478 -0.045369916 0.097412705

bias f4 [64]
00000000: b332 543d 26ff 2a3e 275f 483d c168 f63d
00000010: 9835 7abd f0c8 54bc 37a5 943c b631 19bd
00000020: db31 d13d 9a91 b43c b14d aabd 8f01 afbc
00000030: 06db db3c 2eb6 d83d ee8e a5bd e81b c83d
00000040: 24db 04bc 262b 51ba ec1c 74bd f1f3 a63d
00000050: aad2 b23d 4b79 f63c 403c 89bb da56 a6bc
00000060: 7eab 163c c606 d63d 5564 b0bc 13a4 ea3b
00000070: cfb2 ccbc 8a61 b53d 5eb0 92bd 4c5e 003e
00000080: 1bfa 7c3c da4e b3bd 59f4 d63d a77f c73d
00000090: 6b8e c73d 4dd0 3ebd b7bb 2a3d 615d 883d
000000a0: 403c 8c3d cf79 363d 5e83 933d 35fa 0ebb
000000b0: 9f1f 073e 83ce 74bd 92ff b3bd 9264 463d
000000c0: f131 8bbc aebb 11bb a67e e33b 4505 993d
000000d0: 1103 94bd 678d 71bd 5c30 98bd 2c7a 0b3d
000000e0: 5955 4abd 33ed 933c 2f1f 75bd 2573 15bd
000000f0: c8ca 603d 2f95 0b3d 5382 a43d 26f6 89bc
0.051806163 0.16698894 0.04891887 0.12031699 -0.061086267 -0.01298736 0.018145187 -0.037400924
0.10214587 0.022042084 -0.083156 -0.021363048 0.026837837 0.10581623 -0.08083902 0.09770948
-0.008108888 -0.0007979147 -0.059597895 0.08151997 0.08731587 0.030087134 -0.0041880906 -0.020305086
0.00919616 0.10450511 -0.021532217 0.0071606725 -0.024987606 0.08856495 -0.071625456 0.12535971
0.015440489 -0.08755274 0.10495824 0.097411446 0.09743961 -0.04658537 0.041682925 0.066584356
0.06847429 0.04454976 0.07202791 -0.0021816615 0.13195656 -0.059767257 -0.087889805 0.048435755
-0.016991587 -0.002223711 0.006942588 0.07471708 -0.07227147 -0.058972742 -0.07431099 0.03405206
-0.0493978 0.018057441 -0.059844192 -0.036486764 0.054880887 0.03407782 0.0803267 -0.016841006

weight f4 [1, 64]
00000000: 75fe a63d 034e 3bbf a8f0 83bd 3e92 8dbe
00000010: f913 07be e6ec 333c e62a 2abd 06e2 133f
00000020: 6139 00be 0622 a1bd f0eb 393b 37cc dcbd
00000030: 7fcd a6be 61c0 d8be 405c f0bc 5f1d eabd
00000040: 9d91 a0bd 5d64 223f e60f af3d 6bfb a53f
00000050: f9c4 693c 38b5 b73d b9c2 b23d aa9d d43e
00000060: e3de 7fbe ae8e 17bf 52ec ab3f 59c4 a2bd
00000070: 9f51 aebd d8a3 463c 96b6 3dbd 835b 87be
00000080: 6af1 5b3d 80cf d83d 8028 6cbe 9405 2bbe
00000090: 766a a7be c128 bbbe 893b 16be 4b43 8ebe
000000a0: 61ed 97bd 658d 8f3d 1add dfbe 7da1 a2bd
000000b0: ed18 23be 6133 0a3f 4aee 75bd ae18 ccbe
000000c0: f89f 42bc 41a8 88bd b126 203e 9c09 7e3f
000000d0: 07c6 e73e fd50 21bd b9b8 d6bd 2732 5c3f
000000e0: 17d8 13be 98cd b73d 712c 313c 37b7 62bd
000000f0: 00b5 c8be 5784 f6bc 3918 bf3d 6fc6 95be
0.081540026 -0.7316591 -0.06442386 -0.27650636 -0.13191213 0.010981774 -0.041544817 0.5776676
-0.12521888 -0.078678176 0.002836939 -0.107811384 -0.32578656 -0.42334273 -0.029340863 -0.11431383
-0.078402735 0.6343439 0.08547954 1.2967352 0.014268153 0.089701116 0.08728547 0.41526538
-0.24987368 -0.59202087 1.3431494 -0.079476066 -0.08511662 0.012124024 -0.046316706 -0.26437005
0.053697027 0.105864525 -0.23062325 -0.16701347 -0.3269841 -0.3655453 -0.14671148 -0.27785715
-0.07418323 0.07009391 -0.43723375 -0.07940958 -0.15927477 0.5398465 -0.060041703 -0.3986258
-0.01187896 -0.06672717 0.1563976 0.9923341 0.4526827 -0.039383877 -0.10484452 0.86014026
-0.144379 0.08974761 0.010813818 -0.05535051 -0.39200592 -0.030092401 0.09330792 -0.29252955

weight f4 [64, 96]
00000000: 629d cd3b 6549 cabc 54bd 9339 46a3 333d
00000010: 9420 c73d 1e82 a7bd 70ab 243d cb2f 84bd
00000020: e0eb e93d 1685 82bc b478 e2bc 3e57 f8bc
00000030: ef1f c2bd 5c2b b9bd 1d87 d0bd 2129 69bd
00000040: d886 6bbc 5d97 8e3d 0eb4 a3bc 6ac9 243d
00000050: 64ba 2f3c 521e 7a3d e349 8b3d 53ef abbd
00000060: 63f1 c9bc dc58 0bbb c6f4 b1bb b4c7 c03d
00000070: 11a1 93bd aa1d a5bd 22d4 ad3d aa69 b23c
00000080: a0f0 babd a2b4 053d 01e3 c1bd 7488 9a3d
00000090: 8b98 65bc 5d60 90bc 2338 96bd d539 2b3c
000000a0: 08ac 15bd 6ab4 34bd a0cb a33d 83aa 4abd
000000b0: 41eb a73d e1ac b3bd b644 843d a533 4c3d
000000c0: 0446 f4bb 3904 61bd 9fd9 873c 9935 18bd
000000d0: 6bd6 08bd bdb9 07bc e89f ab3d 85f9 dc3d
000000e0: f81e 86bd c16f 72bc c420 253d 8278 efbc
000000f0: 2d3e afbd 566c ebbb af90 283d 4b0b 2e3d
00000100: e1fb b83d 75a3 df3c 0044 603d 3781 29bd
00000110: 066d 6c3d 9466 c93d 94ed 6b3d 4d8a d4bd
00000120: e9c5 e23c b5f4 2fbd be18 493d 06fd 803d
00000130: a3a3 f8bc 0590 693c fda3 dd3c 5a3d a43d
00000140: c92a 913b 3f4a adbc 0ee8 9cbd d9fd 3e3d
00000150: 3556 03bc 2dc0 293c e19d c33d 1eb0 8dbd
00000160: 71d5 9fbd 5067 453d dd39 21bc 4dff 4abc
00000170: e582 913d 28c4 aa3d a363 a63c 0dbc 313d
00000180: 0018 7bbc 7cc5 8d3d 83fd a9bd 1a7a 36bc
00000190: 4a1f 84bc 9e69 43bd c095 483d b40a a33d
000001a0: 329e 7d3d 7738 5b3d 7638 c33d e77b 3dbd
000001b0: ce2d 113d 210b a8bd 3330 76bd 0be3 b0bd
000001c0: 531c 19bd 8482 8b3d 9249 bebd 4ddb 8dbc
000001d0: b5c5 b3bc 6828 b4bd 747d 923d 1cff 303d
000001e0: f9e7 603d b794 fe3c 5b5f 27bd 285e af3d
000001f0: d32f 873d 230a 9bbc 12e5 a9bc 2d86 4dbd
00000200: 3473 9a3d df64 53bd e8dc ebbb 353f 78bd
00000210: a834 2f3d 5e8e b2bc 71ce b0bd 0a66 cb3d
00000220: e345 16bd 5a66 1bbc 21ab cabd fa8b 38bc
00000230: 3921 00bd 8dc3 8fbd 56df 23bd 5e7f 4abd
00000240: 50d5 8d3d f1b1 c3bc 476f 9cbc 7928 763d
00000250: 550c 943d ab0b 13bd 9bf1 dcbc 1e6e 183d
00000260: 284e 803c 086a 37bd 2b3d 83bd 7faa eaba
00000270: f81e c23d 2743 8e3d 4cd1 42bd 2904 cc3d
00000280: b8a1 8ebd 6fc3 a33d 019c 7e3d b6f1 80bb
00000290: 124f 4a3d 8af8 a8bd 4640 4c3d b1ea 11bc
000002a0: 867d a3bd 7db5 80bd 7e8f 333c 18e9 843d
000002b0: 1c35 a7bd f296 b8bd 32f3 c03d cb88 b9bd
000002c0: 6893 7b3d af73 253b e2a6 aebd 1748 9d3c
000002d0: 439a b9bd d5ae be3d 5a08 49bd 132f 92bd
000002e0: 0255 c3bc e0e1 573d d4aa bbbc 3dfe 9e3d
000002f0: 00a5 9dbd eba1 043d 59dd c3bc a36a 913c
00000300: 3fdc 4d3c d832 673d d039 a3bd 1e87 fd3c
00000310: 4e59 c1bd 679b b7ba 2495 b9bd 0f75 dabc
00000320: 2390 ec3d bd6e 16be e77b fb3c 86eb 36bc
00000330: 0c2e f2bd cbd2 b8bd 68c2 62bd 8b9f 92bc
00000340: d460 8b3d 7c8c a73d a39e 333d c178 863d
00000350: 7830 87bb 0003 d4bd 65da 46bd 1e9d a0bd
00000360: f474 ae3c e553 27bd 88f8 52bd 6081 933e
00000370: 769b 1bbd 73d3 c8bd cc7c fb3c 5a07 89bc
00000380: c008 453e aa82 23bd 68b7 dcbb 18bc 17bd
00000390: 9da5 c3bd 497e a3bd 5f67 dbbd b516 d13d
000003a0: 37f3 bb3d c278 09be a166 913d 9121 2f3c
000003b0: b195 033d 9d77 073d 325c 12be cbea 96bd
000003c0: b1b4 3fbd 1cf3 a13d 3504 853d c14f bf3d
000003d0: 1ab3 94bc efea 8abd 9f2b a7bb ecd6 25bd
000003e0: 47ea 4a3e ef45 3d3e c8d1 e5bd 293e 173d
000003f0: 0ac4 223d d670 883c cd71 683e e184 acbc
0.006274865 -0.0246932 0.00028179085 0.04385688 0.09723011 -0.08179115 0.040202558 -0.06454428
0.11421943 -0.015932601 -0.027645446 -0.030315038 -0.09478747 -0.09041473 -0.10182021 -0.05692399
-0.014375411 0.06962464 -0.019983318 0.040231146 0.010725591 0.061064072 0.06801202 -0.08395257
-0.024651235 -0.002126268 -0.0054307906 0.0941309 -0.07208455 -0.080622986 0.08487727 0.0217789
-0.09127927 0.032642968 -0.09467126 0.075455576 -0.01401342 -0.017624075 -0.07334926 0.0104508
-0.036541015 -0.04411737 0.07997823 -0.04947902 0.08199168 -0.087732084 0.06458418 0.04985394
-0.0074546356 -0.054935668 0.016583262 -0.03716049 -0.03340761 -0.00828403 0.08380109 0.107897796
-0.065488756 -0.014797152 0.04031445 -0.029232267 -0.08556781 -0.0071845455 0.041153606 0.04249124
0.09032417 0.027299622 0.05475235 -0.041382995 0.05772116 0.09834018 0.05759962 -0.10377941
0.027682262 -0.04295798 0.04909586 0.062982604 -0.030351466 0.014255528 0.027055735 0.080195144
0.004430149 -0.021153567 -0.076614484 0.046628807 -0.008016159 0.01036076 0.095515974 -0.06918357
-0.078043826 0.04819423 -0.009840456 -0.01238997 0.07105044 0.08338195 0.020311182 0.04339223
-0.015325546 0.06922433 -0.08300307 -0.01113751 -0.016128201 -0.047708146 0.048970938 0.07961026
0.061918445 0.053520646 0.095322534 -0.04626074 0.035444073 -0.08205248 -0.06010456 -0.08637055
-0.037380528 0.06812003 -0.09291376 -0.017316485 -0.02194486 -0.087967694 0.071528345 0.04321204
0.054908726 0.031076772 -0.040862422 0.08562881 0.066009186 -0.018925732 -0.020739112 -0.050176788
0.075415045 -0.05160987 -0.007197965 -0.060607154 0.042774826 -0.021796402 -0.086331256 0.09931572
-0.036687743 -0.009484852 -0.098959215 -0.011263842 -0.031281684 -0.0701972 -0.04000791 -0.049437873
0.06925452 -0.02388856 -0.01909603 0.06009719 0.07228915 -0.0358998 -0.026970675 0.03721439
0.015662268 -0.044778854 -0.06408151 -0.0017903595 0.09478563 0.06946402 -0.047562882 0.09961731
-0.06964439 0.079962604 0.062160496 -0.003935064 0.049391814 -0.0825053 0.049865983 -0.008906052
-0.07982926 -0.06284616 0.010959504 0.064897716 -0.08164427 -0.090131655 0.09421386 -0.09059294
0.061419874 0.0025245955 -0.08527924 0.019199414 -0.09062626 0.0931069 -0.04908023 -0.07137885
-0.023844246 0.052705646 -0.022908606 0.07763336 -0.07697487 0.03238098 -0.023909258 0.017751044
0.012564718 0.056444973 -0.07970011 0.030948218 -0.09440862 -0.0014008105 -0.090616494 -0.026667146
0.115509294 -0.14690681 0.03069873 -0.011164552 -0.11825189 -0.090245806 -0.05536118 -0.017898342
0.06805578 0.08181092 0.04385246 0.06566001 -0.004125651 -0.10352135 -0.04854812 -0.07842468
0.021296002 -0.040851492 -0.05150655 0.28809643 -0.037990056 -0.09805956 0.030699156 -0.016727138
0.19241619 -0.039919533 -0.006735731 -0.037044615 -0.095530726 -0.07983071 -0.10713076 0.10209409
0.09177249 -0.13424972 0.07099653 0.010689155 0.03212518 0.033073056 -0.14292982 -0.07369002
-0.04680318 0.079076976 0.06494943 0.09341384 -0.018151809 -0.06783091 -0.0051016356 -0.04048817
0.19815932 0.18483709 -0.11221653 0.036924515 0.03973774 0.016655367 0.22699662 -0.021059455

bias f4 [64]
00000000: f214 6a3d dc2f ebbc e8b8 d2bb c2e2 c4bc
00000010: 22dc d23b 681f 9f3d b79b 75bd ba62 5dbc
00000020: 8b8e 583d 465c e4bd 31c4 c83d 8a29 833d
00000030: 708e a03d c07f cd3c e500 0abc 8ead c83b
00000040: 164f 08bb b8c9 233c e0ea b13d 34c8 a9bd
00000050: 533a 82bd 4500 6bbd 1d7b 003d bf3a f3bc
00000060: 53cc d73d 3ea7 87bd 82f6 88bd 7e6d 733c
00000070: 831b bebd 4735 c4bc ad93 37bd b799 f93d
00000080: cc82 d43d 38d7 943d 40f7 aebd b6c3 dd3b
00000090: 88ec 12ba b67a 803d 18a0 a53d 4ecc 023e
000000a0: 7367 ed3d 8480 bbbd a96a 71bd be03 f0bc
000000b0: 07dd e33d 0215 d03d c012 783b e850 843d
000000c0: 5d8b d7bc e14c 413d 53ff 703d d185 2a3d
000000d0: 1ff9 94bd 2c78 a9bb 6420 d5bc 5213 de3c
000000e0: 1b85 803d ba63 093c 5879 093d 2314 223d
000000f0: 0bdc 2bbd 5fbb 9a3d b3b7 343d 302f 333e
0.05714888 -0.028709345 -0.006430734 -0.024033908 0.0064349333 0.07769662 -0.059962954 -0.013512308
0.052870315 -0.11150412 0.098030455 0.06404407 0.07839668 0.02508533 -0.008423065 0.006124205
-0.0020799092 0.009996824 0.08687377 -0.08290139 -0.06358781 -0.057373304 0.03136741 -0.029691098
0.105370186 -0.06623696 -0.06687643 0.014857648 -0.09282591 -0.023951186 -0.04481857 0.12187522
0.1037651 0.07267612 -0.08543253 0.0067677153 -0.0005604704 0.06273405 0.08087176 0.12773249
0.11591997 -0.09155372 -0.05893961 -0.02929866 0.11126142 0.10160257 0.0037852973 0.06460744
-0.02631157 0.047192458 0.058837246 0.041631524 -0.072740786 -0.0051717963 -0.026016422 0.027108822
0.06275388 0.008385593 0.033562988 0.039569985 -0.041957896 0.075552694 0.0441205 0.1749847

weight f4 [8, 64]
00000000: cc40 1a3d 27ad c43c e09a 58be c860 953d
00000010: 5457 f8bc 9455 afbc 54df 9cbe 3316 143d
00000020: 7c36 2ebe 7655 0fbe d699 c53d 3654 05bd
00000030: c034 31bd fdff 26be 24c0 b53d 06d0 c5bd
00000040: 2757 c4bd c966 4dbd a2a2 533d 2b22 b4bd
00000050: 342d 93be ed42 723d b815 83be e499 dabd
00000060: 8222 273e 68ca 623d dc09 42be 9b80 203e
00000070: 9a5d 41bd fc65 14be 277d 16be 900f 393e
00000080: 4e68 61bd cd9d d7be 7aa7 d23d 95ae 2d3e
00000090: 20b6 c4bd 37c9 50bd 58a4 2dbe 49ce 973d
000000a0: 612d 6c3d 8c4f 45bc cd07 79be e355 d6be
000000b0: d04a 133e 9c9c 083d 19ed 55be 0d22 17bd
000000c0: 9662 033d 21e9 d9be ee53 8a3c 676e b9bd
000000d0: 98e2 d33d 5264 91bd ec19 043e e3f2 8a3d
000000e0: 0f67 a4bd 9fe6 b53d 1c7d e9be 5bf2 61bd
000000f0: f93e f43d 9ba0 aebe c5f2 473c 0939 183e
00000100: b65b 95bd a171 183d 589f 823e 5a72 06bd
00000110: 818d 353d 673e e7bd c467 eb3e b256 cbbc
00000120: 90ad 0d3e 32c5 543d 7e1c 86be 9d64 003e
00000130: f939 733e f05d e2bd abf8 0abe e48c cebb
00000140: e759 d33d 95d9 40bb 6394 29bd f8f8 123e
00000150: a67a f83d c4e2 94bb da92 1c3e 9892 163e
00000160: 6b1c 87bc 87ca 1ebc e9ba 9f3e b1e1 e33d
00000170: dd39 92bc 3623 35bd d63a 0e3e 31bd fcbc
00000180: f37f c73d 7af3 513e f214 e23d 829d 98bd
00000190: ce1c 9dbd 83ef cb3d 1bf2 d83c 51c6 b9bd
000001a0: 2b63 613c c818 243e 5e04 783e 60eb e33e
000001b0: 2f61 c43d 702b bc3d be1b 603e 5b01 8ebc
000001c0: 6616 813d 3713 033f e9b1 183c c61b ff3c
000001d0: f125 f4bd e4cc 9a3d 6a3f 053d 3a14 0bbe
000001e0: d837 46bd 882d 49be 4b5c e83e 896e 923d
000001f0: 0f70 a93c 906e a73d 67b5 70bd 9bb0 9ebe
00000200: d442 1dbd 9acb c2bd 23cd a3be f175 433d
00000210: 2e84 8bbd 6984 a4bd de84 a2be 7f91 0d3e
00000220: acd6 6cbe 1e5e 52bd 4458 f73d 8782 513d
00000230: ef7b 36be 02eb 6a3d f0be 83bd 6736 80bd
00000240: 8388 54be d02b 21be c6f3 93bd f003 eabd
00000250: 4d67 86be e059 763d 32b9 7ebe a130 74bd
00000260: 60a4 e1bc 4377 8b3d 4f97 40be 8a3c 4fba
00000270: 2e9c 4b3c 7ad1 08be d9c9 73be fc48 923d
00000280: 8573 ba3d 966d b1be 15dc d7bd b459 543e
00000290: ef78 49bd 50f0 c23c fd42 27be 7025 2d3e
000002a0: 898c 2d3e faa7 763c ab3b 45be 32dd b8be
000002b0: 4bfb 1e3e fc8c 6c3d cdfe e1bc a5e0 4cbd
000002c0: 8fe4 eabd a6d9 bdbe b23e 2bbe 1ae4 fa3d
000002d0: 4192 3bbd b96c b63d b6d6 a4bd 6037 f3bb
000002e0: 2c21 95bc e867 d63d 239e febe ac4e 09be
000002f0: 7824 bfbc ba31 1fbe f1c4 083d b436 043e
00000300: d064 d4ba 7df5 fabd 2236 d43c 35ad 063d
00000310: 313d b0bc 32d7 093c 79e3 c33e 780c 03be
00000320: d7bf 4f3e c164 40bd 4f8a a4bd 85ca 41be
00000330: eb15 a6bd a052 623e 83c0 bbbd afe2 86bc
00000340: 5b89 5cbd d364 1abd c65d 1abe 71cf 5d3e
00000350: 7500 8d3e 5224 34bd 6706 503e b072 b7bc
00000360: 91a0 c23d 9a61 e53d c70a da3e 2005 0e3e
00000370: 984f db3d 26fe 34bc e34f 9a3c 3190 143d
00000380: 6d7b 0fbe da27 473e 7f82 5ebd 80e9 1d3c
00000390: 8e33 bcbd dbc9 183e 8e4d 2b3e 1dc4 26be
000003a0: b4dd 65bd bad8 4a3e ee61 023e 0fa0 753e
000003b0: 66e3 9abd 82c3 323e 6f0f 223e d09a ef3d
000003c0: a6bc d9bd b646 843e af66 0d3d 1278 853c
000003d0: 5421 c7bd b332 bcbd c863 ab3d 2eea d9b9
000003e0: 251b 603e 30f3 5cbe 0263 9e3e 4a75 ff3d
000003f0: 2343 513d 8a4c 1c3e dbc9 f43b e1b5 60be
0.03765945 0.024008347 -0.2115283 0.0729385 -0.030315079 -0.021403112 -0.30639136 0.036153983
-0.17012972 -0.13997445 0.096484825 -0.032551013 -0.043263197 -0.1630859 0.088745385 -0.09658818
-0.095869355 -0.05014685 0.05166877 -0.087955795 -0.28745425 0.059145857 -0.25602508 -0.106738836
0.16321757 0.05536881 -0.18949074 0.15674059 -0.047208406 -0.14492029 -0.1469618 0.18072343
-0.055031113 -0.4211258 0.1028585 0.16961129 -0.0960505 -0.050973143 -0.16957223 0.07412393
0.057660464 -0.012042891 -0.24319382 -0.418624 0.14384007 0.03335248 -0.20891227 -0.036897708
0.03207644 -0.42560676 0.016885724 -0.09054261 0.10345954 -0.07099213 0.12900513 0.06784608
-0.08027469 0.08881878 -0.45603263 -0.05516277 0.119260736 -0.34106907 0.012203877 0.14865507
-0.07292883 0.03721774 0.25512195 -0.032823898 0.0443244 -0.11291199 0.45977604 -0.024821613
0.1383574 0.051945873 -0.26193613 0.12538381 0.23752584 -0.110530734 -0.13571422 -0.0063034166
0.10319882 -0.0029426564 -0.04140128 0.14352787 0.12132768 -0.004543634 0.15290394 0.14704359
-0.016493043 -0.009691841 0.3119729 0.111270316 -0.017849857 -0.044223033 0.13889632 -0.030851932
0.09741201 0.20503035 0.11039151 -0.07451917 -0.0767151 0.099577926 0.026482632 -0.09071029
0.013756554 0.16025078 0.24220416 0.44515514 0.09588849 0.091879725 0.21885583 -0.01733463
0.063031 0.51201195 0.009319761 0.031141173 -0.11921299 0.07558611 0.03253118 -0.13581935
-0.0483931 -0.19646275 0.45382914 0.07149989 0.020683317 0.08175385 -0.05876675 -0.30994114
-0.03839381 -0.0951149 -0.31992444 0.0477199 -0.06812321 -0.08033068 -0.31741995 0.13825034
-0.23128766 -0.05135929 0.12077382 0.05114987 -0.17820714 0.057353027 -0.06432903 -0.062603764
-0.207552 -0.1573937 -0.072242305 -0.11426532 -0.26250687 0.060144305 -0.24875334 -0.05961669
-0.0275442 0.06809857 -0.1880772 -0.00079054444 0.012427373 -0.13361159 -0.23807468 0.07142827
0.09104065 -0.3465392 -0.10540024 0.20737344 -0.049187597 0.02379623 -0.16334148 0.16908813
0.16948141 0.015054697 -0.19261043 -0.3610626 0.15525548 0.05775164 -0.027587319 -0.050018925
-0.11469375 -0.37080115 -0.16723135 0.12250538 -0.045793775 0.08907456 -0.08048765 -0.0074223727
-0.018204294 0.10469037 -0.49730024 -0.13408917 -0.02333282 -0.15546313 0.033390943 0.12911493
-0.0016204361 -0.122538544 0.025904719 0.032880027 -0.021513553 0.008413123 0.38259485 -0.12797725
0.20288025 -0.046971086 -0.08034193 -0.18924911 -0.08109649 0.22101831 -0.09167578 -0.016465513
-0.05384193 -0.03769381 -0.15074834 0.21661164 0.2753941 -0.04397995 0.20314942 -0.022393554
0.09503282 0.11200257 0.42586347 0.13869143 0.10708541 -0.011046922 0.018836921 0.036270324
-0.14011927 0.19448796 -0.05432367 0.00963819 -0.09189521 0.14920752 0.16728804 -0.16285749
-0.056119636 0.19809237 0.1273267 0.23986839 -0.07562904 0.17457393 0.158262 0.1169945
-0.10631685 0.25835198 0.034521755 0.016292606 -0.09723154 -0.091893576 0.08368641 -0.00041563943
0.21885355 -0.21577144 0.30934912 0.12473543 0.051089417 0.15263572 0.007470352 -0.21944381

bias f4 [8]
00000000: 5eb8 42bd cfb3 08be 6d28 1dbd f36b 84bd
00000010: cc35 04bd f92d 35be 8fa9 843d a2e6 bc3d
-0.047539108 -0.13349842 -0.03836863 -0.06465902 -0.032277867 -0.17693318 0.06477653 0.09223677
