model/doom-model.pth (torch, 106629 bytes, 27 tensors)

weight f4 [8, 1, 3, 3]
0.7694336 -0.30020687 2.8975606 -2.9202821 -1.5617833 1.0636716 -4.8823414 -4.8308487
1.850593 -0.8008193 -2.8760793 -1.5790961 -0.3601679 3.9889812 3.3278964 -2.1874714
2.083642 -4.6123495 -0.0119782565 1.0488209 2.9592519 -3.051434 -3.8141139 0.025404042
2.1676438 0.95824337 0.4596144 2.8745124 1.6273402 3.7380657 -0.055113554 -2.333318
-0.8342354 -0.24206439 -4.4172897 -1.5791602 0.5871272 0.22944155 0.09776749 3.4314494
0.8993895 0.4781296 -1.4121034 -4.168424 -3.8847504 0.901043 0.4208274 0.42648095
-1.4118391 -2.3779428 -4.5065274 -2.4553554 6.899186 -3.1289854 0.6952281 2.8093371
-0.94649476 -0.8162635 3.231593 -0.48077512 -3.3803396 0.91392463 1.756792 -2.3313873
4.547569 -0.79578936 -2.711202 2.766386 0.82523423 -0.470195 0.09802448 -2.8264394
00000000: 9af9 443f b7b4 99be a271 3940 e7e5 3ac0
00000010: 84e8 c7bf 6426 883f 243c 9cc0 5096 9ac0
00000020: 3be0 ec3f 7e02 4dbf af11 38c0 d21f cabf
00000030: ed67 b8be 784b 7f40 41fc 5440 88ff 0bc0
00000040: 645a 0540 5e98 93c0 7340 44bc c33f 863f
00000050: 6264 3d40 b24a 43c0 711a 74c0 231c d03c
00000060: adba 0a40 704f 753f 9452 eb3e 03f8 3740
00000070: af4c d03f 783c 6f40 c0be 61bd 1555 15c0
00000080: 7490 55bf badf 77be 705a 8dc0 ec21 cabf
00000090: f84d 163f baf2 6a3e 523a c83d de9c 5b40
000000a0: 643e 663f 67cd f43e cebf b4bf bb63 85c0
000000b0: c09f 78c0 c1aa 663f b076 d73e b65b da3e
000000c0: 25b7 b4bf 3730 18c0 7935 90c0 8b24 1dc0
000000d0: 22c6 dc40 4c41 48c0 78fa 313f 2ecc 3340
000000e0: 7b4d 72bf a5f6 50bf 6bd2 4e40 2828 f6be
000000f0: 7c57 58c0 f7f6 693f 8fde e03f 7335 15c0
00000100: af85 9140 dab8 4bbf 5584 2dc0 780c 3140
00000110: 8d42 533f 66bd f0be 0fc1 c83d 62e4 34c0

weight f4 [8]
6.6573353 3.5442998 3.1671672 5.131159 4.3572826 4.5830135 3.0495691 4.0556493
00000000: e408 d540 cfd5 6240 deb2 4a40 7432 a440
00000010: dc6e 8b40 0ca8 9240 242c 4340 e1c7 8140

bias f4 [8]
0.026534773 -1.4869491 -1.4810046 -1.0698667 0.9430732 0.9712662 0.51110363 -1.6059806
00000000: 745f d93c 5954 bebf 8f91 bdbf 64f1 88bf
00000010: 3f6d 713f e7a4 783f b0d7 023f c690 cdbf

running_mean f4 [8]
-1.242697 -0.45174658 0.11343459 -0.26229972 -0.6215796 -0.78197837 0.5456827 -0.16165923
00000000: b210 9fbf 544b e7be 6550 e83d 264c 86be
00000010: d71f 1fbf bc2f 48bf ddb1 0b3f ff89 25be

running_var f4 [8]
0.4470622 0.061396778 0.037740126 0.18649316 0.18624836 0.1265131 0.08411884 0.055291284
00000000: 56e5 e43e 307b 7b3d 6495 1a3d 10f8 3e3e
00000010: e4b7 3e3e a68c 013e 8046 ac3d 1d79 623d

weight f4 [8, 8, 3, 3]
1.240435 -0.94529605 -0.018520905 2.4937842 -1.4661851 0.5836 0.25284553 -1.4173208
-0.7759127 -0.8290578 -0.09161672 -1.2668877 -0.85022664 0.21129723 -0.39809948 1.2523949
-1.4178178 -0.74148667 0.35864994 -0.6869712 -1.3645666 -0.5912034 0.52543175 0.25770327
-0.9321573 0.85142714 -1.0326693 -0.61972636 0.3213373 -1.5037283 -0.15908033 -3.1895292
0.90249974 -2.4772344 1.72098 -0.27393472 -1.5389246 0.15205957 -1.5272032 -0.7506947
0.40885848 2.3033094 -2.6043942 2.5796123 0.36278686 1.172807 1.2306466 -1.8478798
-1.1176718 -1.1264278 0.22446576 -1.2348169 1.3682252 -2.1651497 0.08755541 1.0644623
-0.46718442 0.3464419 -0.6082182 0.18773289 -1.7744035 -3.035973 -1.0852568 -0.7058271
2.0513 -0.869366 -0.57626724 0.28722125 -0.75783 1.9892144 -1.728559 -1.3447438
-2.7691758 -0.98280275 -3.7688973 -0.5883668 -0.4132561 2.9246397 -0.86424845 -2.7866688
0.40692303 -0.20205246 0.26487547 -0.8875298 -0.7701641 -0.23323102 0.055641584 0.21500058
-0.18120612 -1.0003431 -1.0061388 0.37574 0.53665495 -1.117505 -0.020481763 -1.1574131
-0.38935333 -0.98303634 -0.7866091 -0.95430684 -0.6423027 -0.35984775 -0.09607506 0.40533686
-0.1629853 -0.8268256 0.76479936 -1.2250884 0.37101296 -2.182392 -0.6790307 -0.23188367
0.45238903 0.3427338 -0.86186045 1.4356986 1.2693081 -0.6987439 -1.168845 0.66575146
-0.18657163 -0.27614224 0.48129556 1.7339146 1.2905604 -2.3471851 0.64091665 -1.4431156
-1.8625401 0.9154293 -1.0889261 0.6352992 0.34746066 -0.061216015 -1.2718829 -1.2277375
-0.5366612 -1.2931194 -1.2059443 -0.5887235 -0.5914615 -0.5577058 -0.4939501 0.18703151
-2.3354526 -2.9204178 0.03025429 -0.22324114 -0.6022402 2.6392257 2.0498335 -2.11069
-1.4345543 -0.3978406 -0.040134106 0.060818676 0.58584124 -0.995875 -1.0052893 -1.4181595
-1.2201821 0.014615051 -0.5686844 0.20984736 0.80915374 0.000119111355 1.2236283 -0.2119973
0.8254984 0.3874608 -1.1831856 0.77509576 0.598607 2.085432 0.11177867 0.55785114
0.2942453 -0.8191784 -0.94460917 -1.1822718 -0.07561095 -0.5221054 0.39219806 -1.2075568
1.4391819 -0.023285676 0.24128437 0.61567956 -0.03639994 -3.174777 2.8832211 1.8522041
1.1683673 1.8736945 0.238141 0.035389815 -0.8527276 1.2745004 -0.6422722 0.23475683
-0.90335244 1.2871879 -1.0713657 -0.6188135 -1.1415471 -0.42847776 -1.3471794 -0.46689823
-0.5998912 0.23246276 -2.4428644 -0.94960594 -0.4425963 -0.20450863 0.3925471 0.0023193061
0.9756176 2.2398615 -1.034379 -1.6728557 -2.4585507 0.029455625 2.6564286 -0.108032174
0.5716091 -0.5919892 0.19130084 -0.50722486 0.40063238 -1.5870146 1.1188053 -0.19481151
-0.6611194 0.5481414 -0.32543704 -1.8505448 -0.6645548 -0.46907246 0.939612 0.28360498
0.7677382 0.25618026 -0.5274022 -0.2063496 -1.5814523 -0.9369469 -0.9129641 -1.2468083
0.89232683 1.0437621 -0.35478282 -3.403317 -1.9450241 -2.4446352 0.18352091 0.0143410675
00000000: 93c6 9e3f ecfe 71bf 27b9 97bc 299a 1f40
00000010: f4ab bbbf cf66 153f f874 813e c56a b5bf
00000020: 37a2 46bf 223d 54bf 8ca1 bbbd 6029 a2bf
00000030: 74a8 59bf 4d5e 583e b2d3 cbbe 7a4e a03f
00000040: 0e7b b5bf 12d2 3dbf f7a0 b73e 58dd 2fbf
00000050: 1eaa aebf 1b59 17bf b282 063f aff1 833e
00000060: dca1 6ebf 21f7 593f 822e 84bf 63a6 1ebf
00000070: 5386 a43e 2b7a c0bf f4e5 22be 3f21 4cc0
00000080: 390a 673f 028b 1ec0 1349 dc3f 2c41 8cbe
00000090: 7bfb c4bf 81b5 1b3e 657b c3bf 872d 40bf
000000a0: e655 d13e 6c69 1340 65ae 26c0 5e18 2540
000000b0: 33bf b93e 8a1e 963f d485 9d3f 5387 ecbf
000000c0: df0f 8fbf c92e 90bf 5ada 653e 7b0e 9ebf
000000d0: 0122 af3f d091 0ac0 4050 b33d 4d40 883f
000000e0: cc32 efbe d560 b13e 30b4 1bbf 0d3d 403e
000000f0: a71f e3bf 624d 42c0 b2e9 8abf 16b1 34bf
00000100: 8048 0340 c58e 5ebf 4086 13bf aa0e 933e
00000110: 2601 42bf 949e fe3f 6c41 ddbf 9120 acbf
00000120: 2d3a 31c0 f698 7bbf 9d35 71c0 359f 16bf
00000130: 4e96 d3be 4c2d 3b40 633f 5dbf c858 32c0
00000140: 3758 d03e d7e6 4ebe c29d 873e 2735 63bf
00000150: 7929 45bf 1dd4 6ebe 6ee8 633d 1d29 5c3e
00000160: 198e 39be 3e0b 80bf 28c9 80bf fe60 c03e
00000170: 3862 093f 670a 8fbf 5fc9 a7bc 1d26 94bf
00000180: 5259 c7be 45a8 7bbf 375f 49bf 744d 74bf
00000190: f36d 24bf f73d b8be 00c3 c4bd 5088 cf3e
000001a0: 9ee5 26be d8aa 53bf e4c9 433f b2cf 9cbf
000001b0: 69f5 bd3e 4fac 0bc0 f5d4 2dbf ea72 6dbe
000001c0: 899f e73e ce7a af3e e3a2 5cbf f9c4 b73f
000001d0: b078 a23f e1e0 32bf b79c 95bf b06e 2a3f
000001e0: a20c 3fbe 8462 8dbe 5f6c f63e eaf0 dd3f
000001f0: 1531 a53f 4838 16c0 1d13 243f 03b8 b8bf
00000200: b767 eebf 9359 6a3f ee61 8bbf f8a2 223f
00000210: 5de6 b13e a5bd 7abd 0fcd a2bf 8126 9dbf
00000220: a162 09bf f084 a5bf 625c 9abf 95b6 16bf
00000230: 056a 17bf cfc5 0ebf 07e7 fcbe 3085 3f3e
00000240: 0e78 15c0 20e8 3ac0 d8d7 f73c 5399 64be
00000250: 6a2c 1abf 13e9 2840 7930 0340 8c15 07c0
00000260: 7a9f b7bf c3b1 cbbe a963 24bd 011d 793d
00000270: b1f9 153f aaf1 7ebf 52ad 80bf 4086 b5bf
00000280: ed2e 9cbf f873 6f3c 4d95 11bf 3ae2 563e
00000290: b324 4f3f 6ccb f938 da9f 9c3f d215 59be
000002a0: dd53 533f 4361 c63e a072 97bf ad6c 463f
000002b0: 4f3e 193f b877 0540 37ec e43d 55cf 0e3f
000002c0: 52a7 963e adb5 51bf e8d1 71bf af54 97bf
000002d0: ead9 9abd b3a8 05bf 2fce c83e 3991 9abf
000002e0: 1d37 b83f 9ac1 bebc 4013 773e 2d9d 1d3f
000002f0: 1a18 15bd 8c2f 4bc0 b286 3840 0615 ed3f
00000300: 0f8d 953f 39d5 ef3f 3cdb 733e e9f4 103d
00000310: 5b4c 5abf d422 a33f f36b 24bf 1864 703e
00000320: 1b42 67bf 93c2 a43f 8322 89bf 906a 1ebf
00000330: 371e 92bf 7061 dbbe 6070 acbf 490d efbe
00000340: 7892 19bf b80a 6e3e e457 1cc0 6019 73bf
00000350: fb9b e2be b66a 51be effb c83e 80ff 173b
00000360: 13c2 793f e459 0f40 8866 84bf 2320 d6bf
00000370: e558 1dc0 ec4c f13c ed02 2a40 f93f ddbd
00000380: f954 123f 9b8c 17bf 5ee4 433e 7dd9 01bf
00000390: b01f cd3e 4b23 cbbf 0335 8f3f ab7c 47be
000003a0: 1f3f 29bf ff52 0c3f af9f a6be a7de ecbf
000003b0: 4320 2abf 442a f0be 698a 703f ac34 913e
000003c0: 7e8a 443f 0f2a 833e d503 07bf 4f4d 53be
000003d0: 076d cabf c1db 6fbf 04b8 69bf 6a97 9fbf
000003e0: 886f 643f ff99 853f 18a6 b5be f2cf 59c0
000003f0: 8df6 f8bf e774 1cc0 e8ec 3b3e ccf6 6a3c

weight f4 [8]
3.8123367 4.4965367 4.3901033 4.4507527 4.941551 4.245974 3.5421963 2.6073713
00000000: 53fd 7340 a1e3 8f40 ba7b 8c40 916c 8e40
00000010: 3021 9e40 05df 8740 58b3 6240 2cdf 2640

bias f4 [8]
-0.043381028 -0.49691746 -0.5646375 -0.38304755 0.7720718 -0.46069112 1.5132337 1.1238219
00000000: 4eb0 31bd f76b febe 158c 10bf cf1e c4be
00000010: 7fa6 453f b5df ebbe a4b1 c13f 65d9 8f3f

running_mean f4 [8]
-24.467184 -36.612797 -4.9472604 -32.656685 -24.1648 -4.0348783 -35.839394 -17.389612
00000000: cbbc c3c1 8173 12c2 f54f 9ec0 72a0 02c2
00000010: 8351 c1c1 b91d 81c0 8a5b 0fc2 ed1d 8bc1

running_var f4 [8]
298.55502 434.5912 429.11636 609.93274 666.92596 321.0911 451.4851 293.48013
00000000: 0b47 9543 ac4b d943 e58e d643 b27b 1844
00000010: 43bb 2644 a98b a043 18be e143 75bd 9243

weight f4 [8, 8, 3, 3]
0.4878953 -2.2083418 1.0103933 -0.1211547 0.97055167 0.9989041 -0.4633701 1.5922408
-1.4543222 1.7341458 1.1160479 0.23171656 -0.18626826 0.98678136 -0.3847595 -0.66855425
0.3117862 -1.1867118 0.092702284 1.9543322 1.4240245 0.5695823 0.19326738 -0.343155
1.7513682 -0.11768688 -0.38873073 -1.1428831 0.25402564 -1.0276836 1.0761338 -2.6274772
0.19984597 2.498612 -2.884367 0.9466685 -0.59073234 0.5278972 2.223965 -1.012045
0.02961467 -1.6976495 0.96137905 -1.6412798 -0.04169936 -1.8016725 -0.5917119 0.14731136
-2.0008512 0.5869675 -0.98151445 -1.840477 -1.2599623 -0.12092414 -0.16834213 -1.5621358
-1.0547848 0.914273 -0.47155103 0.9783173 1.605543 1.1110812 1.4871019 -0.33050066
-0.6513607 0.07931328 0.889448 0.07280407 0.55485505 -1.820569 0.15524302 -0.22373666
-1.0332884 1.0610915 -0.99477017 0.70117915 0.2604178 -1.44748 -1.2650839 1.0914663
-0.86474746 -1.7255266 -0.59045804 -0.07505744 -1.4728003 -0.3414297 -0.5975031 -0.038845584
1.1488601 -0.042762514 0.5748166 -0.9308662 -1.0730836 -3.0434642 1.5140377 -0.033319138
-0.4561657 0.40753517 0.2804515 0.8426621 -1.1240363 -0.6996865 0.56016964 -0.7871348
1.0847417 0.35023502 0.5411467 -0.45664236 2.1291318 0.4089795 -1.5057645 0.3804465
-1.0274514 1.0947695 -1.0407192 -2.5039546 -2.4297004 0.2170884 -1.6562163 1.7817737
0.45524174 0.06834857 -0.19006883 0.21287692 0.382321 -0.83298445 -0.57591444 -0.8013123
1.1671114 0.5277688 -1.271223 1.8656635 0.11235239 2.4121919 -0.1538927 -1.8352554
-1.6983831 2.0921052 -1.2020288 -1.351075 1.6710898 -2.0067763 0.7398326 0.8897415
0.7972346 0.75890416 0.6348032 0.1592646 -1.0137566 -0.21752216 0.5688479 -0.71335095
2.7560613 -0.6445973 -0.7556652 0.8495697 -2.7727857 0.50022423 -0.09038654 2.0509934
1.5571876 0.16287453 -1.109755 -1.7134019 1.0074279 -1.4476025 -1.2595991 1.1698862
1.0011942 1.5675209 -2.046843 0.34889507 1.3111295 0.25332773 1.5699419 0.7385073
-1.1935328 -1.405354 0.02641504 -1.6926979 0.3058837 -0.5524767 0.43631136 0.05720104
-1.0269986 -0.5159502 -1.0341032 -1.7553539 2.796813 1.1534458 -1.716587 0.09504999
-1.15623 -0.7156812 1.1825432 -1.8768691 1.0008215 0.31676686 -0.88323355 0.29136512
0.6230716 -0.9274827 2.4083667 -0.3089221 0.31277484 2.1322238 0.060325727 0.65546227
1.5028358 -1.1612009 0.07288416 1.5915451 -0.08032346 -1.14521 0.12663075 -0.64862406
-1.7026261 0.8501891 0.4850824 -0.7422232 -1.1245915 -0.5604154 -0.32382637 0.123058684
-1.3761685 -1.1333995 -2.8848033 -0.43961847 -0.43576714 0.681534 -0.8317513 0.20941888
-3.3497572 -0.85770684 1.1658802 0.048199765 -0.98815495 -0.26043627 0.2676566 1.257669
-0.8897441 -1.0171732 1.7160618 -0.31128925 0.35909683 -1.1990678 -0.0071169613 -1.2312628
-1.2347193 0.2504501 -0.37701017 -1.4675488 -0.18851167 1.2253809 3.4527633 2.0602183
00000000: 6acd f93e 7955 0dc0 9154 813f f51f f8bd
00000010: 1376 783f 2eb8 7f3f d93e edbe 8cce cb3f
00000020: 3b27 babf 7df8 dd3f a8da 8e3f 1b47 6d3e
00000030: 1bbd 3ebe b49d 7c3f 32ff c4be 5f26 2bbf
00000040: 71a2 9f3e 2ce6 97bf b2da bd3d 8f27 fa3f
00000050: 6f46 b63f 25d0 113f e2e7 453e 03b2 afbe
00000060: d52c e03f d205 f1bd b707 c7be fe49 92bf
00000070: a60f 823e 238b 83bf c1be 893f 9628 28c0
00000080: 6ca4 4c3e 42e9 1f40 7899 38c0 de58 723f
00000090: 3c3a 17bf 4524 073f 7155 0e40 b18a 81bf
000000a0: 779a f23c 944c d9bf f01c 763f 7515 d2bf
000000b0: f3cc 2abd 349d e6bf 6e7a 17bf cad8 163e
000000c0: f20d 00c0 8143 163f 8844 7bbf c094 ebbf
000000d0: 7246 a1bf 13a7 f7bd e161 2cbe 11f4 c7bf
000000e0: 3003 87bf cc0d 6a3f 236f f1be 0173 7a3f
000000f0: 6f82 cd3f e937 8e3f 5b59 be3f 6237 a9be
00000100: 93bf 26bf 006f a23d ddb2 633f 4d1a 953d
00000110: fb0a 0e3f 6808 e9bf 07f8 1e3e 391b 65be
00000120: cb42 84bf d9d1 873f 42a9 7ebf 7a80 333f
00000130: 7b55 853e 0647 b9bf 45ee a1bf 2bb5 8b3f
00000140: 1760 5dbf 0ede dcbf 4228 17bf b7b7 99bd
00000150: b884 bcbf e0cf aebe f7f5 18bf 8c1c 1fbd
00000160: d90d 933f bf27 2fbd 2e27 133f 3f4d 6ebf
00000170: ce5a 89bf 1ec8 42c0 fdcb c13f a679 08bd
00000180: 8d8e e9be 73a8 d03e 5797 8f3e b4b8 573f
00000190: 6ce0 8fbf a81e 33bf 4767 0f3f ab81 49bf
000001a0: d1d8 8a3f 0152 b33e 9788 0a3f 07cd e9be
000001b0: b243 0840 c365 d13e e4bc c0bf e2c9 c23e
000001c0: 8783 83bf 6821 8c3f 4936 85bf cb40 20c0
000001d0: 3680 1bc0 6c4c 5e3e e5fe d3bf 2911 e43f
000001e0: 7215 e93e 56fa 8b3d 67a1 42be 68fc 593e
000001f0: 94bf c33e 783e 55bf 216f 13bf ce22 4dbf
00000200: e863 953f db1b 073f 6fb7 a2bf 10ce ee3f
00000210: 0319 e63d 5a61 1a40 0c96 1dbe a6e9 eabf
00000220: 9e64 d9bf 0de5 0540 14dc 99bf 07f0 acbf
00000230: 45e6 d53f 066f 00c0 ab65 3d3f 19c6 633f
00000240: 9117 4c3f 8b47 423f 7682 223f 4216 233e
00000250: c7c2 81bf 21be 5ebe 04a0 113f 2b9e 36bf
00000260: 4f63 3040 5404 25bf 4673 41bf 667d 593f
00000270: 5275 31c0 b20e 003f 941c b9bd 7a43 0340
00000280: ec51 c73f 95c8 263e 740c 8ebf c150 dbbf
00000290: 66f3 803f 0a4b b9bf 8b3a a1bf d5be 953f
000002a0: 2227 803f 86a4 c83f 7aff 02c0 60a2 b23e
000002b0: 17d3 a73f 2cb4 813e dbf3 c83f d00e 3d3f
000002c0: afc5 98bf a4e2 b3bf 5b64 d83c 53aa d8bf
000002d0: ca9c 9c3e 1d6f 0dbf 3464 df3e a34b 6a3d
000002e0: b174 83bf 5015 04bf 7e5d 84bf 70af e0bf
000002f0: fcfe 3240 1da4 933f 1fb9 dbbf 92a9 c23d
00000300: 58ff 93bf e236 37bf 935d 973f 3f3d f0bf
00000310: eb1a 803f 442f a23e 981b 62bf cf2d 953e
00000320: 9f81 1f3f 826f 6dbf ae22 1a40 0a2b 9ebe
00000330: 0624 a03e 5b76 0840 1c18 773d 60cc 273f
00000340: ec5c c03f 3ba2 94bf 4a44 953d c0b7 cb3f
00000350: a080 a4bd 3e96 92bf 7eab 013e 3a0c 26bf
00000360: a7ef d9bf fea5 593f b85c f83e 5702 3ebf
00000370: 9df2 8fbf 6277 0fbf 92cc a5be 3106 fc3d
00000380: 4a26 b0bf 3c13 91bf 9ea0 38c0 ac15 e1be
00000390: df1c dfbe 0379 2e3f a7ed 54bf e771 563e
000003a0: 6c62 56c0 ad92 5bbf 903b 953f 1e6d 453d
000003b0: b9f7 7cbf e757 85be 490a 893e 4cfb a03f
000003c0: 45c6 63bf bb32 82bf eaa7 db3f 4e61 9fbe
000003d0: 8adb b73e 0e7b 99bf 6635 e9bb 059a 9dbf
000003e0: 480b 9ebf ff3a 803e 7a07 c1be a4d8 bbbf
000003f0: 3409 41be 48d9 9c3f 13fa 5c40 9eda 0340

weight f4 [8]
3.5964432 3.8291278 4.050188 3.8067896 4.280596 4.1236534 3.8983696 3.775
00000000: 202c 6640 6e10 7540 249b 8140 71a2 7340
00000010: a4fa 8840 f8f4 8340 e37e 7940 9a99 7140

bias f4 [8]
-1.1319547 -0.9201697 -1.5265143 -0.8101489 -1.6736989 -2.1597621 -1.7312665 -0.43805408
00000000: e4e3 90bf 3e90 6bbf d264 c3bf eb65 4fbf
00000010: c43b d6bf 8b39 0ac0 249a ddbf a048 e0be

running_mean f4 [8]
-1.2788137 -15.549335 5.1417074 -19.645853 -4.2699046 10.773411 -6.3474984 -20.34013
00000000: 2bb0 a3bf 13ca 78c1 de88 a440 b52a 9dc1
00000010: 0fa3 88c0 e45f 2c41 b51e cbc0 96b8 a2c1

running_var f4 [8]
469.06177 471.37195 485.8123 477.86234 467.70703 343.30316 386.3309 535.744
00000000: e887 ea43 9caf eb43 f9e7 f243 61ee ee43
00000010: 80da e943 cea6 ab43 5b2a c143 9eef 0544

weight f4 [16, 8, 3, 3]
-2.0781755 -0.10108611 -1.2782665 0.31613696 0.18353638 -0.5928194 0.15475526 -2.0872757
-0.38181365 0.65572715 -0.8789686 -1.4380339 0.12500355 0.74693245 -0.97654563 1.4210675
-1.155051 0.7907467 -0.48753196 -0.5203346 -1.5646025 -0.28449205 -0.69021404 0.21407174
1.1055107 -0.587206 1.5602415 -0.5876014 0.24708965 0.56351674 -1.3747962 0.008697798
-1.5866663 1.4121475 -1.2341087 -0.0078611635 1.6525252 -2.170926 0.72064656 0.6941616
0.3682058 -0.9774308 -0.22760904 0.40458176 -0.4958988 1.1932324 0.561082 -0.39249623
0.2845788 0.57699895 -1.3781074 0.5138363 0.48584273 -0.85503733 1.4503574 -0.9782408
0.52241933 0.07529654 -0.8917222 -0.01583437 -0.27699843 -0.53429425 -0.7482399 0.022231044
0.76976025 3.3746436 0.33943892 0.019037902 0.059286177 -1.8239088 0.09637962 2.023655
-0.58167404 -2.1720476 0.15816775 -2.3884857 1.6335201 0.9545547 0.81376857 0.0428522
-0.23860477 -0.46810767 0.30275464 -1.3391227 -0.58066565 -0.61681896 -1.073984 1.3077601
0.8903549 -0.9402435 1.5786108 -0.9303147 0.8738087 -0.6056568 0.024034899 1.5703593
-1.0921267 -0.043373805 -1.6786053 0.47838688 0.5037373 1.3359731 -1.7184459 0.59212846
-1.5798073 -0.24421631 0.22087348 -1.1680552 -0.77751654 0.3995341 -1.2727891 -1.3065908
0.13625944 -0.9026157 -0.16225523 1.095225 -0.32229155 -0.5671679 0.10117189 -0.7165123
-0.105645336 -1.8160577 0.2713711 -0.099951565 -1.5690252 -0.75173163 1.9183009 -0.7558083
0.22923042 -0.27660698 1.2124729 0.43862304 1.6525221 -1.7677063 0.34579536 0.50089645
-2.9679632 -0.11408694 0.21873906 -0.96625173 0.33363253 0.799221 0.8288354 0.13833597
0.6172408 -0.30027047 0.16169813 0.3864483 -0.83480227 -0.914659 2.1516702 0.45250124
-2.0058832 1.9165014 -0.43181646 0.51308286 -0.6540261 -2.0387394 -1.6390247 0.3093749
-0.17632487 -0.0076144463 0.7629875 -1.21603 -0.036507115 0.89839804 -1.3230903 -0.58234435
-0.38945287 0.6925669 1.6119027 -0.07602342 0.44625774 1.0694433 -0.27145723 0.48987946
0.59460634 -0.46934307 -1.2046199 -0.40642798 -0.6730433 -1.0936344 0.12659572 0.9433356
0.37864614 0.21432137 0.9711246 -1.041181 -0.57878906 1.383795 -1.4355146 -0.2643727
-0.79383636 1.0315299 0.5249667 -0.54252285 -0.105923645 2.1778498 -1.134384 1.0559553
1.029507 -0.4126131 -1.0124736 -0.6606486 2.1327908 0.30358672 0.51236486 -0.046652544
-1.0587488 0.009052124 -0.41727033 0.9318339 -0.4964749 0.7967683 -1.4136322 -0.3399568
-1.4732466 -1.5851141 -0.9660262 -0.07875831 0.40517333 0.17353705 1.1944982 -1.4258147
-0.20265564 -0.08207772 -0.42737687 -0.98198664 -0.46636674 0.1605597 -0.8430534 -0.49227387
-0.4528627 0.42629254 -1.2784116 1.3388304 0.15801935 0.1039842 1.0643287 0.14973426
0.3105909 -1.142839 -0.92529356 0.7729444 -0.48099378 0.7092825 -1.369252 0.63837445
-1.473605 -1.5853989 -1.6861538 0.43528563 0.46749198 -2.6659377 -1.1079826 0.13515233
00000000: d400 05c0 3c06 cfbd 3d9e a3bf b4dc a13e
00000010: f6f0 3b3e 03c3 17bf 2a78 1e3e ed95 05c0
00000020: 147d c3be bcdd 273f 1604 61bf 7f11 b8bf
00000030: ee00 003e f736 3f3f e5fe 79bf 8ae5 b53f
00000040: b6d8 93bf 606e 4a3f ca9d f9be a634 05bf
00000050: e544 c8bf f1a8 91be deb1 30bf 9f35 5b3e
00000060: 6081 8d3f 2253 16bf feb5 c73f 0c6d 16bf
00000070: 1205 7d3e a242 103f 52f9 afbf 3581 0e3c
00000080: e217 cbbf 40c1 b43f 46f7 9dbf 1ccc 00bc
00000090: f285 d33f 74f0 0ac0 4b7c 383f 93b4 313f
000000a0: 7885 bc3e e838 7abf 5812 69be 5725 cf3e
000000b0: 73e6 fdbe d7bb 983f 12a3 0f3f 44f5 c8be
000000c0: 50b4 913e 34b6 133f d365 b0bf c78a 033f
000000d0: 61c0 f83e bae3 5abf 50a5 b93f fd6d 7abf
000000e0: 46bd 053f 1335 9a3d e847 64bf 15b7 81bc
000000f0: bdd2 8dbe 82c7 08bf a68c 3fbf e11d b63c
00000100: 020f 453f 29fa 5740 f0ca ad3e 60f5 9b3c
00000110: 10d6 723d d875 e9bf ae62 c53d 9083 0140
00000120: 97e8 14bf d402 0bc0 baf6 213e f3dc 18c0
00000130: 3017 d13f b25d 743f 2353 503f ca85 2f3d
00000140: cf54 74be cfab efbe a802 9b3e 5f68 abbf
00000150: 81a6 14bf d9e7 1dbf 4f78 89bf af64 a73f
00000160: 4cee 633f ccb3 70bf eb0f ca3f 1b29 6ebf
00000170: edb1 5f3f 530c 1bbf d6e4 c43c 8901 c93f
00000180: cfca 8bbf bba8 31bd 8adc d6bf 20ef f43e
00000190: edf4 003f 2b01 ab3f 09f6 dbbf bb95 173f
000001a0: 2037 cabf d713 7abe a82c 623e d582 95bf
000001b0: 530b 47bf bc8f cc3e c1ea a2bf 5e3e a7bf
000001c0: 9887 0b3e d311 67bf 3c26 26be 5530 8c3f
000001d0: 6603 a5be ea31 11bf 3533 cf3d 5a6d 37bf
000001e0: 955c d8bd 9474 e8bf 27f1 8a3e 68b3 ccbd
000001f0: d1d5 c8bf 7c71 40bf e28a f53f a77c 41bf
00000200: 61bb 6a3e 6e9f 8dbe 5032 9b3f 3393 e03e
00000210: d885 d33f 3344 e2bf 170c b13e c03a 003f
00000220: 1cf3 3dc0 6aa6 e9bd 22fd 5f3e 465c 77bf
00000230: e2d1 aa3e bf99 4c3f 8f2e 543f f2a7 0d3e
00000240: 7e03 1e3f 0dbd 99be 3294 253e 8ddc c53e
00000250: 9ab5 55bf 1827 6abf f7b4 0940 3eae e73e
00000260: 6460 00c0 eb4f f53f 0c17 ddbe 6659 033f
00000270: 416e 27bf b57a 02c0 90cb d1bf 6366 9e3e
00000280: 828e 34be 9b82 f9bb 2653 433f dfa6 9bbf
00000290: 7c88 15bd 6afd 653f 065b a9bf 8514 15bf
000002a0: 5e66 c7be 104c 313f d452 ce3f 2bb2 9bbd
000002b0: e57b e43e 85e3 883f 71fc 8abe 7bd1 fa3e
000002c0: 1f38 183f bc4d f0be fc30 9abf 5417 d0be
000002d0: 914c 2cbf 36fc 8bbf 4fa2 013e 717e 713f
000002e0: e8dd c13e 1077 5b3e 9f9b 783f 6b45 85bf
000002f0: 852b 14bf 3220 b13f f1be b7bf dc5b 87be
00000300: dc38 4bbf 2c09 843f 3864 063f c7e2 0abf
00000310: 7fee d8bd e461 0b40 7f33 91bf 8b29 873f
00000320: e3c6 833f 0642 d3be bc98 81bf 4420 29bf
00000330: a57f 0840 b86f 9b3e 582a 033f bd16 3fbd
00000340: 1585 87bf 5c4f 143c 75a4 d5be ab8c 6e3f
00000350: f531 febe 02f9 4b3f e6f1 b4bf d10e aebe
00000360: 5893 bcbf 05e5 cabf 7e4d 77bf 094c a1bd
00000370: e172 cf3e b2b3 313e 51e5 983f 1981 b6bf
00000380: f684 4fbe 5d18 a8bd 24d1 dabe 7a63 7bbf
00000390: 9fc7 eebe c369 243e 59d2 57bf 520b fcbe
000003a0: 9fdd e7be 0443 da3e fea2 a3bf cb5e ab3f
000003b0: d3cf 213e abf5 d43d ec3b 883f f053 193e
000003c0: c505 9f3e 8c48 92bf 0ae0 6cbf afdf 453f
000003d0: d144 f6be 8a93 353f a643 afbf 826c 233f
000003e0: 179f bcbf 5aee cabf e3d3 d7bf c2dd de3e
000003f0: 1c5b ef3e b99e 2ac0 60d2 8dbf 5f65 0a3e

weight f4 [16]
4.2329226 3.8883746 3.7299094 3.8800845 3.801932 3.629756 3.824261 4.0119586
6.405775 7.104114 6.93336 5.7437143 6.2495704 6.289587 6.572807 6.482957
00000000: 1a74 8740 21db 7840 d6b6 6e40 4e53 7840
00000010: db52 7340 ec4d 6840 b1c0 7440 f761 8040
00000020: 1cfc cc40 e754 e340 16de dd40 82cc b740
00000030: 7bfc c740 4c44 c940 6f54 d240 6274 cf40

bias f4 [16]
-0.45741987 -1.5397744 -0.98201823 -1.495039 -1.2122368 -1.1494386 -1.4945999 -1.6993289
-0.15475698 -0.5601109 -0.3410063 0.49812546 0.40550652 0.09128603 -0.049685124 -0.17953204
00000000: f032 eabe 5417 c5bf 8c65 7bbf 705d bfbf
00000010: 932a 9bbf ce20 93bf 0d4f bfbf 9c83 d9bf
00000020: 9d78 1ebe 6e63 0fbf 6198 aebe 4d0a ff3e
00000030: 8d9e cf3e 2cf4 ba3d a182 4bbd 3fd7 37be

running_mean f4 [16]
-1.6008345 -14.810852 -0.23015183 -28.318377 -11.870675 -10.723283 -18.389296 4.2562323
-5.0778055 -6.259283 -3.390595 -6.2494106 3.3917005 -5.863065 -5.14147 -10.896938
00000000: 25e8 ccbf 40f9 6cc1 ecac 6bbe 098c e2c1
00000010: 49ee 3dc1 9192 2bc1 471d 93c1 0e33 8840
00000020: 627d a2c0 0c4c c8c0 82ff 58c0 2cfb c7c0
00000030: 9f11 5940 3a9e bbc0 ec86 a4c0 dc59 2ec1

running_var f4 [16]
278.11517 173.34158 227.98318 224.98473 179.39268 190.95456 215.62889 200.95865
118.519035 113.68971 198.2982 99.19936 110.25491 113.59074 109.96247 126.01983
00000000: be0e 8b43 7257 2d43 b2fb 6343 17fc 6043
00000010: 8764 3343 5ef4 3e43 ffa0 5743 6af5 4843
00000020: bf09 ed42 2261 e342 574c 4643 1366 c642
00000030: 8482 dc42 752e e342 c9ec db42 270a fc42

weight f4 [64, 96]
-0.032639835 -0.14739761 0.07233623 0.08586304 -0.0438884 0.16364129 -0.0021160513 -0.08629841
0.032153577 -0.16156831 -0.011752022 -0.078647226 -0.11739521 0.17614856 -0.2181378 0.043072037
-0.11147935 0.15249309 0.017161535 -0.028644674 0.12724963 -0.1542161 0.0713581 -0.037507713
-0.053630676 0.19204026 -0.040577516 -0.13960505 -0.23659986 0.012703518 -0.050383046 0.082891315
-0.08705697 -0.06742688 -0.06621061 -0.11078078 -0.113695204 0.18399343 -0.12753986 0.12665829
-0.11943157 -0.15774181 -0.008108473 0.16953878 0.007664168 -0.10261055 -0.023306286 -0.015191893
0.030346902 -0.25975376 0.21480618 -0.115016304 0.082228914 -0.09197942 -0.09817262 -0.13987967
0.10771985 0.13027762 -0.017930096 -0.14887966 -0.1493551 0.23355995 0.029518042 -0.027681554
0.10894932 0.114588514 -0.019487219 -0.09074497 0.066326305 -0.27085632 0.034053445 0.098563634
0.05498875 -0.09965554 -0.14682245 -0.13839707 -0.08798172 0.34980637 0.08941705 -0.22064525
0.034048922 0.06569713 -0.24095556 -0.055748437 -0.26175174 0.14774427 -0.1349707 -0.066957146
0.0040740063 -0.19343026 -0.002583917 -0.13204382 0.068135925 -0.038612366 -0.09451019 -0.023158506
-0.0024040274 0.054037116 0.026926748 0.019466534 -0.018100156 0.09399818 0.1178139 -0.17833853
0.14444293 0.039657444 -0.03937232 0.21727808 0.18340915 0.075652964 0.23048046 -0.11527953
0.12978528 -0.009249178 0.060111467 0.007998356 0.14572042 0.08559696 0.20564727 -0.0760606
0.12745489 0.21064217 0.035103757 -0.028442936 0.29313338 0.12847553 0.012462112 -0.07655242
-0.07645749 0.013217594 0.1436035 -0.0909767 0.15678707 0.102434576 0.1098596 0.04679013
0.118318096 0.11469287 0.1600357 0.14759974 0.008134556 0.09853069 0.12670982 0.06251955
0.16229926 0.020423228 0.10918935 0.10994087 0.13495009 0.15931487 0.13236992 0.083648615
0.23687898 0.03717396 0.24702352 0.12158463 0.31424406 -0.22153772 0.042686444 0.09321368
0.08570234 -0.09516035 0.2107764 -0.06695455 0.24969058 0.15494959 -0.097311325 0.11434639
-0.030160377 0.23770072 0.12025211 -0.09549941 0.10600905 -0.054524828 0.127246 -0.1211356
0.27724943 0.103662 0.26679116 0.15341695 0.109584086 0.02723525 -0.11272897 0.11387297
-0.1339476 0.02149835 0.10976876 0.12146937 0.12238745 0.11378777 0.11000617 -0.124552466
0.15716787 0.16473086 -0.030353632 0.031426806 0.026000941 0.36046436 0.25156018 0.1201682
0.20940204 0.27394313 0.3413064 0.53096724 -0.10283289 -0.20770653 0.08423439 -0.43113178
0.057800103 0.111145414 0.010422854 -0.7265923 0.38260934 0.3214733 0.008862331 0.02463769
0.015840389 0.02351202 -0.2463973 -0.46848622 0.39178568 0.07507588 0.21746649 -0.35233533
0.36531225 -0.08740079 0.50197804 -0.053629752 -0.42835352 -0.087923035 0.011643981 0.1755616
-0.25899127 0.24053906 0.5266034 -0.022092704 -0.10083105 0.120311856 -0.120364144 0.0637163
-0.010630409 -0.41561776 0.19986507 0.08566895 0.15017064 0.009166576 0.10692558 -0.018054498
0.33127958 0.29630163 0.3059129 0.41565534 0.28305158 -0.020978501 0.25062364 -0.030413786
00000000: 59b1 05bd 66ef 16be 0425 943d f6d8 af3d
00000010: 53c4 33bd 9591 273e 73ad 0abb 39bd b0bd
00000020: 78b3 033d 2a72 25be 8e8b 40bc cc11 a1bd
00000030: e66c f0bd 4a60 343e 845f 5fbe 4e6c 303d
00000040: 494f e4bd 2627 1c3e 5996 8c3c 3ca8 eabc
00000050: ba4d 023e d3ea 1dbe 3224 923d b0a1 19bd
00000060: d7ab 5bbd 34a6 443e 9c34 26bd a0f4 0ebe
00000070: 3c47 72be 6b22 503c 745e 4ebd ecc2 a93d
00000080: ed4a b2bd 1b17 8abd 6e99 87bd 09e1 e2bd
00000090: 08d9 e8bd c668 3c3e cf99 02be b6b2 013e
000000a0: 8a98 f4bd 1287 21be 67d9 04bc 939b 2d3e
000000b0: b323 fb3b 7b25 d2bd d3ec bebc 6be7 78bc
000000c0: 119a f83c 72fe 84be 27f6 5b3e ab8d ebbd
000000d0: a267 a83d b55f bcbd ba0e c9bd 9e3c 0fbe
000000e0: 3a9c dc3d 7f67 053e 23e2 92bc e973 18be
000000f0: 8bf0 18be 572a 6f3e d2cf f13c 6dc4 e2bc
00000100: d220 df3d 62ad ea3d a9a3 9fbc 80d8 b9bd
00000110: 16d6 873d aead 8abe a07b 0b3d bbdb c93d
00000120: e23b 613d 3418 ccbd a058 16be f6b7 0dbe
00000130: c32f b4bd d219 b33e 4920 b73d d4f0 61be
00000140: e276 0b3d 388c 863d 0ebd 76be 7958 64bd
00000150: 5304 86be 464a 173e c235 0abe d420 89bd
00000160: 3e7f 853b 9512 46be ef56 29bb 7f36 07be
00000170: d98a 8b3d 0028 1ebd 8f8e c1bd e8b6 bdbc
00000180: e38c 1dbb 0656 5d3d 7c95 dc3c 4878 9f3c
00000190: c746 94bc 1e82 c03d 6a48 f13d 609e 36be
000001a0: d9e8 133e d86f 223d df44 21bd 257e 5e3e
000001b0: 9ccf 3b3e f1ef 9a3d 1203 6c3e ad17 ecbd
000001c0: 6fe6 043e dd89 17bc 7137 763d 890b 033c
000001d0: bc37 153e 754d af3d 3395 523e a9c5 9bbd
000001e0: 8983 023e 95b2 573e f5c8 0f3d 2901 e9bc
000001f0: 9415 963e 178f 033e e32d 4c3c 84c7 9cbd
00000200: bf95 9cbd 9b8e 583c cc0c 133e fe51 babd
00000210: ca8c 203e 38c9 d13d 12fe e03d 02a7 3f3d
00000220: c250 f23d 18e4 ea3d 66e0 233e 6324 173e
00000230: cd46 053c 75ca c93d 38c0 013e 400a 803d
00000240: c731 263e 9d4e a73c aa9e df3d ae28 e13d
00000250: 5b30 0a3e 7023 233e fb8b 073e f74f ab3d
00000260: 6790 723e b943 183d bcf3 7c3e 5d01 f93d
00000270: 99e4 a03e c9da 62be fbd7 2e3d d0e6 be3d
00000280: b584 af3d 6ee3 c2bd c5d5 573e 781f 89bd
00000290: e3ae 7f3e 1bab 1e3e 294b c7bd 712e ea3d
000002a0: e512 f7bc d167 733e bd46 f63d 3295 c3bd
000002b0: 461b d93d 6d55 5fbd c74c 023e f115 f8bd
000002c0: a3f3 8d3e be4c d43d da98 883e 5519 1d3e
000002d0: 9f6d e03d 761c df3c 72de e6bd 3b36 e93d
000002e0: 8f29 09be 4f1d b03c 72ce e03d efc4 f83d
000002f0: 45a6 fa3d 9009 e93d ea4a e13d 5d15 ffbd
00000300: 9df0 203e 35af 283e 2ea8 f8bc 65b9 003d
00000310: edff d43c c98e b83e 7fcc 803e bf1a f63d
00000320: 7d6d 563e 4642 8c3e b6bf ae3e 78ed 073f
00000330: 0d9a d2bd 05b1 54be 1483 ac3d 4ebd dcbe
00000340: cdbf 6c3d 35a0 e33d 9ec4 2a3c f401 3abf
00000350: 5fe5 c33e 2698 a43e 4f33 113c fbd4 c93c
00000360: b4c3 813c 489c c03c 934f 7cbe 6ddd efbe
00000370: 2298 c83e 62c1 993d 89af 5e3e 4c65 b4be
00000380: 350a bb3e 2fff b2bd a281 003f dfaa 5bbd
00000390: 2751 dbbe fe10 b4bd 65c6 3e3c 6cc6 333e
000003a0: 819a 84be df4f 763e 7bcf 063f c2fb b4bc
000003b0: 8280 cebd 1066 f63d 7a81 f6bd b17d 823d
000003c0: 2b2b 2ebc dacb d4be 6ea9 4c3e 3473 af3d
000003d0: 55c6 193e 682f 163c ccfb da3d 07e7 93bc
000003e0: 7a9d a93e d9b4 973e 9ea0 9c3e c7d0 d43e
000003f0: 23ec 903e 1bdb abbc be51 803e 5526 f9bc

bias f4 [64]
-0.04632658 0.6188873 0.7034467 0.4433529 -0.39120448 0.014595678 -0.07261526 -0.31794724
0.06888297 -0.10232129 0.35391542 -0.21711434 -0.23082712 -0.08118043 0.6229379 0.14478204
-0.18638769 -0.078926355 -0.037872043 0.05067467 -0.07418751 -0.38889727 -0.104385614 -0.25551954
0.3771244 0.24858297 0.038279906 -0.16716318 -0.18428607 -0.07525692 0.71564275 -0.09470877
0.6611421 -0.16137621 0.025381265 0.55139256 0.304663 0.60052085 0.35854703 0.5342882
-0.32834175 0.72870785 0.37215585 0.0647062 -0.19185434 0.4428149 0.05886059 -0.19506997
-0.20944074 -0.08045022 0.022401646 -0.23307304 -0.18433626 -0.26751852 -0.16096826 -0.096238844
-0.15888718 0.46623948 0.13767359 0.21307445 -0.077928804 0.68358636 0.17213498 0.23733927
00000000: f1c0 3dbd 666f 1e3f 1515 343f 27ff e23e
00000010: f44b c8be b622 6f3c 4fb7 94bd fbc9 a2be
00000020: 8412 8d3d d38d d1bd 6734 b53e 3953 5ebe
00000030: f25d 6cbe ed41 a6bd dc78 1f3f be41 143e
00000040: 6adc 3ebe 24a4 a1bd b71f 1bbd 3e90 4f3d
00000050: 9fef 97bd 8b1d c7be 20c8 d5bd 75d3 82be
00000060: 7316 c13e 898c 7e3e 64cb 1c3d d32c 2bbe
00000070: 7db5 3cbe 4d20 9abd 5d34 373f acf6 c1bd
00000080: 9c40 293f ce3f 25be 5fec cf3c 1028 0d3f
00000090: cafc 9b3e bcbb 193f 7a93 b73e 1dc7 083f
000000a0: 691c a8be 998c 3a3f 368b be3e af84 843d
000000b0: 7775 44be a2b8 e23e cd17 713d 6cc0 47be
000000c0: a277 56be 16c3 a4bd a883 b73c b3aa 6ebe
000000d0: a5c2 3cbe 30f8 88be ddd4 24be df18 c5bd
000000e0: 52b3 22be f1b6 ee3e 4efa 0c3e 3030 5a3e
000000f0: 2399 9fbd 84ff 2e3f 2744 303e 1109 733e

weight f4 [1, 64]
-0.7282495 0.47451726 0.615881 1.2170507 -2.0972056 0.43171072 -2.467855 -2.319915
1.6071305 -1.3087592 1.6334946 -1.6726497 -1.9481273 -2.554353 0.7087908 1.5075246
-0.5082377 -0.60853744 -2.5902812 0.9595214 1.227271 -2.1095228 -0.5706077 -1.8224165
1.1388228 1.9368035 0.18099374 -2.3968484 -2.3147354 -1.6680019 0.7768544 -1.2389561
1.1356956 -1.4407257 0.62157714 0.5425906 1.6558576 0.8955516 2.273042 0.4543648
-2.1206295 0.5087955 0.24770688 0.7629444 -1.7980692 0.30308938 1.0602297 -2.3808393
-2.4773126 -2.4405274 0.20515376 -2.1648304 -2.3184884 -2.5218163 -2.9051397 -2.0738776
-1.9978948 0.6449683 0.51967204 1.4700769 -0.8962295 0.5624454 1.4615518 1.5529008
00000000: 8f6e 3abf edf3 f23e 61aa 1d3f 51c8 9b3f
00000010: 9e38 06c0 3009 dd3e 56f1 1dc0 7d79 14c0
00000020: 74b6 cd3f 6c85 a7bf 5a16 d13f 6319 d6bf
00000030: 3c5c f9bf 857a 23c0 5073 353f 91f6 c03f
00000040: de1b 02bf 1cc9 1bbf 2bc7 25c0 32a3 753f
00000050: 3717 9d3f 6c02 07c0 5913 12bf f244 e9bf
00000060: f2c4 913f 2de9 f73f 6c56 393e f765 19c0
00000070: a024 14c0 1681 d5bf eedf 463f 1d96 9ebf
00000080: 795e 913f b369 b8bf ae1f 1f3f 38e7 0a3f
00000090: 24f3 d33f df42 653f 8579 1140 81a2 e83e
000000a0: 65b8 07c0 6c40 023f dfa6 7d3e 5350 433f
000000b0: 2227 e6bf 882e 9b3e 9bb5 873f ac5f 18c0
000000c0: 4a8c 1ec0 9a31 1cc0 d413 523e 958c 0ac0
000000d0: 1d62 14c0 7065 21c0 cfed 39c0 69ba 04c0
000000e0: 04bb ffbf a41c 253f 3a09 053f 7b2b bc3f
000000f0: 4c6f 65bf 6cfc 0f3f 2114 bb3f 74c5 c63f

weight f4 [64, 96]
0.28788185 -0.33191276 0.641108 -0.44541988 0.23825398 0.22483851 -0.08141958 0.2839323
-0.21336654 -0.24460842 0.34458104 -0.42335984 -0.00072747003 -0.19113635 0.13265707 -0.028894449
0.13568746 0.40740854 -0.10772508 0.1298751 -0.4138963 0.024368882 0.31882343 -0.39924726
0.19737749 -0.013823398 0.1740601 -0.4572189 0.14746141 0.06956016 -0.33828458 -0.29507843
-0.053550832 -0.509848 -0.52720475 0.43358642 0.24066426 -0.009809723 -0.6679351 0.067606665
-0.07996802 -0.22218849 -0.07185992 -0.08912344 0.5038537 0.11042234 -0.023034908 -0.1722384
-0.22263357 0.07489324 -0.23519404 0.02747452 0.4408858 -0.08592337 0.14166754 0.3727696
-0.08628441 0.15605393 0.54128176 0.588221 0.080696136 -0.1703939 0.39102215 -0.019658962
-0.06982971 0.3562961 0.35582855 -0.12889376 0.05692729 -0.39180902 -0.3007988 0.26994634
0.5579213 0.35574055 -0.27166417 0.30516648 -0.022316735 -0.19946745 0.19885941 0.28559074
0.05094658 -0.58661705 0.12088411 -0.015131113 -0.07657415 0.11721839 -0.22726624 -0.058563743
0.006128314 -0.20851834 -0.061651453 -0.24199736 0.17010581 -0.30949494 -0.015038948 -0.7577994
-0.41267425 -0.48682714 0.27519336 -0.14948748 -0.22423933 -0.33518925 -0.8638387 -0.21207644
-0.06820917 0.76095694 0.14941546 0.25037536 -0.29059866 -0.11678608 0.08615683 0.03396821
-0.031802718 -0.59181136 0.14983684 -0.32102776 0.1004498 0.18228333 -0.5505625 0.056226086
-0.41156575 -0.09599846 -0.019402608 -0.28897 0.06486146 -0.04678739 -0.18376862 0.022521483
-0.20641774 0.4309117 0.17855011 0.2165942 0.010003299 0.10686917 0.21096955 0.03588868
0.04108153 0.50713974 0.40108874 -0.12735078 -0.10735579 -0.415536 0.030303275 0.5073588
0.43627605 -0.13761431 -0.3512129 -0.1469454 0.7071336 -0.27983344 0.33403075 -0.35004196
0.23480907 -0.30501625 -0.1267022 1.0370213 0.33587238 0.2785635 -0.15274177 -0.29664296
0.028434614 0.05492097 -0.061977647 0.43255395 0.27457365 0.20742717 0.25861856 -0.13869633
-0.1350652 0.6566099 -0.052714135 -0.07168177 0.2971729 0.09206219 0.16502458 -0.20116596
-0.10431568 0.43223825 -0.19673255 0.11754195 -0.5404044 0.07034569 -0.085725576 -0.20953982
0.10328206 -0.42101333 -0.25401738 -0.0015760423 -0.36854285 0.36801642 -0.16328022 0.06256147
0.17352052 0.060902018 -0.056393456 0.08032791 0.08279258 -0.26794958 0.004248356 0.24906187
0.39375067 0.43883502 -0.16446789 0.097293235 -0.8059554 -0.33012658 -0.19199373 -0.1467328
0.65407526 -0.19436753 0.3162028 -0.28208697 0.71262944 0.2769622 0.1010062 -0.032439567
0.47663924 0.8365357 -0.28421393 -0.47204524 0.20967379 0.56789744 -0.4848149 -0.07767701
-0.28605112 -0.1180618 0.2676838 0.16085722 -0.21989061 0.16780944 -0.08884221 -0.3167625
-0.29418415 -0.24450612 -0.52614355 -0.49234298 -0.19200182 0.42334458 -0.24369192 -0.034323312
-0.74927425 -0.30255187 -0.2709798 0.6535285 -0.3374951 0.51613843 -0.27512416 -0.1784298
0.639407 -0.45820394 0.2955161 0.07517342 0.18654576 -0.18245548 -0.038316067 0.16387762
00000000: 4065 933e 78f0 a9be a71f 243f 130e e4be
00000010: daf8 733e 113c 663e 4fbf a6bd 935f 913e
00000020: c27c 5abe a17a 7abe ed6c b03e 9fc2 d8be
00000030: b0b3 3eba 3fb9 43be 41d7 073e 0db4 ecbc
00000040: a7f1 0a3e da97 d03e f79e dcbd fafd 043e
00000050: 37ea d3be 40a1 c73c d33c a33e 236a ccbe
00000060: 531d 4a3e 897b 62bc d03c 323e 9818 eabe
00000070: 2000 173e 8f75 8e3d a333 adbe 8514 97be
00000080: 1e58 5bbd 6685 02bf e4f6 06bf 0aff dd3e
00000090: b170 763e f6b8 20bc cbfd 2abf 5d75 8a3d
000000a0: 46c6 a3bd 6185 63be 4b2b 93bd 5a86 b6bd
000000b0: 8efc 003f 1c25 e23d b4b3 bcbc 435f 30be
000000c0: 0efa 63be a161 993d b5d6 70be 3f12 e13c
000000d0: c9bb e13e 98f8 afbd 4c11 113e a8db be3e
000000e0: e1b5 b0bd 9acc 1f3e 7191 0a3f a795 163f
000000f0: 0444 a53d bd7b 2ebe 0e34 c83e d50b a1bc
00000100: e102 8fbd 716c b63e 292f b63e bafc 03be
00000110: 972c 693d 319b c8be 4d02 9abe 6836 8a3e
00000120: eed3 0e3f a023 b63e 9117 8bbe c83e 9c3e
00000130: 96d1 b6bc 3241 4cbe cda1 4b3e f338 923e
00000140: 5cad 503d 892c 16bf 1792 f73d 7de8 77bc
00000150: e8d2 9cbd 3210 f03d 7bb8 68be 89e0 6fbd
00000160: 06d0 c83b d585 55be 3c86 7cbd 28ce 77be
00000170: 3830 2e3e 1f76 9ebe eb65 76bc 24ff 41bf
00000180: 0a4a d3be 6841 f9be 25e6 8c3e 3f13 19be
00000190: ff9e 65be ed9d abbe 8824 5dbf 912a 59be
000001a0: 40b1 8bbd 13ce 423f 5e00 193e 3331 803e
000001b0: 59c9 94be 8a2d efbd fe72 b03d 4022 0b3d
000001c0: 9143 02bd f380 17bf d46e 193e c05d a4be
000001d0: a0b8 cd3d 7ba8 3a3e aaf1 0cbf 534d 663d
000001e0: bfb8 d2be d79a c4bd 38f2 9ebc e0f3 93be
000001f0: 16d6 843d 22a4 3fbd d72d 3cbe f97e b83c
00000200: 2c5f 53be 75a0 dc3e d7d5 363e dfca 5d3e
00000210: e1e4 233c 39de da3d 6708 583e 0200 133d
00000220: 1b45 283d e9d3 013f 815b cd3e 3e68 02be
00000230: 5add dbbd 22c1 d4be 933e f83c 44e2 013f
00000240: 935f df3e c4ea 0cbe 2dd2 b3be db78 16be
00000250: b506 353f 5446 8fbe 1406 ab3e b338 b3be
00000260: ca71 703e 172b 9cbe 39be 01be 1dbd 843f
00000270: 77f7 ab3e e09f 8e3e 5768 1cbe 96e1 97be
00000280: b5ef e83c d0f4 603d 46dc 7dbd b677 dd3e
00000290: eb94 8c3e ca67 543e a769 843e 6906 0ebe
000002a0: 884e 0abe 9617 283f c7ea 57bd e4cd 92bd
000002b0: 0c27 983e 1a8b bc3d 34fc 283e 73fe 4dbe
000002c0: 76a3 d5bd 554e dd3e 4274 49be d5b9 f03d
000002d0: f157 0abf 6711 903d e490 afbd 9b91 56be
000002e0: 8b85 d33d 0f8f d7be 910e 82be 3493 ceba
000002f0: a6b1 bcbe a66c bc3e ee32 27be 3a20 803d
00000300: 5daf 313e 6574 793d d3fc 66bd f682 a43d
00000310: 288f a93d b030 89be cb35 8b3b 130a 7f3e
00000320: b099 c93e fcae e03e 456a 28be ad41 c73d
00000330: 1853 4ebf 5a06 a9be 019a 44be 2041 16be
00000340: 7a71 273f 4808 47be 55e5 a13e b46d 90be
00000350: e26e 363f fdcd 8d3e 57dc ce3d 5adf 04bd
00000360: 0f0a f43e 3427 563f 7d84 91be eaaf f1be
00000370: bab4 563e ba61 113f a939 f8be 2015 9fbd
00000380: 4b75 92be 63ca f1bd da0d 893e c1b7 243e
00000390: 012b 61be 3dd6 2b3e e8f2 b5bd b22e a2be
000003a0: 4e9f 96be d05f 7abe 58b1 06bf 6114 fcbe
000003b0: 209c 44be 9fc0 d83e 608a 79be 9a96 0cbd
000003c0: 70d0 3fbf 14e8 9abe ddbd 8abe a54d 273f
000003d0: 28cc acbe a621 043f 13dd 8cbe 4db6 36be
000003e0: 2db0 233f b599 eabe e34d 973e 86f4 993d
000003f0: da05 3f3e 9cd5 3abe 4ff1 1cbd 89cf 273e

bias f4 [64]
-0.026233975 -0.033917867 0.15559141 -0.04687935 0.019028997 0.07678922 -0.04942545 0.027226368
0.07205376 -0.04427989 -0.04564294 -0.027997334 0.022563629 -0.0538033 0.0858438 -0.016914556
-0.15223183 0.011602925 -0.012412529 -0.114207424 0.021952046 -0.12796952 -0.052874297 0.08073963
-0.0520272 0.12494597 0.026974835 0.046679657 -0.030714113 0.016881574 -0.044844996 0.1561051
-0.052847374 0.062501386 0.044301257 0.038481206 -0.07754066 0.12952147 0.05759807 0.14264855
-0.07790004 -0.20976861 0.0035068563 -0.056814298 -0.0016514146 0.001893843 0.036257803 -0.1274232
0.07306493 -0.087815136 -0.109761156 0.12794971 0.044469934 -0.009533212 -0.09057987 0.018197998
-0.15905139 0.0122841 -0.041020848 0.014410309 0.0057883933 -0.032638073 -0.13059479 0.0072553596
00000000: a2e8 d6bc 76ed 0abd 5b53 1f3e 9004 40bd
00000010: b3e2 9b3c ab43 9d3d 5772 4abd d509 df3c
00000020: ec90 933d d45e 35bd 17f4 3abd aa5a e5bc
00000030: 5cd7 b83c d960 5cbd e0ce af3d 6590 8abc
00000040: a9e2 1bbe 321a 3e3c ec5d 4bbc 95e5 e9bd
00000050: c7d4 b33c 710a 03be b892 58bd d25a a53d
00000060: 791a 55bd ace3 ff3d 54fa dc3c 2b33 3f3d
00000070: 2a9c fbbc 3a4b 8a3c 63af 37bd 04da 1f3e
00000080: 7d76 58bd ba00 803d 3c75 353d 789e 1d3d
00000090: a3cd 9ebd 47a1 043e f4eb 6b3d 7612 123e
000000a0: 0e8a 9fbd 95cd 56be 49d3 653b 1cb6 68bd
000000b0: 4774 d8ba d33a f83a 1083 143d 3a7b 02be
000000c0: 11a3 953d 6cd8 b3bd 75ca e0bd 4005 033e
000000d0: 1b26 363d 3031 1cbc f081 b9bd f813 953c
000000e0: 5ede 22be 4043 493c 7a05 28bd 3719 6c3c
000000f0: 90ac bd3b 80af 05bd a4ba 05be 5ebe ed3b

weight f4 [128, 64]
0.114393584 -0.37107998 0.19561858 0.18448788 0.2526171 -0.45581916 0.15681025 -0.008476312
-0.8215753 0.06308596 0.29898843 -0.041227728 0.047687452 0.14410703 0.029656509 0.06817624
0.17244653 0.022371976 0.20541915 0.22316082 0.3796839 0.33487415 -0.32117784 0.09090432
-0.14220352 -0.12742195 0.33605248 -0.4301259 -0.16794235 -0.050263237 0.8770326 -0.091981255
-0.04330162 0.18816753 -0.24063611 -0.2384606 0.04370321 -0.04021698 -0.13258262 0.16408214
0.05769622 -0.1524778 -0.104071304 -0.25326103 -0.43240616 0.12844497 -0.09052603 0.692691
0.12921026 0.07844638 0.32088846 -0.50987905 -0.27825308 0.15050489 0.23044233 -0.42560056
0.22856985 -0.063069485 -0.2367398 0.22499752 -0.02359517 0.02322381 -0.34601727 0.13329571
-0.1321271 -0.070734136 0.1099647 0.13993284 0.3185857 -0.0080450745 -0.03901364 -0.21225321
-0.15774643 -0.027137706 0.2670325 -0.103123255 0.15390095 -0.39098558 0.31638885 0.3528356
0.14509903 0.145932 0.04750796 0.006035766 0.35765654 -0.11228234 0.14484073 -0.23958272
0.040196188 0.1208904 0.101564676 0.0990387 0.0887698 0.023772301 -0.21818398 0.23462977
0.20354854 -0.47360435 -0.09377135 0.006751264 -0.12950386 0.39977667 -0.15095186 0.20415395
-0.20436083 -0.22892378 0.09251833 -0.19017226 0.04139981 -0.10549196 -0.09250993 0.13017157
-0.09967427 -0.24769789 0.3744497 -0.08120098 0.041340794 0.28114933 0.13392153 -0.080145486
0.07667487 0.060993616 0.12264259 -0.10959905 -0.1363485 -0.12301101 0.31765503 0.23849718
0.16589518 -0.06824781 -0.05648174 -0.16007914 -0.23654582 -0.286448 -0.014415461 0.08041162
-0.23912565 -0.14830734 0.08072172 0.15176365 -0.034392394 0.17926463 -0.12559646 -0.12525663
0.014586449 0.12596329 0.18131354 -0.06394635 0.25428942 -0.23188533 0.14029455 -0.28948227
-0.4235345 0.22335327 -0.27845308 -0.22189385 -0.03074879 -0.21882196 -0.08420905 -0.07832109
-0.10198473 -0.77683127 0.20605779 -0.3004466 0.03697651 -0.11226949 0.058224242 -0.4247798
0.09784735 0.14897113 -0.0556026 0.11371404 -0.13903365 -0.25139832 0.3402267 0.2016037
0.06176013 -0.33942866 -0.19126654 -0.08420753 0.09467959 -0.37310657 0.033307787 -0.22640066
-0.007583756 0.20004858 -0.045122076 -0.7570951 -0.019385098 0.1590557 0.35227138 0.072193295
0.070279874 0.08155777 -0.001913602 -0.12425221 -0.114423275 -0.10438824 0.027290778 -0.10892349
0.15180443 -0.115654506 -0.3422895 0.14591476 -0.022685409 -0.09036815 0.29704568 0.049661778
0.24885674 0.060327303 -0.16491504 0.30606896 -0.33398357 0.10272903 0.13351846 -0.074891806
-0.018670097 -0.026556293 0.119352035 -0.013164978 0.19495064 -0.017773475 0.06640629 0.022562668
0.04328892 0.11101618 0.15433116 0.20747301 -0.07673793 -0.05622312 0.1512564 -0.21020935
0.14415945 -0.09016927 0.04967017 -0.042356998 0.044082552 -0.16752048 -0.062410597 0.21643344
0.33312112 0.13090289 0.12139348 0.21339723 -0.31953913 -0.31639442 0.0649755 0.43999523
-0.0727139 0.044194434 0.106759295 0.056106303 -0.23852429 -0.12979749 -0.06079768 0.14148119
00000000: 2f47 ea3d 32fe bdbe 3d50 483e 64ea 3c3e
00000010: 0757 813e 2161 e9be de92 203e 3be0 0abc
00000020: c252 52bf 3633 813d 0315 993e 68de 28bd
00000030: eb53 433d cb90 133e 35f2 f23c fc9f 8b3d
00000040: d395 303e 6f45 b73c 6659 523e 4584 643e
00000050: ee65 c23e a074 ab3e 6c71 a4be 0b2c ba3d
00000060: cd9d 11be e67a 02be 120f ac3e 7639 dcbe
00000070: 14f9 2bbe d3e0 4dbd 3585 603f ab60 bcbd
00000080: 0a5d 31bd fdae 403e 5069 76be 042f 74be
00000090: 2302 333d 8fba 24bd bdc3 07be 2605 283e
000000a0: df52 6c3d 2423 1cbe 5623 d5bd 6eab 81be
000000b0: 5764 ddbe 1487 033e b665 b9bd 3354 313f
000000c0: b24f 043e 7fa8 a03d 7e4b a43e 6f87 02bf
000000d0: 3077 8ebe f41d 1a3e 13f9 6b3e 51e8 d9be
000000e0: 370e 6a3e 932a 81bd eb6b 72be c065 663e
000000f0: a84a c1bc dc3f be3c 2d29 b1be ac7e 083e
00000100: 544c 07be 0fdd 90bd 2c35 e13d 8e4a 0f3e
00000110: aa1d a33e 7dcf 03bc c4cc 1fbd e858 59be
00000120: 4888 21be e54f debc 7cb8 883e 4932 d3bd
00000130: 3698 1d3e 432f c8be b8fd a13e dea6 b43e
00000140: d794 143e 336f 153e b597 423d adc7 c53b
00000150: c21e b73e 49f4 e5bd 2151 143e 2c55 75be
00000160: c2a4 243d 6395 f73d 2401 d03d cdd4 ca3d
00000170: f1cc b53d 21be c23c 9f6b 5fbe c942 703e
00000180: 076f 503e 457c f2be 320b c0bd b539 dd3b
00000190: a99c 04be 87af cc3e 2093 1abe bc0d 513e
000001a0: f743 51be ff6a 6abe 407a bd3d 84bc 42be
000001b0: d992 293d 2b0c d8bd d975 bdbd b24b 053e
000001c0: 0622 ccbd 84a4 7dbe dfb7 bf3e b34c a6bd
000001d0: f754 293d cef2 8f3e ba22 093e 5123 a4bd
000001e0: b707 9d3d 71d4 793d 0a2c fb3d 7775 e0bd
000001f0: f19e 0bbe 32ed fbbd aea3 a23e 9b38 743e
00000200: 6de0 293e 82c5 8bbd 6659 67bd c9eb 23be
00000210: 1139 72be 50a9 92be d32e 6cbc d9ae a43d
00000220: 5bdd 74be e1dd 17be 6e51 a53d ee67 1b3e
00000230: 0adf 0cbd 2691 373e 5c9c 00be 4643 00be
00000240: 00fc 6e3c 85fc 003e 42aa 393e 4ef6 82bd
00000250: 3932 823e 5973 6dbe 60a9 0f3e 0537 94be
00000260: 84d9 d8be b8b6 643e 6791 8ebe 2438 63be
00000270: e3e4 fbbc dd12 60be cb75 acbd cf66 a0bd
00000280: 5fdd d0bd 6ade 46bf d000 533e 23d4 99be
00000290: ae74 173d 8ced e5bd 8b7c 6e3d bd7c d9be
000002a0: 3164 c83d e38b 183e 8dbf 63bd e8e2 e83d
000002b0: d65e 0ebe 48b7 80be 3232 ae3e 3371 4e3e
000002c0: 31f8 7c3d 98c9 adbe 60db 43be ff74 acbd
000002d0: 5fe7 c13d d307 bfbe bf6d 083d 93d5 67be
000002e0: 2881 f8bb 89d9 4c3e edd1 38bd fcd0 41bf
000002f0: 7fcd 9ebc 7fdf 223e ea5c b43e 14da 933d
00000300: e5ee 8f3d c307 a73d d4d1 faba f177 febd
00000310: c056 eabd 80c9 d5bd e990 df3c 4713 dfbd
00000320: 9f72 1b3e 45dc ecbd 9240 afbe ae6a 153e
00000330: c0d6 b9bc f012 b9bd 5f16 983e 266a 4b3d
00000340: 4dd4 7e3e c319 773d 7ddf 28be 12b5 9c3e
00000350: e5ff aabe 9963 d23d 10b9 083e e060 99bd
00000360: 08f2 98bc 958c d9bc d76e f43d ebb1 57bc
00000370: 24a1 473e ae99 91bc 0500 883d 58d5 b83c
00000380: b94f 313d 735c e33d fd08 1e3e ce73 543e
00000390: c728 9dbd 374a 66bd f5e2 1a3e 1f41 57be
000003a0: 899e 133e abaa b8bd f372 4b3d 887e 2dbd
000003b0: e88f 343d 7d8a 2bbe 41a2 7fbd baa0 5d3e
000003c0: da8e aa3e 680b 063e 259d f83d ce84 5a3e
000003d0: a29a a3be 73fe a1be e011 853d 0e47 e13e
000003e0: 06eb 94bd 3905 353d 9ea4 da3d b9cf 653d
000003f0: b63f 74be a2e9 04be fd06 79bd 72e0 103e

bias f4 [128]
-0.029320545 -0.045920018 0.026041972 -0.06811817 0.041224316 -0.0431141 0.1036951 -0.09753981
0.0979762 -0.13184035 0.096811675 0.04569239 -0.029991835 -0.14665146 -0.010762617 0.07573488
0.03439422 -0.011365763 -0.1474306 0.0071609663 -0.057241667 -0.025304658 -0.003148794 -0.10716137
0.09699391 -0.040584862 -0.05306975 0.087462574 0.09456577 0.04819447 -0.1101704 -0.05977096
-0.051069126 -0.045364223 0.0708863 0.08405349 -0.074063465 -0.03716763 0.161408 -0.049560227
-0.036519077 0.045214 0.00046782722 0.09996472 0.03691213 -0.09444793 -0.03750317 -0.017819569
-0.0074246675 0.041750073 0.023076845 -0.0065464065 -0.03976387 0.02546504 -0.01525582 0.05430461
0.061650217 0.10551484 0.124679215 -0.016170988 -0.06594764 0.13373914 0.013063841 0.09993971
-0.09579773 -0.025638536 -0.16378917 -0.029189928 -0.12871695 0.007319864 0.014217349 -0.04545655
0.020826465 -0.0016910227 -0.03100488 -0.0034483233 0.113509275 -0.06923707 -0.016229225 0.08236085
0.11104587 0.072371215 -0.0022678878 -0.05498405 0.009126835 -0.035056498 0.077931955 0.0020563977
0.05926342 0.11893712 0.024461519 -0.013065601 -0.001808239 -0.11500143 -0.068514414 0.09137942
-0.027693892 -0.040732794 -0.07462664 0.040470928 -0.15820998 -0.058204856 0.01826116 0.029271169
-0.09795187 -0.058977805 0.05676626 0.174636 -0.035069782 0.05670158 -0.100251436 -0.05646786
0.0042471373 0.021140296 0.110881284 0.16569446 -0.08181995 -0.039719384 0.020665428 0.08117009
0.23787326 -0.124161966 -0.17867413 -0.039692525 0.02862869 -0.0023721003 -0.07484982 -0.111348115
00000000: a431 f0bc a116 3cbd f955 d53c 8a81 8bbd
00000010: d4da 283d 6998 30bd 195e d43d f4c2 c7bd
00000020: bfa7 c83d 2801 07be 3345 c63d f227 3b3d
00000030: 70b1 f5bc cd2b 16be b055 30bc e41a 9b3d
00000040: f4e0 0c3d 7737 3abc 0cf8 16be 8aa6 ea3b
00000050: 3d76 6abd b74b cfbc ff5b 4ebb 6c77 dbbd
00000060: bea4 c63d 503c 26bd ab5f 59bd 941f b33d
00000070: b3ab c13d 9167 453d 05a1 e1bd 65d2 74bd
00000080: dc2d 51bd d6cf 39bd d62c 913d 3c24 ac3d
00000090: 96ae 97bd 163d 18bd 2448 253e aaff 4abd
000000a0: 0795 15bd 5132 393d b546 f539 4eba cc3d
000000b0: 2c31 173d eb6d c1bd ed9c 19bd 58fa 91bc
000000c0: a04a f3bb 2002 2b3d a70b bd3c 3d83 d6bb
000000d0: 71df 22bd 0f9c d03c 8cf3 79bc 836e 5e3d
000000e0: f084 7c3d 2a18 d83d d157 ff3d 0579 84bc
000000f0: 8e0f 87bd eaf2 083e b809 563c 31ad cc3d
00000100: 9a31 c4bd e807 d2bc 59b8 27be b71f efbc
00000110: 60ce 03be 78db ef3b e2ef 683c a630 3abd
00000120: 439c aa3c 4ea5 ddba f2fd fdbc 44fd 61bb
00000130: 8d77 e83d 2acc 8dbd 27f3 84bc ceac a83d
00000140: 046c e33d 5c37 943d d8a0 14bb f536 61bd
00000150: b888 153c 6797 0fbd ca9a 9f3d a1c4 063b
00000160: 33be 723d 4e95 f33d 8663 c83c 1a11 56bc
00000170: 6f02 edba df85 ebbd 4951 8cbd 2225 bb3d
00000180: 4dde e2bc 6ed7 26bd dad5 98bd d8c4 253d
00000190: cc01 22be 3768 6ebd 6e98 953c 17ca ef3c
000001a0: fd9a c8bd b692 71bd bd83 683d c8d3 323e
000001b0: 55a5 0fbd ea3f 683d a050 cdbd d84a 67bd
000001c0: 922b 8b3b 6a2e ad3c ba15 e33d cfab 293e
000001d0: 3891 a7bd cbb0 22bd 8b4a a93c 813c a63d
000001e0: 0c95 733e a148 febd 5af6 36be a194 22bd
000001f0: b786 ea3c 3d75 1bbb dd4a 99bd 7b0a e4bd
