model/doom-model.pth (torch, 75397 bytes, 27 tensors)

weight f4 [8, 1, 3, 3]
000000 b0 be 7c 3e 87 cb b2 3e 15 1b 47 3f e0 86 f9 bf
       0.24682117 0.34920904 0.777757 -1.9494286
000010 47 74 b7 3e 34 0f b9 be 75 aa 9e bf d5 81 07 bf
       0.358309 -0.36144412 -1.2395769 -0.5293248
000020 12 9c 74 3f 10 4c ac 3f 65 03 00 c0 42 11 47 3d
       0.95550644 1.3460712 -2.0002072 0.048600443
000030 73 bb 01 c0 69 ad 1d 3f e8 fd cf 3f fc d6 5f 3e
       -2.027066 0.6159273 1.6249361 0.21859354
000040 38 1b 47 3f 81 70 ec bf b7 62 17 3f db 87 91 bf
       0.7777591 -1.8471833 0.59135 -1.1369585
000050 88 6b 8d bc f0 a4 19 be 2f 19 db bf 5c 3e 4a 40
       -0.017263189 -0.15004325 -1.711706 3.160056
000060 92 7a c1 3f 7a 8e ec bf 8c 88 0d 3f 10 db d3 be
       1.511553 -1.848098 0.5528648 -0.4137807
000070 14 ee 11 3d 32 28 2a be ff 05 9e 3f c9 78 94 3f
       0.03562744 -0.16616896 1.234558 1.1599361
000080 79 04 47 bf 8c 63 2d 3f 3b e8 f3 3e 15 e4 9a bf
       -0.777412 0.6773002 0.47638115 -1.2100855
000090 00 c8 3a 3f de 16 53 3f 40 82 b6 bf 0e 2e 91 bf
       0.72961426 0.8245677 -1.4258499 -1.134218
0000a0 e1 70 8c 3f 17 6e 69 be c3 0b 88 bf 01 73 b4 3f
       1.0971948 -0.22795902 -1.0628589 1.4097596
0000b0 1f 02 03 3f 24 a8 93 3e a1 a5 78 bd 64 2b 92 3f
       0.5117511 0.2883922 -0.06070483 1.1419492
0000c0 be 3f 31 3e ff 7a e1 3d 14 6d 64 3f 41 97 f4 3e
       0.17309472 0.11009788 0.8922894 0.47771648
0000d0 a3 21 fc bd f9 e1 78 3d 65 0a 05 3e d0 7b 12 3f
       -0.12311103 0.06076238 0.12992246 0.5722017
0000e0 bf 76 9a 3e 6b 08 ab 3f 8c 02 14 3f 3f 9f 00 3f
       0.3016872 1.3361944 0.57816386 0.5024299
0000f0 8f 5a 49 be 1d 06 9b bf 01 0e 45 bf 76 e3 fc 3e
       -0.19663452 -1.2111241 -0.76974493 0.4939229
000100 b2 5e ad bf c4 03 5a bf 34 f9 99 3f 2b 57 ff 3d
       -1.3544524 -0.85161996 1.2029176 0.12467798
000110 a5 be 32 3e 29 13 3c be af 90 ce 3c 0a 7d b7 bf
       0.17455538 -0.18366684 0.025215475 -1.4335034

weight f4 [8]
000000 ae 28 d1 3f 69 00 e1 3f 67 df c7 3f 1e 2d a6 3f
       1.634054 1.757825 1.5615052 1.2982519
000010 06 26 b5 3f 20 2f b1 3f a9 6a cf 3f 54 f4 cf 3f
       1.4152229 1.3842506 1.6204425 1.6246438

bias f4 [8]
000000 ee 4e 1d be a3 ec 0f bf 71 3e 73 bf bb 50 73 bf
       -0.1536214 -0.56220454 -0.95017153 -0.9504506
000010 67 34 8a bf c0 ff f7 be 6f 2b 6d bf 8f da 95 bc
       -1.0797242 -0.4843731 -0.926444 -0.018292693

running_mean f4 [8]
000000 f7 49 df be db 72 c3 be a4 16 97 3e 65 db 9f 3e
       -0.43611118 -0.38173565 0.2950946 0.31222072
000010 bf 88 64 3e 23 73 66 3f 28 69 ba 3e 60 e6 0c bf
       0.2231779 0.90019435 0.36408353 -0.55039024

running_var f4 [8]
000000 8e 09 81 3d 31 a9 d7 3c f7 be 1a 3d 7b c9 22 3d
       0.063006505 0.026325794 0.037779775 0.039742928
000010 93 d6 be 3c 38 15 b3 3d 34 fa 70 3d 10 1d 3c 3d
       0.023295676 0.087442815 0.058832362 0.045926154

weight f4 [8, 8, 3, 3]
000000 85 cc a1 be 96 7f 0a 3f 8d fb 90 3e 57 8e e4 be
       -0.3160135 0.5410093 0.28316918 -0.44639847
000010 f9 f5 73 3e eb ae 2f 3e c8 10 43 3e 88 d6 6d 3f
       0.238243 0.1715657 0.1904937 0.92905474
000020 66 c6 05 3f 8f 8f 41 3f 2c 44 81 3e 5e de 16 bf
       0.52255857 0.7560968 0.25247324 -0.58933055
000030 3a b2 fe be 14 2e 27 3f 41 d0 8c be a1 7f 34 3f
       -0.4974535 0.65304685 -0.27502635 0.70507246
000040 8b e2 2f bc 5a 15 af bd 5e da 34 3d 6a 85 91 bc
       -0.010735164 -0.08548994 0.044153564 -0.017763812
000050 15 d0 33 3e 01 8b 60 be 8c c3 88 3f 79 f3 10 3d
       0.17559846 -0.21928026 1.0684676 0.035388444
000060 3a 06 12 be 86 ba 20 be de dd 37 bf ab 41 0e be
       -0.14260188 -0.15696153 -0.7182292 -0.13892238
000070 47 22 89 bd a3 c7 0a 3f 6c 62 14 3f dc 76 41 be
       -0.06695991 0.5421087 0.5796268 -0.18892998
000080 38 9f 07 be 82 1a d3 3e 90 5d 77 be 09 9c a6 be
       -0.13244331 0.4123116 -0.24156785 -0.3254092
000090 d3 fd 27 3f a2 00 3a 3e 0e b1 a9 3e 36 67 a2 be
       0.6562168 0.18164304 0.33142895 -0.3171937
0000a0 6f 13 f1 3b e2 18 92 3e 07 52 d6 bd 74 9f 03 3e
       0.007357053 0.2853461 -0.10464864 0.12853795
0000b0 2f 57 fb 3e 30 51 1a 3e 02 50 5e be 2d 91 26 be
       0.49089953 0.15070033 -0.21710208 -0.16266318
0000c0 ac 24 b0 bd 71 99 dc be 3d f8 f3 3e ec b2 1a bf
       -0.086007446 -0.43085817 0.47650328 -0.60429263
0000d0 84 07 e5 be 5d 89 cb bd 53 8b f9 3d 2d d1 54 3e
       -0.44732296 -0.09938309 0.12184777 0.20782919
0000e0 6d 82 ef be 84 e1 08 3f 09 70 79 be 86 8e 3c 3e
       -0.46779194 0.5346911 -0.24359144 0.18413743
0000f0 62 42 e1 bc 13 12 2a be b4 cc af 3d a2 fe 6c be
       -0.027497474 -0.16608457 0.08583966 -0.2314401
000100 2e 8a 1e be 4f db 14 bf 3b cd ed 3a ba 46 f6 be
       -0.15482399 -0.5814714 0.0018142828 -0.48100835
000110 f0 fe 49 be 52 6b 26 bd f4 d1 02 3e 80 c4 3e bf
       -0.19726157 -0.040629692 0.12775403 -0.74518585
000120 b2 e3 bb 3e ec 6a d1 be 30 f6 02 bf 0c 89 d1 be
       0.36697155 -0.40901887 -0.511569 -0.4092487
000130 37 87 3d 3e fc 9b 56 3f a1 f5 63 be 50 2a df bc
       0.18508612 0.83831763 -0.22261669 -0.027241856
000140 cd 16 c5 3e 35 b1 99 3e 73 4d 1e 3f 0d 26 e4 bd
       0.38493958 0.3001801 0.6183693 -0.1114007
000150 86 3a 2a bf 45 60 b5 be 20 ec 1e 3f 80 6d 37 3e
       -0.6649555 -0.3542501 0.6207905 0.17912865
000160 6c 8c 26 bf 22 66 7c bd 55 38 49 be 97 0b 7f bf
       -0.65058017 -0.06162084 -0.19650395 -0.9962706
000170 ca dd e4 3e 2a 61 60 be 9e 0d b1 3c 4e 6b 4f 3f
       0.44700462 -0.21912065 0.021612938 0.8102311
000180 5d 7f 82 bf d1 00 dc be a2 2f 87 3d 84 b0 65 bf
       -1.0195118 -0.42969373 0.06600882 -0.89722466
000190 6d ff e1 3e f8 93 97 be 0f 58 88 be 98 59 6b 3f
       0.44140187 -0.2960508 -0.26629683 0.91933584
0001a0 1d 9f 8c be e4 ea 81 3b 67 72 bf 3e 90 54 e8 be
       -0.27465144 0.0039647687 0.3739197 -0.45377016
0001b0 33 4b aa 3e 8f a8 a1 bd 89 3a 51 be d4 ef 9f be
       0.33260497 -0.07893478 -0.20432486 -0.31237662
0001c0 85 ed 62 3e 8f a8 12 bf 18 50 47 bd 43 3f 4f 3f
       0.22160919 -0.5728845 -0.048660368 0.80955905
0001d0 8e 7b be bd 07 b9 eb 3e 8f 75 f3 3e 1a 18 d5 be
       -0.0930091 0.46039602 0.47550628 -0.4161995
0001e0 99 1d 8f 3d 40 fc 23 bf be 9c e3 be f4 37 9f 3e
       0.06988067 -0.6405678 -0.44455522 0.31097376
0001f0 fc a6 46 3d 7d 6e d7 3d 61 af 31 3e e4 3d 14 3f
       0.048499092 0.10519121 0.17352058 0.5790694
000200 0d f9 b5 3e de de cb 3c 21 4c 5b 3f bb b9 13 bf
       0.35541573 0.024886545 0.8566304 -0.5770528
000210 ac 48 03 be 46 60 59 3d 19 6b ab 3e f3 a8 24 bf
       -0.12820691 0.05307033 0.33480147 -0.64320296
000220 11 e4 27 be 7b e1 7f 3e a7 84 20 3d 93 3c 24 bf
       -0.16395594 0.24988358 0.039189007 -0.6415493
000230 04 7d d1 be 2b 08 af 3d 1e 10 ac 3e de 01 e9 be
       -0.40915692 0.0854648 0.33606046 -0.45509237
000240 63 b5 61 3f 4a 19 31 3f 02 bd 57 3e 8b 33 a4 be
       0.881674 0.69179213 0.21068195 -0.32070574
000250 98 15 0b 3e 17 6d a8 3d 05 e0 7f 3f 53 79 a8 3e
       0.13582456 0.08223932 0.999512 0.32905063
000260 83 0a 06 3f 37 2d 62 3d e7 5c 41 be 37 4e 54 3e
       0.5235979 0.0552189 -0.18883096 0.20732962
000270 f6 84 16 3f fa 81 20 bd f6 ed d1 be b9 0f 60 be
       0.5879663 -0.039186455 -0.41001862 -0.21880998
000280 5c 95 f5 be ec 9a d0 3e 79 9e fb 3c 3d 9f ad bf
       -0.47965515 0.40743196 0.030715214 -1.3564221
000290 51 4f 9f bd 1c 14 e9 3e 48 87 08 bf 77 47 6c bf
       -0.077788 0.45523155 -0.5333142 -0.92296547
0002a0 42 e6 15 3f 1f dc ad be 9c 0a 72 3e 07 15 3b 3e
       0.5855447 -0.33957002 0.2363686 0.1826974
0002b0 8a 25 d1 3d a3 5e 00 3f d6 1b dd 3e 54 a8 e4 3e
       0.10212238 0.50144404 0.431853 0.44659674
0002c0 43 d3 99 be 40 7d 28 3f 5b 7b 4c 3e aa fa 13 bf
       -0.30043992 0.65816116 0.19968931 -0.5780436
0002d0 61 8f 64 be ae 4e 1a bf 4b 68 98 bd 76 5e 94 be
       -0.2232032 -0.60276306 -0.07441767 -0.28978318
0002e0 df 5c 10 3f 93 64 c5 3e a3 ab 3d bd a0 1e 78 bc
       0.5639171 0.38553295 -0.046306264 -0.01514402
0002f0 5b d6 b8 3e 2e e0 66 bc 9a ac 80 3d 3e 3c 12 3e
       0.3610104 -0.014091535 0.06282921 0.14280793
000300 43 33 f6 3d bc a2 59 be 80 84 c4 be c2 98 b9 be
       0.12021496 -0.21253484 -0.3838234 -0.36249357
000310 8a 4f b1 3c 6d 6a 07 3e 6f 08 39 be ba da da 3d
       0.021644372 0.13224192 -0.18069623 0.1068625
000320 a6 83 9d 3e e2 5a 34 be 2f 27 c4 3d 3f aa 4b bf
       0.30764502 -0.17612794 0.09577786 -0.7955665
000330 06 c5 b2 be 82 7e 9c bc 08 04 82 3e f5 98 cb bb
       -0.34915942 -0.019103292 0.253937 -0.0062133023
000340 5a df 04 bd 1b 20 b9 3d e1 aa b3 3e d3 81 7c 3e
       -0.032439567 0.09039327 0.35091308 0.24658899
000350 6d ae 11 bf c9 24 2c 3f 01 d4 46 bf ff aa e2 be
       -0.5690678 0.6724363 -0.7766724 -0.44271085
000360 fb 35 99 be 07 4e c2 3e 9e 72 ce be cc c8 0e 3f
       -0.29923996 0.37950155 -0.4032182 0.5577514
000370 f4 e6 0a be 6d ee c6 3e 63 bb 64 be 5c 1d 03 bf
       -0.13564664 0.3885378 -0.22337107 -0.51216674
000380 5b 56 a1 bf 16 7e 3f 3e 80 76 91 be 6f 3d 62 3e
       -1.2604479 0.18700442 -0.2841072 0.22093748
000390 7d 8f 42 3f 96 6e 07 bf 22 23 d0 3e 34 3f 02 3d
       0.76000196 -0.52903116 0.40651804 0.031798556
0003a0 c7 39 71 3c 9e 50 13 bf 89 ca 0a bd 11 68 26 be
       0.014723248 -0.5754489 -0.03388456 -0.16250636
0003b0 b5 6a de 3e 93 9c bc be 6a 0f 54 bf aa 27 c0 3e
       0.43440786 -0.36838207 -0.8283602 0.3753026
0003c0 84 fc 82 bf b3 e9 aa 3e f2 16 c1 3e 53 3a 61 3e
       -1.0233312 0.33381423 0.37712818 0.21994905
0003d0 2c cf a2 be ba 13 8d be d9 55 9a 3d aa 29 0c bf
       -0.31798685 -0.27554113 0.075359054 -0.54751074
0003e0 46 f9 de be 58 01 23 bf c5 6a 67 be e9 57 09 bf
       -0.43549556 -0.63673925 -0.22599323 -0.53649765
0003f0 12 ad d5 3e 81 d0 42 bf cf d4 16 3f ee 37 41 be
       0.41733605 -0.760994 0.5891847 -0.18868992

weight f4 [8]
000000 70 38 a6 3f 91 a8 b3 3f 20 3f da 3f 0d dc cc 3f
       1.2985973 1.4035817 1.7050514 1.6004654
000010 02 a4 af 3f d3 42 b3 3f 3b eb c1 3f a9 10 c4 3f
       1.3721926 1.4004768 1.5149912 1.5317584

bias f4 [8]
000000 72 24 74 bd 25 34 fb bc d0 f5 4e be c6 9a af bd
       -0.05960507 -0.030664513 -0.20210958 -0.085744426
000010 7e 97 04 3f f4 a4 c4 3e d8 a2 6d 3e 07 29 10 be
       0.5179366 0.384071 0.23206651 -0.1407815

running_mean f4 [8]
000000 71 50 42 bd 6e a5 a5 bf 0a 28 aa 3e ba 05 e5 bf
       -0.047439996 -1.294111 0.33233672 -1.7892373
000010 79 0b 9b 3f 02 5a 61 c0 4e f0 03 c0 1a dd ad be
       1.2112876 -3.5211186 -2.061542 -0.3395775

running_var f4 [8]
000000 f1 4c 32 41 35 07 26 41 79 e7 1b 41 a2 51 36 41
       11.1437845 10.37676 9.744012 11.39493
000010 62 4e 45 41 07 d7 17 41 ab 47 ff 40 f7 b3 14 41
       12.331636 9.489997 7.9774985 9.293937

weight f4 [8, 8, 3, 3]
000000 26 f5 20 bf 60 15 4a 3e 15 02 03 bf c7 16 ae bd
       -0.62874067 0.19734716 -0.5117505 -0.08500438
000010 f3 ed e1 be 83 03 b3 3e bd e2 48 3f 0f 68 d8 3d
       -0.44126853 0.34963617 0.78470975 0.105667226
000020 8e eb e8 3e 65 58 39 3e 96 eb 5b be 37 3d 7f 3e
       0.45492214 0.18100126 -0.21476588 0.24925695
000030 3a ac 5a 3f 23 a2 46 3e 05 89 02 bf c9 19 9d 3e
       0.85419047 0.19397788 -0.50990325 0.30683735
000040 e8 e9 c1 3e d7 68 9a be 73 2f 1a 3e 45 76 57 3e
       0.3787377 -0.3015811 0.15057163 0.2104121
000050 c5 67 15 3f 55 ef db be 2b 1f cd bd 9a 13 8a 3c
       0.58361465 -0.42956033 -0.100157104 0.01685505
000060 af 64 00 3d 1b a5 06 bf fa 7c a2 be c1 ce 01 be
       0.03134602 -0.5259568 -0.31735975 -0.12676527
000070 1a 4a 28 3d 7f 1c 22 be 09 3e 50 bd cc 6c 1f bf
       0.041086294 -0.15831183 -0.05084041 -0.62275386
000080 6d 1d 89 bd 66 b3 ac 3e f2 26 d3 be 6b 07 7e be
       -0.06695066 0.3373062 -0.4124065 -0.24807517
000090 ad 54 41 3e a0 b8 14 3e df f9 06 bf ef ab f9 3e
       0.18879957 0.14523554 -0.52725023 0.48763987
0000a0 e8 df 48 bf 9d 21 27 3e f8 bc 36 3d b7 f9 fe bd
       -0.78466654 0.16321416 0.04461381 -0.12449973
0000b0 dd 0a 3c 3f 71 cb 87 3f e9 95 5d be 57 1e e6 3d
       0.73454076 1.060896 -0.21639217 0.112362556
0000c0 58 e9 26 bf 4f 9c 80 bd 44 b2 6f 3e 7e a9 6f be
       -0.65199804 -0.062798135 0.23407847 -0.234045
0000d0 9b a4 93 be 58 64 af 3e a0 29 af 3e 4b 66 4d bf
       -0.28836522 0.34256244 0.34211445 -0.8023421
0000e0 34 24 8d 3d 68 34 af be 59 dd 7f bc e6 77 14 3d
       0.06891671 -0.3421967 -0.015616738 0.036247157
0000f0 65 dd 95 3d 5a 69 5b 3f 50 e0 17 3f cc eb c8 3e
       0.07317618 0.8570763 0.5932665 0.392424
000100 d0 aa e1 3e 21 d4 19 bf c9 e4 f6 3e 60 e5 ec 3e
       0.44075632 -0.6008931 0.48221424 0.4626875
000110 1b be 83 be 45 67 3d bd 15 5f ba 3e 0d 4a 3c bf
       -0.25730976 -0.046241064 0.36400667 -0.7355049
000120 56 22 04 bf 80 74 89 bf 12 ae 9a be 34 45 ff be
       -0.5161489 -1.0738678 -0.3021093 -0.49857485
000130 d7 46 2c 3e d5 1d c0 3d 17 04 08 3e 6e c0 b5 be
       0.16823898 0.0938069 0.1328281 -0.35498375
000140 d7 9d 84 be d2 ef 38 bf 08 ae d2 bd 7f 5d 96 be
       -0.25901672 -0.72240937 -0.102871 -0.29368207
000150 6a 54 1f 3f 95 57 0e bf 85 ff dd be 8e b2 2e 3f
       0.6223818 -0.5560239 -0.43359008 0.682412
000160 88 1a 27 bf 08 da 4f be aa 39 7e 3f d1 b3 08 3e
       -0.6527486 -0.20298016 0.9930674 0.13349845
000170 9e 4f 1f bf ce 97 9d 3d 34 9d c1 3d 59 f8 35 bf
       -0.6223086 0.0769497 0.09453812 -0.71082073
000180 b7 e8 d6 3d 85 a3 eb 3e 11 74 bf bc cf 97 cc 3e
       0.104936056 0.46023193 -0.023370774 0.3995957
000190 e2 0a 55 bd 72 ad 82 3f 2b 88 c2 be 0f a5 1e 3e
       -0.05201233 1.0209181 -0.37994513 0.15492652
0001a0 72 80 05 bf ac eb f8 be 45 2a 46 be d0 09 8d be
       -0.52149117 -0.48617303 -0.19352062 -0.2754655
0001b0 5c 66 18 3c 5c 87 15 3e a5 12 ba 3e 13 2d ab bc
       0.009301748 0.14602417 0.3634235 -0.020895516
0001c0 14 02 e0 be 15 56 ac be 67 37 91 3e f0 86 ad 3e
       -0.43751585 -0.33659425 0.2836258 0.33892012
0001d0 2b e8 92 be 85 b8 3c 3e 5b ba 5b be 2c c5 ca 3d
       -0.28692755 0.18429764 -0.21457808 0.09900889
0001e0 81 4e 04 3d 7f 99 0f be 1b 9d f9 3d 23 24 62 bf
       0.03230143 -0.14023398 0.121881686 -0.8833639
0001f0 d1 19 a4 be cb f7 14 be 79 cf 6f be e3 07 67 3f
       -0.32050946 -0.1454765 -0.23418988 0.9024641
000200 d6 88 9a bd 2f 82 37 3e 8c 4a 30 3e 28 37 63 3e
       -0.07545631 0.17920755 0.17215937 0.22189009
000210 28 c3 59 bd 20 2c 24 be 8d cf e7 bd 98 6a b9 3e
       -0.05316463 -0.16032457 -0.11318884 0.36214137
000220 e6 7a 4f bd ef 4c 97 3e fd fb 6a 3d 2d 51 7b be
       -0.050654314 0.29550883 0.05736922 -0.24542685
000230 e4 ce 48 bf a7 1e ff 3e 4e 4a 58 bf 07 03 bb 3e
       -0.7844069 0.49828073 -0.8448838 0.36525747
000240 f4 7d 71 bd c0 9a ab be ba b0 96 be 08 ed 9c be
       -0.05895801 -0.33516502 -0.29431707 -0.3064959
000250 6f fb 22 3e f4 75 ec ba bf bc 54 3f f4 7a 53 3f
       0.15916227 -0.0018040524 0.83100504 0.82609487
000260 e8 15 32 3d ed 92 cc be 2f c4 99 be 75 79 80 3e
       0.043477923 -0.39955845 -0.3003249 0.25092664
000270 d3 fb 50 3f 3d f0 f4 be 19 fb 4f 3e 7e bf 2f bf
       0.81634253 -0.47839537 0.2031063 -0.6865157
000280 97 7f e2 be d9 3f 5d 3e ec 46 18 3f 61 0c 95 bf
       -0.44237968 0.21606387 0.5948322 -1.1644403
000290 a8 c9 91 bd 2a f8 07 3e ea de 1e bf 3a b3 a1 3e
       -0.07118541 0.13278261 -0.6205889 0.31582052
0002a0 33 72 77 3c fe c8 c7 3d 22 4a 42 bf 1c 23 7e 3e
       0.015102911 0.09755133 -0.7589437 0.2481808
0002b0 93 8d 9d be 8c ac 06 bf e4 e1 24 bf 06 62 09 3e
       -0.30772075 -0.52607036 -0.6440718 0.13416299
0002c0 e6 a9 bd 3e 0b ca 4a bf 6c e9 a2 bd c7 02 be 3e
       0.37043685 -0.79214543 -0.07954678 0.37111494
0002d0 78 09 01 3e 85 54 20 3d 7c 9f 38 bf c9 57 9b be
       0.12601268 0.039143104 -0.72118354 -0.30340412
0002e0 01 8c 13 bf 4e 55 5d 3e 43 ad 77 3f b6 de d2 3e
       -0.57635504 0.21614572 0.9674875 0.4118554
0002f0 c5 f2 ec bd db ea 14 3e 2e 3a b8 3e b7 0c 37 bf
       -0.11569742 0.14542715 0.35981888 -0.71503776
000300 df fb ae 3e f5 0a f0 3d 4d 44 12 be 9d cf 31 bf
       0.34176537 0.1172084 -0.14283867 -0.6945742
000310 60 47 e6 3e 9a 96 90 bb 1c 3e 0d 3e 02 cd 1c 3d
       0.4497633 -0.0044124844 0.13793224 0.03828145
000320 43 cd a3 be ec 6f ab 3d 50 2b c7 3c 4f 3b fb be
       -0.3199254 0.08370957 0.024312645 -0.49068686
000330 28 b6 eb 3d 3c eb a3 3e 6a d4 90 bd 5d 1d fe be
       0.11509353 0.32015407 -0.07071765 -0.49631777
000340 aa fb 49 3f 91 5f 91 3e 19 cf 8d be a4 49 8f be
       0.78899634 0.28393224 -0.27697065 -0.2798587
000350 c2 8f 7e be 4b 46 98 3e a3 09 d3 bd bd 78 0c be
       -0.24859527 0.2974113 -0.103045724 -0.13717933
000360 02 00 7b bf 9a 31 a2 be 8c c8 30 be 20 0c c0 be
       -0.98046887 -0.31678468 -0.17264003 -0.3750925
000370 de 55 0a 3d c3 c4 4b 3e db c7 16 be 2e 03 ea bb
       0.033773296 0.19899277 -0.14724676 -0.0071414923
000380 55 ad 8e bc 3e c6 b7 bd 9e f9 20 bf e0 39 2a bf
       -0.017416636 -0.089733586 -0.62880886 -0.6649456
000390 a0 46 08 3e ff 96 34 be 60 e3 d6 bd 1c 00 e1 3e
       0.13308191 -0.17635725 -0.10492587 0.43945396
0003a0 9a eb e2 be ef 1f 69 bf a4 e9 ee bc e8 a6 1c be
       -0.44320375 -0.9106435 -0.029164143 -0.15298045
0003b0 48 f0 06 bf 7c 3b 44 bf e9 29 80 be e5 5e 13 bf
       -0.5271039 -0.76653266 -0.25031975 -0.5756667
0003c0 6f 2e 25 3e e9 fe 82 be 5b d5 e2 3e d9 ab 09 3e
       0.16130994 -0.25585106 0.44303402 0.13444461
0003d0 b4 09 14 3e 4a 72 68 3d 3d f2 78 3e b4 08 fd bd
       0.14456826 0.05674962 0.24311157 -0.123551756
0003e0 01 3b 8e 3e cb b3 7d 3e d0 39 6a bf aa 42 37 bf
       0.2777939 0.24775617 -0.91494465 -0.71586096
0003f0 60 91 15 3f b5 67 29 be 8e 86 eb bc 38 6e d4 bf
       0.5842495 -0.16543467 -0.028750684 -1.6596136

weight f4 [8]
000000 6c 83 d0 3f 49 ba 95 3f d4 1c ae 3f 50 7d b4 3f
       1.6290107 1.1697475 1.3602548 1.4100742
000010 a7 95 9d 3f 84 ca b7 3f 64 ac c7 3f f9 3f 97 3f
       1.2311295 1.4358678 1.5599484 1.1816398

bias f4 [8]
000000 f9 79 c4 bf dd 41 db be a0 4b 2a bf 1e dd 0e bf
       -1.5349723 -0.42823687 -0.66521645 -0.5580615
000010 27 71 43 bf 93 28 96 bf f4 fb 82 bf 83 fb be be
       -0.7634453 -1.1731132 -1.023314 -0.37301263

running_mean f4 [8]
000000 13 ca 62 3f c0 6e 28 c0 3a 9d 03 c0 c8 94 d9 c0
       0.8858959 -2.6317596 -2.0564713 -6.799412
000010 ce 54 83 c0 59 1b a4 c0 c7 46 00 c0 7f 0f 23 c0
       -4.104102 -5.1283383 -2.00432 -2.5478208

running_var f4 [8]
000000 23 96 29 41 92 e3 2a 41 79 11 3f 41 f5 68 3b 41
       10.599154 10.680559 11.941766 11.713124
000010 6b ca 1f 41 31 3f ed 40 6e 32 2f 41 9e ab 1e 41
       9.986918 7.413964 10.949812 9.916899

weight f4 [16, 8, 3, 3]
000000 c1 50 b6 3d ac 5c 1f be bf cc cc bd 1b d1 9b 3b
       0.08902121 -0.15562695 -0.0999999 0.004755152
000010 18 e1 0f 3e 0c 19 ab be 15 10 ee bd 37 8e 95 3e
       0.1405071 -0.33417547 -0.11624161 0.29210064
000020 b4 26 bf 3d 72 81 db bd 96 ea ce bd 95 ed fb be
       0.09333554 -0.10718049 -0.101033375 -0.49204698
000030 0e 29 01 be 6f 13 55 3d 87 12 19 3f 15 d7 e7 be
       -0.12613317 0.052020486 0.59793895 -0.45281282
000040 82 84 8f 3e 22 a4 bf be 7e 78 b5 bd d1 cc 9d bd
       0.28030783 -0.3742991 -0.08860873 -0.07705081
000050 e1 3c 20 bf 7a 40 1a 3e b4 d5 5a bd 15 b2 5e be
       -0.62592894 0.15063658 -0.05342646 -0.2174762
000060 cb 49 d8 be 49 bc 88 3d 55 95 81 ba ef bf 2c be
       -0.422438 0.066765375 -0.0009886423 -0.16870092
000070 4f 3a 95 3d 33 bd 0b bf ec 0b 64 3e d9 1d 0d 3f
       0.07286512 -0.5458557 0.22270173 0.5512367
000080 2e 94 1e 3f 2d b2 56 3d 56 0f 13 bf a1 d0 ab 3e
       0.61944854 0.052416015 -0.57445276 0.3355761
000090 00 0f 84 be dc 1a d3 be f6 6d f3 be ec b6 04 b9
       -0.25792694 -0.4123143 -0.4754483 -0.00012656645
0000a0 3a 06 4e 3e 6c f9 df be 39 eb 4b be ef e9 cd 3e
       0.20119563 -0.4374498 -0.19913949 0.4021754
0000b0 a2 e3 ed bd af a9 1d be a5 f9 60 3d b8 6a 13 bd
       -0.11615683 -0.1539676 0.05492558 -0.035990447
0000c0 a4 5a e2 bd c3 17 92 3e cb 6e a8 be b9 d9 e0 3d
       -0.110524446 0.28533754 -0.32897028 0.10979027
0000d0 f1 ff 92 be 58 17 c7 3d 00 55 dc bd 16 e3 9c ba
       -0.28710893 0.09721249 -0.107584 -0.0011969532
0000e0 5e f3 f0 bd 2e ff 25 3e 1b 53 f0 bd ac a0 a7 3e
       -0.117651686 0.16210625 -0.11734601 0.3273977
0000f0 c8 60 19 be b9 cd 4a 3e 87 65 bc 3a 66 8b 49 be
       -0.14978325 0.1980504 0.0014373519 -0.19682083
000100 c1 82 fa 3d 8d 23 ed be 4d f8 ff be 8e 3d 04 be
       0.122319706 -0.46316186 -0.49994126 -0.12914106
000110 cf b6 c3 bc 6b 03 cf bb 69 31 98 bd ea 15 d6 3e
       -0.02389088 -0.006317546 -0.07431299 0.41813594
000120 82 90 cf 3e 0b b2 4f 3d 49 78 93 3d 6a 08 81 3e
       0.40539938 0.050706904 0.07200677 0.25201732
000130 65 b7 b1 3c 39 20 0f bf eb a5 54 3e f3 17 8b 3c
       0.021693895 -0.5590854 0.20766418 0.016979193
000140 99 62 3e be e6 3c b1 3e 3f d0 f4 3e bd a9 71 3e
       -0.185923 0.34616774 0.4781513 0.23599906
000150 c9 eb c2 3e 2b 1a 4e 3d 2d 6a 53 be 20 d9 b6 be
       0.38070515 0.050317924 -0.20645972 -0.35712528
000160 74 4e af bc 09 d6 fe bd 50 57 94 be 7c 34 d3 be
       -0.021399714 -0.12443168 -0.28972864 -0.4125098
000170 97 88 1c be 10 09 4a be fc f4 58 be 3e 7b 83 3e
       -0.1528648 -0.1973002 -0.21187204 0.25679964
000180 c6 42 a9 be 66 36 87 3d a4 e8 38 3e ed 6a e5 3e
       -0.33058757 0.066021726 0.18057495 0.4480814
000190 92 1a 17 be 1d ab 68 be 6f fc ca 3e aa 5d fe be
       -0.1475623 -0.22721525 0.39645717 -0.49680835
0001a0 a3 0d ce 3d 02 6d 20 bf 6b 19 a6 bd b1 68 8b be
       0.10061195 -0.6266633 -0.08110317 -0.2722831
0001b0 0d 95 84 3b d7 18 71 be a5 0b 9b 3d 04 cd f0 3e
       0.0040460886 -0.23544632 0.075705804 0.47031415
0001c0 3f f6 20 bf 8d 85 21 3e 8e f5 8c be 0c c0 62 3e
       -0.6287574 0.15773602 -0.27531093 0.22143573
0001d0 c1 96 9e 3d 7f 9e b9 bc bf a6 f1 3c e3 56 89 be
       0.07743598 -0.022658585 0.029498456 -0.26824102
0001e0 2c 5a 84 3c a6 4b f4 3c fd a8 c2 3e 31 88 8d 3e
       0.016156279 0.029821228 0.38019553 0.27642968
0001f0 16 e1 87 be 82 aa 93 3e da f6 c9 bd e3 d8 f9 be
       -0.26538914 0.28841025 -0.09861536 -0.48798284
000200 34 7f 10 be ba 98 d8 be 67 4b 97 3d ee 07 c0 bc
       -0.14111024 -0.4230402 0.07387429 -0.023441281
000210 32 23 b1 3e bd 2c 02 be 11 dc 01 3e 29 a3 83 3d
       0.34597164 -0.12712379 0.12681605 0.06427605
000220 5e 17 2e be b1 9e b3 be 70 ed 4c be 27 84 56 be
       -0.17001101 -0.3508201 -0.2001245 -0.2094885
000230 fe ac 11 be c0 a3 24 3e 3e 94 16 3d ca 9c fd bd
       -0.14226148 0.1607809 0.03676247 -0.12383421
000240 71 92 6d bd 72 dd 89 3e e2 1c 5b 3f f2 ea ce 3e
       -0.058000986 0.26926762 0.85590947 0.40413624
000250 d9 96 2e be ed 4e 8c be 83 2b 00 3e 88 3b e8 be
       -0.17049731 -0.27403966 0.12516598 -0.4535792
000260 21 82 09 3f 0b 47 1b bf df a2 9a be a7 b8 f5 3d
       0.53714186 -0.6065528 -0.30202386 0.1199811
000270 93 3c 99 bd a4 d4 49 bd 7f 24 d7 be 94 ae 52 be
       -0.07482257 -0.049275056 -0.42020032 -0.20574409
000280 e7 8c d9 3d 51 f1 2a 3e 5b 8f 98 3e 0d 67 04 bf
       0.10622578 0.16693617 0.29796872 -0.51719743
000290 aa 4f 02 3f 64 ff d2 be 52 fc 1a be ac 8d 68 bf
       0.5090281 -0.41210473 -0.15135315 -0.90841174
0002a0 db d0 b5 be fd a6 aa 3b 9b bc 95 3e 45 9b b7 bc
       -0.35510907 0.005207895 0.29245457 -0.022412905
0002b0 e4 ac e7 3e e2 95 49 be 9f fa ae 3e 0f 94 05 bf
       0.45249093 -0.19686082 0.34175584 -0.52179044
0002c0 0e e7 e2 be 2b 61 1e bf 59 ad bd be 74 59 6c 3e
       -0.44316906 -0.61867017 -0.37046316 0.23080999
0002d0 28 b8 df 3d ef 6e 82 3d 6f 0c bb 3e f8 2c bb 3e
       0.10923797 0.06368815 0.36532924 0.36557746
0002e0 ec 95 f2 bd 51 46 a0 3d 41 e7 84 be 21 71 02 bf
       -0.118450016 0.07825912 -0.25957683 -0.5095387
0002f0 ed 10 9b 3e bc 1b 9c 3e 10 00 98 be 08 22 0a bf
       0.3028635 0.3048991 -0.29687548 -0.5395818
000300 3e 73 03 3e e1 02 aa 3e c3 86 ed 3d 3a 47 0d be
       0.1283693 0.3320532 0.115979694 -0.13796702
000310 2e c4 b3 3e 23 28 8a be 28 2b 2f 3e 26 21 b7 be
       0.3511061 -0.26983747 0.17106307 -0.35767478
000320 88 d0 ac be fe 72 9e 3e 37 ca 5d 3e e1 f8 6d 3e
       -0.33752847 0.30947107 0.2165917 0.23239471
000330 d5 c6 22 be a8 ac d9 bd 94 44 c5 be 55 63 11 3e
       -0.15896161 -0.10628635 -0.38528883 0.14198048
000340 54 b8 0d 3e 92 bd e8 bc a8 ca d0 be b6 f8 b9 bd
       0.13839847 -0.028410707 -0.40779614 -0.09080641
000350 39 cc 5e 3d 15 0a 4d 3d 90 00 c6 bd 11 34 b5 3b
       0.05439398 0.050058443 -0.09668076 0.0055298884
000360 ac 13 9f be 27 c8 d3 bc 24 52 f3 3b 6d eb 38 be
       -0.31069696 -0.025852276 0.0074255634 -0.18058558
000370 f7 f3 3c 3e 31 2e 60 be 59 da a7 be 16 25 91 be
       0.1845244 -0.2189262 -0.32783774 -0.28348607
000380 d6 ae b3 3c 1e fb f6 3e cb b7 de 3e 3a 46 90 3b
       0.021933954 0.48238462 0.43499598 0.004402903
000390 03 66 51 3d d8 29 52 3d 1c 87 9e 3e 9e 16 1b 3d
       0.051122677 0.051309437 0.30962455 0.037863366
0003a0 dc 27 f2 bd cc 07 88 be 2f af 57 be e4 ad f7 be
       -0.11824009 -0.2656845 -0.21062921 -0.48374856
0003b0 39 50 02 3d 38 0e 10 bf 96 d2 b8 be 8a 6f 43 3e
       0.031814788 -0.56271696 -0.36098164 0.19085518
0003c0 a8 89 4a bd 08 74 c6 be 57 db 01 3d 8f d2 ef 3e
       -0.049447685 -0.387604 0.03170332 0.4684033
0003d0 08 9b 94 be 6c 4d 18 be f4 d8 07 3c 63 cd 0e 3e
       -0.2902453 -0.14873284 0.008291472 0.13945536
0003e0 11 a9 52 be 2b cb c4 3d 5d ca 8f bc 38 01 86 bf
       -0.20572306 0.09609064 -0.017552549 -1.0469122
0003f0 2b 32 1a be a9 bd 27 3d 4a ff 55 3e dc eb c8 bc
       -0.150582 0.04095236 0.20898166 -0.024526529

weight f4 [16]
000000 8b 9e 01 40 38 f5 e0 3f 6a d3 05 40 2e 9e cb 3f
       2.0253017 1.7574835 2.0910287 1.5907648
000010 67 d5 e6 3f 23 4c ff 3f 0d 35 03 40 07 20 dc 3f
       1.8033875 1.994511 2.050113 1.7197274
000020 4b d2 27 40 10 a4 1f 40 54 0c 2d 40 61 03 2c 40
       2.6222103 2.4943886 2.7038774 2.6877062
000030 a6 88 39 40 bd 82 44 40 9a 87 27 40 71 89 23 40
       2.8989654 3.0704796 2.6176515 2.5552638

bias f4 [16]
000000 c6 c2 b8 bd 16 72 6c be 54 90 c2 3e db d3 4b 3d
       -0.09021525 -0.23090395 0.3800074 0.049762588
000010 97 8e c7 be ca ad d3 bd 7c 2d a7 3e 98 6d 30 be
       -0.38975975 -0.10335882 0.3265189 -0.17229307
000020 ce d9 1f 3d 20 76 7a 3e db 95 f2 3e d4 bd 6e 3d
       0.039026074 0.24459124 0.47379956 0.058286503
000030 f5 0f ab 3e 84 81 7f 3d de 63 ea 3e 3d b9 54 3e
       0.33410612 0.062379375 0.45779318 0.20773788

running_mean f4 [16]
000000 21 ef 4a bf 9e c9 40 bf 09 d1 96 bf b0 fc 31 bf
       -0.7927113 -0.75307643 -1.1782542 -0.69526196
000010 d3 0a cf bf 41 8e 81 bf 22 9e f5 bf 62 f5 0b bf
       -1.6175178 -1.0121537 -1.9188883 -0.546713
000020 2f 1d 4e be ad e6 05 bf 98 00 0f bf 27 00 d9 bd
       -0.2012832 -0.5230511 -0.5586028 -0.10595732
000030 eb 09 e5 be 00 3f eb be c5 25 e8 be 78 a6 15 be
       -0.4473413 -0.45946503 -0.45341316 -0.14614284

running_var f4 [16]
000000 24 42 38 40 fe 93 a7 3f ed 42 59 40 e4 a5 2b 40
       2.879037 1.3092039 3.3947098 2.6820002
000010 c4 af 3b 40 34 f2 5a 40 5c 34 06 40 5d 62 94 3f
       2.932603 3.421033 2.0969458 1.1592518
000020 36 fe 79 3f a2 ba 6c 3f 0a 6d ee 3f 92 1c 64 3f
       0.9765352 0.9247228 1.8627026 0.89106095
000030 f8 1f b0 3f b0 c2 be 3f 73 28 e8 3f df db a6 3f
       1.3759756 1.4903164 1.8137344 1.3035849

weight f4 [64, 96]
000000 63 21 b6 3c 94 e6 3e 3d 04 13 a7 bd ef 53 a3 bd
       0.022232717 0.046606615 -0.08157924 -0.079749934
000010 9f 4f 2f 3d 95 76 98 bd 47 11 fa 3c ce 13 f2 3c
       0.042800542 -0.07444493 0.030525817 0.02955046
000020 bd a7 aa bd 10 30 2a 3d 39 98 42 3d ef 12 a2 3d
       -0.08332775 0.041549742 0.047508452 0.079137675
000030 c9 8f b8 3d 91 d4 22 bc 39 cd 18 3d b8 d0 a1 3c
       0.090118 -0.009938375 0.03730509 0.019752845
000040 77 20 8d 3c 4c 12 37 bb e5 51 9f bd b8 ab 2d 3d
       0.017227395 -0.002793449 -0.07779292 0.042400092
000050 13 72 8a bd ec 71 15 bd 47 16 4c 3d 64 f7 23 bb
       -0.06760039 -0.036485597 0.049825933 -0.0025019282
000060 34 da 96 bd f1 7e 66 3d 62 37 d1 3c 27 bd 8e bd
       -0.07365838 0.056273405 0.025539104 -0.06969672
000070 0e bc 8b 3d a9 11 82 3d c6 86 d5 3d 09 1c 61 3c
       0.06822978 0.06351025 0.104260966 0.013739594
000080 0e d3 a5 3c 27 3f a8 3c 47 cd 96 bd b5 21 65 bb
       0.02024224 0.020537926 -0.07363372 -0.0034962718
000090 b3 24 2e 3d ab 5f f2 bc 04 1f 77 3c 43 4e 47 3d
       0.042515468 -0.029586634 0.015083078 0.04865862
0000a0 ef 4b 28 bd 91 01 b1 bd d6 27 2a 3d ae 4b 84 bc
       -0.04108804 -0.08642877 0.041541897 -0.016149368
0000b0 2f 8a d9 3c af 67 73 3d ec 55 7a bd e1 4e 1c 3d
       0.026555149 0.059425052 -0.061117098 0.038161162
0000c0 e0 12 44 3d 35 34 06 3d c1 a2 54 3c b2 77 80 bc
       0.047869563 0.032764632 0.012978257 -0.015682075
0000d0 72 56 b6 bd 0f f3 a5 bd d2 04 b3 3d b5 32 1d 3d
       -0.08903207 -0.081030004 0.08741154 0.038378436
0000e0 89 e5 19 bd 53 5f 32 bd 6f 99 99 3d 8e 42 12 bd
       -0.037572417 -0.04354794 0.07499968 -0.035708003
0000f0 f6 fe 9d bd 3b e4 a2 3d a2 9e e1 3d 9b 22 64 bc
       -0.077146456 0.07953688 0.11016585 -0.013924266
000100 6d 0d a7 bc 85 a1 e2 3d 1b 14 bf bd e8 b8 cc bc
       -0.020392144 0.11065964 -0.09330007 -0.024990514
000110 56 2f a1 3d 93 4e ab bc fc c5 a2 bd ac 46 5d bd
       0.07870357 -0.02091149 -0.07947919 -0.054022476
000120 d2 65 fe 3c ef 05 34 3d 47 e4 16 bd 04 f6 3f bd
       0.031054411 0.04395097 -0.036838796 -0.04686548
000130 38 ad 36 bd 66 6c 5c bd cc b2 ab ba c0 38 2d 3d
       -0.044598788 -0.053814314 -0.001309955 0.04229045
000140 9d 5d 0f 3d a2 6e 8e 3d 34 45 ab bd 64 ff 77 3c
       0.035001386 0.06954695 -0.08362809 0.015136573
000150 4d 4e 23 bd 6a c2 c5 bd 98 db 0a 3c 0b 13 6f bd
       -0.039869595 -0.09656222 0.008475207 -0.05836777
000160 c1 9c a6 3d 79 c5 b8 bd de da 4c bd 7d e0 d1 3c
       0.08135367 -0.0902204 -0.050013416 0.02561974
000170 29 ae 52 bd ca 8e 87 3d 9d 0f 59 3c 90 bb 75 bc
       -0.051435623 0.06619032 0.013248351 -0.014998332
000180 ba 1e 9c 3b 9c 55 91 3e ec 18 5e bd 8d 3f 48 be
       0.004764405 0.28385627 -0.054222986 -0.19555493
000190 76 e8 24 bd 7f 9a 09 3e 6d 7a 92 3d 17 24 28 bd
       -0.040260755 0.13437842 0.07152257 -0.041050043
0001a0 5b c1 aa 3e a0 0c 22 bd 7d f6 37 3d 0d 62 c5 3d
       0.33350644 -0.03956282 0.044912804 0.09637842
0001b0 0b b1 7b bd 33 c1 0b bd 08 f6 c1 3d a3 66 ad be
       -0.06144814 -0.034119796 0.09470755 -0.33867368
0001c0 2c 20 33 be 86 50 66 3e 7b 3c 28 be 1a 2c c1 bd
       -0.17492741 0.22491655 -0.16429321 -0.0943224
0001d0 28 5f e2 3d 67 5b 0f bc 77 23 52 3e 19 a5 fb 3d
       0.11053306 -0.008749819 0.20521341 0.12287349
0001e0 6e fc 8e 3d 52 da e3 bb 49 1d 10 bd 0d 0a 9d bd
       0.06981741 -0.006953516 -0.03518418 -0.07667933
0001f0 92 a5 a1 be cb 20 5b be f2 b7 75 be 15 e3 58 bd
       -0.31571633 -0.21399228 -0.23995951 -0.052950937
000200 2f 8c da be 29 cb 0d be aa 01 76 be 21 04 27 3c
       -0.42685077 -0.1384703 -0.24024072 0.0101938555
000210 e9 5f 14 be 62 61 9e be 77 aa bc be 58 85 0b be
       -0.14489712 -0.30933672 -0.36848804 -0.13625085
000220 83 a7 b8 bd e1 73 34 be 32 04 6d 3d 6f 5c 1b 3d
       -0.09016325 -0.1762233 0.05786533 0.03792995
000230 b4 b7 04 3d 9a a1 ed 3d ba 11 8f be 44 6d 33 bd
       0.032401755 0.11603089 -0.27943212 -0.043805376
000240 77 f2 9c 3d 99 c7 08 3e 78 ff 27 3d ce 21 10 3e
       0.07663434 0.1335739 0.04101512 0.14075395
000250 b5 1e 6f be 84 6b ab 3c c0 d3 db 3d 39 80 1e 3e
       -0.23351558 0.02092529 0.107337475 0.154786
000260 f0 37 d6 3b f7 c1 bf bd f0 8b 63 3d 02 af 88 3d
       0.00653743 -0.09363168 0.055553377 0.06674005
000270 54 f4 58 3e de 8d 85 3d 59 67 a3 be 0d 96 de bd
       0.21186954 0.065212 -0.31914786 -0.10868464
000280 4e 26 42 be a1 cd d2 be 8e 12 dd bd 08 3f 45 bd
       -0.18959925 -0.41172507 -0.10794555 -0.048155814
000290 4e 99 87 bc b1 2e 54 be 15 bb 8c 3e f9 45 c5 3e
       -0.016552594 -0.20720936 0.27486482 0.38529947
0002a0 24 21 b3 bd 21 24 ba 3e 12 85 d4 3d 8c 4c f0 3e
       -0.087465554 0.3635569 0.10376944 0.469334
0002b0 9b f0 84 3e 0f f9 04 3e fd 77 89 3e 1f c0 f8 3d
       0.25964817 0.12985633 0.26849356 0.12146019
0002c0 d0 4f 8e 3e e8 c9 8c bd 22 02 03 3e ef e0 ab 3e
       0.27795267 -0.06874448 0.12793782 0.33570048
0002d0 73 13 8e 3c 1e 67 38 3e fb 9e 6f 3c 78 71 24 3d
       0.017343258 0.18008086 0.014625306 0.040147275
0002e0 73 06 3f 3e 45 84 2a 3e 77 01 5a 3e 5e 2b 26 3e
       0.18654804 0.1665202 0.21289621 0.16227481
0002f0 f2 6d 97 bd e7 53 5d 3d 19 c8 de 3d df ce 9d 3e
       -0.07394017 0.054035094 0.10878009 0.30821893
000300 9d 18 7f bd 02 a8 93 3d a9 21 9e bd 81 4f 53 3c
       -0.062279332 0.07209779 -0.07721264 0.012897373
000310 dc 22 e3 bd c0 d0 95 bc ea d3 aa bc d6 d9 85 3d
       -0.11090633 -0.018288016 -0.020853002 0.065356895
000320 09 73 82 3d e0 5f ef 3d 25 e8 bd 3d 1e 20 98 bd
       0.063695975 0.116882086 0.09272794 -0.07428001
000330 9b e2 9a bb 36 d4 92 bd 1d ee 70 bc 5d 39 d5 bd
       -0.0047267205 -0.07169382 -0.014705208 -0.10411332
000340 cd 67 7f 3c db c1 c7 bb 28 a6 80 bd 83 db ff bb
       0.015588713 -0.0060961074 -0.06281692 -0.0078081503
000350 b7 b5 3e 3d 0f 3f 69 bd 78 77 01 3e 90 09 81 bd
       0.046560016 -0.056944903 0.1264323 -0.06300652
000360 4e 47 9f 3d fc d7 87 bd 15 c0 b4 3d 1a 99 c9 3c
       0.07777272 -0.066329926 0.08825699 0.024609137
000370 d9 16 0d bd 8d ef 01 bd 90 f9 93 bc 4d ec 2f bd
       -0.034445617 -0.031722594 -0.018063337 -0.042949963
000380 d1 7b 03 bd 59 cc 69 3d 5c 4c 20 bc c8 f2 02 bd
       -0.032100502 0.057079647 -0.0097838305 -0.031969815
000390 1e 04 ca 3d 94 65 db bd ed 96 8a 3c 2d a0 8f 3d
       0.098640665 -0.10712734 0.01691767 0.07012973
0003a0 0d f8 bf bc 6c 3c b2 bd 94 5d ac bd da cf 7a bc
       -0.02343371 -0.08702931 -0.08416286 -0.015308345
0003b0 cf d1 3a bd ac 9b 6a 3c 54 bb c1 3b a1 4d 86 3d
       -0.045610245 0.014319342 0.005912224 0.06557775
0003c0 a2 7e 36 bc 67 6c 04 3d c3 3a 9f bd 0f 1c 10 bd
       -0.01113859 0.032329943 -0.0777488 -0.03518301
0003d0 cf a3 04 3c 6d dc c7 bb 70 ad 0e bc fa cf ca bd
       0.008095696 -0.006099275 -0.008708343 -0.0990295
0003e0 1a 12 b9 3c fc 71 9d bd e3 9b 33 bd 4f 7e ab 3d
       0.02259164 -0.076877564 -0.043849837 0.08373701
0003f0 36 a9 8c 3d 1a 4f 1e 3d 2c 0f 58 bd 00 ce 9a 3d
       0.06868212 0.038649656 -0.052748844 0.07558823

bias f4 [64]
000000 b9 c5 78 3d c0 a3 44 3e ba be 42 3d f6 d0 fb 3d
       0.060735438 0.1920309 0.047545172 0.122957155
000010 aa 2a 7f bd 98 78 5a bc de d1 74 3c 08 91 5b 3d
       -0.062296547 -0.013334416 0.014942614 0.05360511
000020 3d a8 ce 3d c7 51 eb 3c e4 02 a8 bd e1 ee 42 b8
       0.10090683 0.028725518 -0.08203676 -4.6475678e-05
000030 94 01 4b 3d 2c 4f f9 3d 09 25 9a bd 54 fd c1 3d
       0.049562052 0.12173304 -0.07526595 0.09472147
000040 8b 49 45 bc ab 17 ac 3d 1a 7f 40 bd c3 2c 94 3e
       -0.01204146 0.08402952 -0.046996213 0.289404
000050 3a 95 b4 3d 5a aa 18 3d 59 7b 52 3c bf 49 73 3d
       0.08817525 0.037271835 0.012846791 0.0593965
000060 0a 7c 97 3c 9d ea 08 3e e8 6b 44 3e d0 24 08 3b
       0.018491764 0.13370748 0.19181788 0.0020773895
000070 e7 86 b9 bc b6 1f b5 3d 69 59 8f bd 85 5f 03 3e
       -0.022647334 0.08843939 -0.069994755 0.12829407
000080 93 d6 41 3c 3d 4d b3 bd f3 1f cb 3d 8d a7 ce 3d
       0.011830944 -0.087549664 0.09918203 0.100905515
000090 d7 8d da 3d 85 9c eb bc 5d d4 41 3d 74 b4 9e 3d
       0.10671585 -0.028761158 0.047321666 0.077492625
0000a0 e3 36 84 3d a6 ca 2f 3d 3d b0 cc 3d 0e 5e 6e bb
       0.06455781 0.04291787 0.09994552 -0.003637198
0000b0 be 0a 02 3e 99 90 3a 3c fe 67 b5 bd 46 09 91 3d
       0.1269941 0.011387014 -0.088577256 0.07081847
0000c0 ad e6 b2 bc ef 42 ae bb 4e bf a0 3b d9 0e 57 3e
       -0.02183851 -0.0053180377 0.004905618 0.21001758
0000d0 1a 34 e9 3b 62 47 78 bd 27 63 92 bd ae 26 17 3e
       0.0071168067 -0.06061495 -0.07147818 0.14760849
0000e0 09 d0 4a bd 68 37 0a 3c 9b 67 70 bd 01 69 1c bd
       -0.049514804 0.008436061 -0.058692556 -0.038186077
0000f0 e3 05 9c 3d 78 38 ea 3c 1b bd ad 3d e3 d7 8a bc
       0.0761831 0.02859138 0.08483335 -0.016948646

weight f4 [1, 64]
000000 08 53 8f 3d 46 00 ac bf 4f 4e a9 bd 37 86 b1 be
       0.06998259 -1.3437583 -0.08266889 -0.3467271
000010 01 f8 2e be ad 0a 83 bd 20 2c d5 bd 18 25 50 3f
       -0.17086793 -0.063985206 -0.10408807 0.813066
000020 04 a8 ef bd fa bb 26 be 69 38 b5 3d 2c db 37 be
       -0.11701968 -0.16282645 0.0884865 -0.17954701
000030 ad 94 28 bf ec 8f 5b bf d7 8d b8 3d 33 b9 42 3d
       -0.6585186 -0.8576648 0.09011429 0.0475399
000040 4a b0 a4 bd 6d fe 62 3f 73 ef 35 3e 37 b8 d6 3f
       -0.08041437 0.8866947 0.17767124 1.6774968
000050 9f 65 02 3d ed 64 13 3e e1 1e 83 3e 7c 89 57 3f
       0.031835195 0.14393969 0.25609496 0.8419416
000060 c4 fa 8d be 56 57 95 bf b4 12 d6 3f 6d f5 04 be
       -0.2773038 -1.1667278 1.6724458 -0.12984248
000070 d8 b4 02 be 00 76 36 3c 62 d8 4d bd 8c 1d 96 be
       -0.12764299 0.011136532 -0.050255187 -0.29319417
000080 d7 97 8d 3d 6f 14 ef 3d 7e ee 91 be 4d 1f 73 be
       0.06913727 0.11673819 -0.28502268 -0.23742409
000090 ba c6 0b bf 1a fa 27 bf 46 32 33 be cb 4a 09 bf
       -0.5460011 -0.65616 -0.17499647 -0.5362975
0000a0 6e e6 cb bd b7 18 34 3d 59 bc 4e bf 6b 54 97 bd
       -0.0995606 0.043968882 -0.80756146 -0.07389148
0000b0 90 01 7e be 20 62 1b 3f 25 bf dc bc cc bb 73 bf
       -0.24805284 0.606966 -0.026946614 -0.9520843
0000c0 28 6e 99 bd 92 1e a1 bd 02 b3 2a 3e c5 4e aa 3f
       -0.07491714 -0.07867159 0.16669849 1.3305289
0000d0 dd c9 16 3f b9 c0 ae bc 61 95 06 be 47 d2 83 3f
       0.5890177 -0.021332132 -0.13142921 1.0298547
0000e0 fb 31 18 be 3b 68 85 3d 92 ae 4f 3d 4c 1e 9c bd
       -0.14862816 0.06514021 0.050703593 -0.07622966
0000f0 38 d1 1f bf 0f 9c 22 be 14 d8 da 3d 4c a1 09 bf
       -0.6242862 -0.15879844 0.10685745 -0.53761744

weight f4 [64, 96]
000000 c5 28 a2 3d 1f 9f 3a be bd e3 44 3d 39 5d 45 3d
       0.079179324 -0.18224762 0.04806875 0.048184607
000010 ac 11 83 bc 1f 91 c9 bd 2e 29 67 3e bf 8a 77 3d
       -0.015999638 -0.09842133 0.22574303 0.060435053
000020 90 65 c4 3d 94 43 3e bd 63 6a 88 bd b5 5b 9f 3d
       0.09589684 -0.046451166 -0.06660917 0.077811636
000030 7e 88 1c be b3 28 f4 bd 89 ee 3f be 11 fa 1b 3e
       -0.15286443 -0.11921825 -0.18743338 0.15232112
000040 53 48 49 3d 41 de 6b 3b 46 5e a2 bd 6f f4 07 3e
       0.04914124 0.0035990628 -0.079281375 0.13276838
000050 fa 16 68 bd cc f7 21 3e ea c3 2b 3e 48 b7 4e 3d
       -0.056662537 0.15817183 0.16773954 0.05046776
000060 16 93 2c 3e f7 17 35 be 9f bd 07 3e 3b 3c bd 3d
       0.16852984 -0.17684923 0.13255928 0.09240004
000070 c8 e4 60 be ae 2e 77 be 6c e3 95 3e 8d 00 c3 3d
       -0.21962273 -0.241389 0.29275072 0.095215894
000080 1d 7f 58 3d 81 04 99 3c 6f 6b 93 be 38 bc de 3d
       0.0528556 0.018678905 -0.28792903 0.10875744
000090 ce 45 ae bc 02 83 3e bd 22 bb 0d 3e 56 a2 24 3e
       -0.02127352 -0.046511658 0.13840917 0.16077551
0000a0 4a e5 91 bc e9 e0 85 3d 53 82 2c 3e 66 48 6b 3c
       -0.017809529 0.06537039 0.1684659 0.014360523
0000b0 20 c8 b1 3d e8 59 b9 3d 04 5d 92 3d b4 1b 18 3d
       0.08680749 0.090503514 0.071466476 0.037135795
0000c0 e7 ba d6 bc 39 e3 40 bd 39 bd 9a bd ff 4c 41 be
       -0.026212169 -0.047091696 -0.075556226 -0.18877028
0000d0 b7 40 ae bd 40 9a e3 3d 01 38 81 3e 07 27 ca 3e
       -0.08508437 0.11113405 0.2523804 0.394829
0000e0 e8 2c 91 bd a9 15 99 bd db 03 53 3e 2d 44 ab bd
       -0.07088643 -0.074748345 0.2060694 -0.08362613
0000f0 83 5f 1e be 11 ad cf 3d 6e eb 07 3d e4 5d f6 bd
       -0.15466122 0.10140432 0.033183508 -0.12029627
000100 84 d4 54 3e a3 13 3e bd c3 cb 27 bd 96 0a 68 3d
       0.20784193 -0.046405446 -0.040965807 0.05665072
000110 11 ef 39 3e 19 86 12 3e 50 9c 2b 3e 24 71 4c bc
       0.18157603 0.14308967 0.16758847 -0.012478147
000120 d7 a5 6b 3d a1 0f 17 3e 5a 09 59 3e 20 f8 f2 bd
       0.057531204 0.14752056 0.21194974 -0.11863732
000130 bf 0b 11 3e 80 d4 3c 3d 0b fc 7b bd f5 80 a8 3e
       0.14164637 0.046101093 -0.061519664 0.32910886
000140 ae 50 86 ba 4f b8 13 be 86 48 15 be 48 86 f6 ba
       -0.0010247433 -0.14425777 -0.14578447 -0.001880833
000150 a4 1f ae bc cc 19 1a 3d cb ff f5 3c d7 b9 cf bd
       -0.021255322 0.037622258 0.030029198 -0.10142868
000160 b8 ac e7 bd 80 6c c8 3d 6f fb 9f 3d 4a 0a 8a 3e
       -0.1131224 0.0978632 0.07811629 0.26960975
000170 c9 1f 8c 3e 71 61 88 3e 2c 9e 38 3e bf 4a 3f bc
       0.27368 0.26636842 0.18029088 -0.011675536
000180 a7 72 42 bc 24 18 aa 3d 02 44 62 bc ef 61 09 3d
       -0.011868156 0.08305386 -0.01381016 0.033540662
000190 50 18 e7 3c 6c 1f cf bc 25 69 9d 3d 21 7b 24 3e
       0.028209835 -0.025283538 0.0768607 0.16062595
0001a0 64 01 26 3e ec b0 ab 3d 69 f2 7a 3e 43 78 31 bd
       0.16211468 0.083833545 0.24506535 -0.04332758
0001b0 a8 b1 b0 3d c0 ad be bd a2 30 a4 bc 7f 78 9c 3c
       0.08627635 -0.09310484 -0.020042721 0.019100426
0001c0 af 5c c4 bc 9a c4 69 3e a7 48 83 bd 68 85 00 bd
       -0.023969976 0.22828904 -0.06410342 -0.031377226
0001d0 db c8 96 3d 3d 7e dd bd c2 bb 89 3d 10 e4 a4 3c
       0.07362529 -0.10815094 0.06725265 0.02012828
0001e0 cd 5e 7c 3d 4a a3 9b 3c fb 56 2e 3d 2d 1c 79 3d
       0.061613847 0.01899876 0.04256342 0.060817886
0001f0 72 3f f4 3d be 85 45 3c 17 0c 9b bb 28 ba b2 bd
       0.11926164 0.012055812 -0.004731666 -0.08726913
000200 73 9b ab 3d 89 8c cd 3d fa 58 32 bb b0 81 b5 bd
       0.08379259 0.100365706 -0.0027213679 -0.088626266
000210 a3 b6 39 3d 0f 38 1e bd e1 ec 2e bc 46 ba 96 3d
       0.04534019 -0.03862768 -0.0106765935 0.073597476
000220 01 85 b4 bc c1 49 15 bd 5a ea 03 bd 2f b2 18 3c
       -0.022036077 -0.03644729 -0.032205917 0.009319826
000230 16 7d a4 bd e0 4f 1d 3d 82 0b 95 3c 66 f8 a9 bd
       -0.08031671 0.038406253 0.018193964 -0.08299331
000240 45 ea 71 3d 27 ae 8f bc f5 ef 4e bd 25 0d 07 3e
       0.059061307 -0.017539097 -0.05052181 0.13188608
000250 68 6f 9d 3d a0 7d f6 3c 33 78 82 3c 00 ed 17 3e
       0.07687265 0.0300892 0.015926456 0.14836502
000260 a5 77 89 bc 37 68 a4 3d 35 5f 81 bd 62 10 39 be
       -0.016780684 0.0802769 -0.063169874 -0.18072656
000270 e1 05 4c 3d 99 4b a8 3b e2 44 f5 bd c0 b3 8a 3d
       0.049810294 0.005135965 -0.11976029 0.06772566
000280 b5 49 4a bd 4c 77 23 3e 9c 44 03 3e d4 8d 20 bd
       -0.0493867 0.15963477 0.12819141 -0.039197758
000290 be 8f a0 3d 0f 7c 54 bd 98 9b fd 3d 80 04 24 bd
       0.07839917 -0.051876124 0.12383193 -0.040043354
0002a0 80 1f 62 3c 13 c0 5d bd 77 27 6f 3d 1b 8b 2d 3e
       0.0138014555 -0.054138254 0.058387246 0.16947596
0002b0 30 9d 1a be 76 f7 8f bb 5f 73 5d 3d b8 7f b7 bd
       -0.15099025 -0.0043935133 0.054065105 -0.08959907
0002c0 6c ba 64 3d d9 ef c3 3d a2 d7 8a bd da 53 7f 3d
       0.05584185 0.09567232 -0.0677941 0.062335826
0002d0 a2 f5 fa 3a 58 1c d5 3d 24 9a ad bd 93 3e bb bd
       0.0019146691 0.10405797 -0.084766656 -0.091427945
0002e0 69 db a3 bd d6 b6 df 3d bd 9e 88 bb 18 fa 82 3d
       -0.080008335 0.10923545 -0.0041693137 0.06395358
0002f0 c5 22 77 bd 2b 4b 59 3c b3 4d a6 bc d2 7d 95 3d
       -0.060335893 0.01326255 -0.020300722 0.07299389
000300 77 49 2e bd 0f 07 b5 3c 1b 0e 66 bd 67 16 23 3d
       -0.04255053 0.022098092 -0.056165796 0.039816286
000310 dd 88 7c bd 9a 27 03 3e dc 79 6d 3c 65 8a 46 3e
       -0.06165396 0.12808076 0.014494386 0.19388731
000320 76 df 86 3e 72 15 e9 be b7 88 3c 3e 8c d5 1e 3e
       0.26342362 -0.45524174 0.18411528 0.15511149
000330 df 14 d4 be fd ba 6e be 22 95 d5 bd df de 48 3e
       -0.41422173 -0.23313518 -0.104288355 0.19616269
000340 fc b0 08 be 1c b8 66 bd ed de 53 bd 92 12 80 3e
       -0.13348764 -0.056327924 -0.05172627 0.25014168
000350 0c ca 0d 3c ce 10 8f 3b 56 73 cf 3d 40 a8 98 bd
       0.008654129 0.004366017 0.101294205 -0.07453966
000360 8a 3a f0 3d 90 87 97 bd db 84 5a 3e a5 00 5d 3d
       0.117299154 -0.07398903 0.21339743 0.053955693
000370 60 ab 85 be f6 59 85 be 8c e2 5f 3e 18 5a bd 3d
       -0.2610731 -0.26045197 0.21863765 0.092457
000380 61 89 38 3e 7d c6 78 be 0b 33 5f be 97 b9 35 bd
       0.18021156 -0.24294467 -0.21796815 -0.044366445
000390 ca 56 2c be f2 c2 0a bc a7 06 27 3e 52 4d 43 3e
       -0.16829982 -0.00846933 0.16311131 0.19072464
0003a0 07 f4 09 3d f9 0f f3 bd 88 6e 80 3e eb 5a 48 bd
       0.03367999 -0.11868281 0.2508433 -0.04891483
0003b0 22 fd 0f 3d 21 cd 6a 3e 07 16 c1 be 70 55 99 3d
       0.035153516 0.22929813 -0.37712118 0.07486999
0003c0 36 fd ce bc 3f 53 bf 3d be a1 50 3e ec c5 ab 3c
       -0.025267225 0.0934205 0.203742 0.0209684
0003d0 3b 0c 17 bd ac 67 2a bd f0 9b d7 3e a1 33 f1 3d
       -0.0368769 -0.041602775 0.42111158 0.117774256
0003e0 43 c8 4e 3e 16 1c 0e 3d 66 0d 43 be b4 7d 28 3e
       0.20193581 0.034694754 -0.1904808 0.16454202
0003f0 e6 59 1e be da 13 20 be 88 e3 29 3e f5 c0 94 be
       -0.15463981 -0.15632573 0.16590703 -0.29053465

bias f4 [64]
000000 9f 2d f3 3d 31 62 d0 bc e0 28 f9 bb 26 cc d8 bc
       0.11873936 -0.025437446 -0.0076037496 -0.026464533
000010 fb 78 e5 3b 5e 11 8a 3d 36 a6 9e bd c8 71 7b bc
       0.0070029474 0.06741594 -0.07746546 -0.015346952
000020 65 9d 51 3d 51 ee fb bd 67 2a 01 3e 56 c8 56 3d
       0.051175494 -0.123013146 0.12613831 0.05243715
000030 7f b3 d1 3d b9 88 2d bc 6c 50 8d 3a a9 49 1e bc
       0.10239314 -0.010591679 0.0010781414 -0.009661117
000040 86 3a 26 bc cc dc 35 bc dd a4 c9 3d 02 44 91 bd
       -0.010145789 -0.011100005 0.09845898 -0.070930496
000050 a5 6d ac bd 30 aa 35 bc c9 cb d1 3c 67 b7 a0 bc
       -0.084193505 -0.011087939 0.025609868 -0.019618703
000060 ae 65 dc 3d cf bb 9b bd cb f3 c4 bd 7c 44 8e 3a
       0.10761581 -0.07604181 -0.09616812 0.001085415
000070 3b 85 c1 bd 89 1e 0f bd cb 35 57 bd b8 b0 a2 3d
       -0.0944924 -0.03494123 -0.052541535 0.07943863
000080 fa 4b e3 3d e1 07 6a 3d 0b e0 ce bd 47 a3 b7 bc
       0.11098476 0.05713642 -0.101013266 -0.022416724
000090 4c 66 9b 3b 82 11 96 3d bc 85 93 3d 40 50 2d 3e
       0.0047424193 0.07327558 0.07203242 0.16925144
0000a0 6b 9d d7 3d ae 5b e2 bd 39 df 5b bd 82 49 22 bd
       0.10528072 -0.11052643 -0.05367968 -0.039620884
0000b0 ff bf 95 3d 8e 0a 98 3d ce 47 a5 3b bc 25 d0 3d
       0.07312011 0.07423888 0.00504396 0.10163447
0000c0 45 82 b7 bc be 33 16 3d 30 97 78 3d 70 d2 4a 3d
       -0.022400985 0.03667044 0.06069106 0.049517095
0000d0 1a ab a9 bd e4 01 18 bc 7a ef ef bc 53 db 0d 3d
       -0.08284588 -0.0092777945 -0.029288996 0.034632992
0000e0 60 6c 75 3d 3b 81 0d bc 57 4a 9c 3b 4f 95 22 3d
       0.059917808 -0.008636768 0.004769604 0.039693173
0000f0 51 af 13 bd cd 3e 98 3d f2 6d 34 3d 20 7d 4e 3e
       -0.036055867 0.07433853 0.044050165 0.20164919
