flask/trained_models/20/doom-model.pth (torch, 106629 bytes, 27 tensors)

weight f4 [8, 1, 3, 3]
10.767794 2.402379 0.84882474 -4.755625 -2.6538904 -17.995861 -8.703277 13.272886
2.6775937 0.4659604 -2.5076776 0.90728605 -5.372803 -1.2015514 -1.3144201 -5.2852483
16.712484 0.09155675 6.684284 9.290105 0.48860478 -13.696405 -3.8287127 -1.9111518
-16.873554 2.2274706 3.2012734 -4.9193907 -0.20104583 9.933102 -2.509598 -18.726086
2.9563234 12.319254 -9.012441 -4.156357 -6.2145715 -2.7816353 -3.5432103 -12.063128
2.0092747 13.463533 -3.27746 5.413335 -5.3992033 5.2535615 10.327301 -4.736737
-11.543876 -4.603165 -4.8868194 3.5788167 -5.4766006 -4.032556 -1.405633 5.835846
2.9852862 7.4973845 3.9474397 -3.2734563 2.6164374 -2.6367283 -4.4628243 -1.9603268
-7.143234 -4.7980595 -6.771481 -11.188591 -6.064162 7.23262 6.801737 2.6002579
00000000: e248 2c41 94c0 1940 944c 593f 142e 98c0
00000010: 57d9 29c0 86f7 8fc1 9f40 0bc1 be5d 5441
00000020: b25d 2b40 5d92 ee3e ca7d 20c0 e643 683f
00000030: 01ee abc0 70cc 99bf eb3e a8bf c120 a9c0
00000040: 2bb3 8541 1b82 bb3d a8e5 d540 45a4 1441
00000050: 682a fa3e 7a24 5bc1 a109 75c0 9fa0 f4bf
00000060: 0afd 86c1 e18e 0e40 aae1 4c40 a66b 9dc0
00000070: f5de 4dbe fced 1e41 419d 20c0 06cf 95c1
00000080: 6734 3d40 aa1b 4541 f532 10c1 e000 85c0
00000090: c5dd c6c0 5006 32c0 f5c3 62c0 9302 41c1
000000a0: f597 0040 a26a 5741 e8c1 51c0 0a3a ad40
000000b0: 46c6 acc0 2d1d a840 a03c 2541 5993 97c0
000000c0: b7b3 38c1 214d 93c0 d360 9cc0 550b 6540
000000d0: 5040 afc0 b30a 81c0 c8eb b3bf 40bf ba40
000000e0: ee0e 3f40 93ea ef40 daa2 7c40 4f80 51c0
000000f0: b673 2740 28c0 28c0 75cf 8ec0 fdeb fabf
00000100: 5f95 e4c0 b489 99c0 f9af d8c0 7804 33c1
00000110: 9d0d c2c0 9f71 e740 d4a7 d940 a06a 2640

weight f4 [8]
12.272893 7.8207912 15.316639 13.140218 8.647349 15.210841 7.5531945 14.074203
00000000: c55d 4441 ec43 fa40 f410 7541 553e 5241
00000010: 8b5b 0a41 9b5f 7341 c5b3 f140 ef2f 6141

bias f4 [8]
-5.289107 -0.93627876 2.1225135 7.004475 2.5737922 -1.6169723 -0.5580799 -1.6599503
00000000: 5d40 a9c0 f7af 6fbf 43d7 0740 a924 e040
00000010: 03b9 2440 f3f8 cebf 53de 0ebf 4079 d4bf

running_mean f4 [8]
-0.51724505 0.45736638 -2.2153926 -1.92306 -1.7543906 -2.3836553 1.3974007 -2.8717332
00000000: 2c6a 04bf ed2b ea3e fec8 0dc0 d526 f6bf
00000010: df8f e0bf cf8d 18c0 07de b23f 7aca 37c0

running_var f4 [8]
0.45823652 0.3760531 2.0239577 1.2882034 0.87057185 1.5649055 0.5488978 2.0426211
00000000: fa9d ea3e 088a c03e 8688 0140 d9e3 a43f
00000010: ccdd 5e3f d34e c83f 9184 0c3f 4eba 0240

weight f4 [8, 8, 3, 3]
3.53885 -0.05040838 -0.38762146 -1.4941752 -4.4819417 2.7347534 2.0661964 3.8540745
1.8148559 -5.0490103 0.089061126 2.556397 -2.493312 -1.73352 0.47620377 -2.7916713
-1.8177594 -1.5183167 6.152413 -4.4005413 -6.4677215 5.239414 4.9667826 4.5754337
-1.9592284 -2.48519 0.18014832 -7.605341 -0.059408717 0.9725127 5.4269176 3.772234
-5.761856 -3.7230337 0.83301914 -3.8421464 -4.257931 1.6822748 -0.3123083 0.47201675
-2.564163 -3.0223784 0.35277742 -2.460469 -1.2374365 2.7847161 -11.577583 0.056823626
2.562739 5.3142066 1.405771 -3.753067 0.22957289 4.6845427 -2.1631367 -1.4404168
-2.1055775 -4.1118164 -1.9721477 -1.1702538 -3.237738 1.6670245 -4.7575526 -1.5401111
6.5355363 2.3602695 -5.5621204 -3.1503885 -0.9765484 1.0927203 2.1812232 -0.5918236
1.07704 0.18641181 -1.2634449 3.6714237 -7.466426 1.9954407 -8.484723 0.50962144
-0.23019052 -2.5384367 -1.1182603 -3.9033546 1.8650608 -2.397579 -4.048852 -6.055409
1.4574221 -5.912745 -3.1432202 -5.871483 -0.22679435 4.5020633 -8.3013735 3.6017532
-0.9499513 8.274038 -4.4672904 3.382802 -1.320319 -5.3548374 0.23715599 3.0996196
-3.8715372 7.123683 -9.340337 6.750661 3.7906451 -1.6998503 -3.4771237 1.6579914
-5.414961 1.4166707 0.37201023 0.7949873 -2.8690896 -6.7055693 1.748285 -3.831449
1.8833938 -2.37877 2.5295308 4.5962014 -3.0998077 -5.500707 -4.4615903 -2.241474
2.0393689 -1.9897213 -2.1151102 3.341573 1.412078 -6.998479 -1.3185209 -1.0392448
-5.9958982 -6.886748 -0.98244953 1.8699754 -1.9992391 -6.1085243 0.071770385 -1.6536466
-0.49492976 -0.18719593 3.8825665 5.098038 -3.148326 -0.13200563 -2.4834929 -1.661294
-0.9384381 -2.8788614 -0.03253223 -2.45634 3.4626234 -1.4650176 2.6305459 -1.4475209
-2.7735658 2.4699104 2.0526192 1.7571713 -3.616539 -6.166489 -0.95041424 8.438317
7.1084633 6.5809927 -2.3649466 -6.0646267 4.4701076 -2.7481863 -3.420469 10.667546
-0.64638513 0.32441524 -0.39424208 0.11161879 -2.891273 2.6010554 -3.736221 -0.22225158
-3.110122 6.822923 -2.611202 -3.5298376 5.235945 1.916364 -1.7336813 1.0838181
-3.4331234 3.7878025 -2.9132383 0.41587913 2.8365872 -8.5391865 2.4421527 1.9428498
-1.680589 -5.472146 -1.6361201 -4.2401147 -3.4498322 -3.2174954 -0.6620166 -2.017928
-0.17624381 -1.8641728 5.6815248 5.2116604 2.5333025 -9.212496 -0.10818214 -1.4969181
-4.2746415 -1.8088229 -0.8172491 -0.9945136 1.5751618 -4.2256665 1.0192938 1.0647905
-5.4064136 0.016956048 -1.4167482 1.1271391 -1.7325592 0.21184628 -4.57168 -3.317244
3.979868 -7.549833 2.1279671 2.117634 -2.0721314 1.6352398 5.797643 2.4014077
-9.01878 -1.9982188 -5.731109 2.25591 -4.2034574 0.7211505 4.1123543 3.2063785
3.6768312 -3.220243 -0.22097635 -3.3410375 4.4145093 -0.0798208 -5.7385488 1.3047296
00000000: 857c 6240 0479 4ebd 5276 c6be 2241 bfbf
00000010: 116c 8fc0 3306 2f40 903c 0440 28a9 7640
00000020: 334d e83f 7e91 a1c0 ae65 b63d 029c 2340
00000030: 6c92 1fc0 fce3 ddbf fbd0 f33e beaa 32c0
00000040: 57ac e8bf 3458 c2bf 91e0 c440 3cd1 8cc0
00000050: 93f7 cec0 48a9 a740 e2ef 9e40 f469 9240
00000060: ffc7 fabf 5a0d 1fc0 cd78 383e f45e f3c0
00000070: 8e56 73bd 98f6 783f 4fa9 ad40 486c 7140
00000080: 2061 b8c0 2f46 6ec0 be40 553f bae5 75c0
00000090: f940 88c0 c854 d73f e0e6 9fbe 2eac f13e
000000a0: 3f1b 24c0 a66e 41c0 3e9f b43e 5378 1dc0
000000b0: 5264 9ebf ca38 3240 c83d 39c1 e4bf 683d
000000c0: ea03 2440 fb0d aa40 4ef0 b33f 4032 70c0
000000d0: 2815 6b3e c6e7 9540 d570 0ac0 945f b8bf
000000e0: c8c1 06c0 0094 83c0 566f fcbf e0ca 95bf
000000f0: 1937 4fc0 0f61 d53f df3d 98c0 5c22 c5bf
00000100: 1d23 d140 a80e 1740 e4fc b1c0 f79f 49c0
00000110: 13ff 79bf 42de 8b3f 2999 0b40 c081 17bf
00000120: 72dc 893f bde2 3e3e 90b8 a1bf 9bf8 6a40
00000130: f6ec eec0 9a6a ff3f 6dc1 07c1 8d76 023f
00000140: 10b7 6bbe bf75 22c0 2723 8fbf 90d0 79c0
00000150: 50ba ee3f ef71 19c0 3290 81c0 e9c5 c1c0
00000160: cf8c ba3f 3535 bdc0 852a 49c0 30e3 bbc0
00000170: c73c 68be e710 9040 6dd2 04c1 2083 6640
00000180: 0230 73bf 7662 0441 0bf4 8ec0 d47f 5840
00000190: 3700 a9bf d45a abc0 05d9 723e 2b60 4640
000001a0: 44c7 77c0 36f5 e340 0572 15c1 6a05 d840
000001b0: ee99 7240 b294 d9bf 3289 5ec0 1039 d43f
000001c0: 5c47 adc0 7755 b53f 2078 be3e 4a84 4b3f
000001d0: 2a9f 37c0 0694 d6c0 cec7 df3f 7636 75c0
000001e0: 0c13 f13f c53d 18c0 d5e3 2140 1514 9340
000001f0: 4063 46c0 cb05 b0c0 59c5 8ec0 4f74 0fc0
00000200: 0585 0240 30af febf f75d 07c0 55dc 5540
00000210: f9be b43f 8af3 dfc0 4bc5 a8bf f905 85bf
00000220: 66de bfc0 3d60 dcc0 d081 7bbf 5b5b ef3f
00000230: 11e7 ffbf 0879 c3c0 5afc 923d b1aa d3bf
00000240: 6f67 fdbe 4ab0 3fbe f87b 7840 2123 a340
00000250: 2c7e 49c0 7c2c 07be 8cf1 1ec0 48a5 d4bf
00000260: 7b3d 70bf 443f 38c0 8440 05bd ad34 1dc0
00000270: 9f9b 5d40 b285 bbbf dd5a 2840 5d48 b9bf
00000280: 1a82 31c0 0313 1e40 1d5e 0340 fdea e03f
00000290: 6075 67c0 e153 c5c0 594e 73bf 5903 0741
000002a0: 8878 e340 7e97 d240 495b 17c0 6c11 c2c0
000002b0: 1f0b 8f40 49e2 2fc0 f7e8 5ac0 45ae 2a41
000002c0: 7f79 25bf c119 a63e 19da c9be 6498 e43d
000002d0: 9e0a 39c0 b177 2640 3f1e 6fc0 eb95 63be
000002e0: 3d0c 47c0 6355 da40 ef1d 27c0 dce8 61c0
000002f0: dd8c a740 6a4b f53f 45e9 ddbf 8dba 8a3f
00000300: 4bb8 5bc0 5b6b 7240 7f72 3ac0 1cee d43e
00000310: a58a 3540 82a0 08c1 3b4c 1c40 4daf f83f
00000320: 8a1d d7bf d21b afc0 626c d1bf 05af 87c0
00000330: 0dca 5cc0 72eb 4dc0 eb79 29bf bb25 01c0
00000340: 4279 34be 379d eebf 0dcf b540 ecc5 a640
00000350: a121 2240 6266 13c1 998e ddbd 039b bfbf
00000360: ddc9 88c0 8287 e7bf 3d37 51bf 7198 7ebf
00000370: e79e c93f a938 87c0 3878 823f 0e4b 883f
00000380: 5701 adc0 69e7 8a3c 0158 b5bf 1846 903f
00000390: 80c4 ddbf 3bee 583e 344b 92c0 ba4d 54c0
000003a0: 28b6 7e40 3b98 f1c0 9d30 0840 5187 0740
000003b0: cd9d 04c0 8a4f d13f 4b86 b940 aab0 1940
000003c0: ec4c 10c1 a2c5 ffbf 3f65 b7c0 d460 1040
000003d0: b982 86c0 529d 383f 6898 8340 4e35 4d40
000003e0: 3451 6b40 7618 4ec0 a047 62be 8fd3 55c0
000003f0: a943 8d40 1679 a3bd 31a2 b7c0 6101 a73f

weight f4 [8]
9.994919 14.313567 10.507616 11.2259 11.131531 11.246444 12.059705 13.512962
00000000: 30eb 1f41 5f04 6541 321f 2841 499d 3341
00000010: c01a 3241 6ff1 3341 8df4 4041 1835 5841

bias f4 [8]
4.507836 3.423602 3.7130609 1.4598755 -2.6167777 2.6158614 0.10375971 -2.9976492
00000000: 3140 9040 4c1c 5b40 caa2 6d40 33dd ba3f
00000010: 4979 27c0 466a 2740 f97f d43d 7cd9 3fc0

running_mean f4 [8]
-139.43712 -264.024 22.792967 -79.30697 -135.74956 -116.35004 -103.98857 151.29286
00000000: e76f 0bc3 1203 84c3 ff57 b641 2b9d 9ec2
00000010: e3bf 07c3 38b3 e8c2 26fa cfc2 f94a 1743

running_var f4 [8]
25040.668 64631.9 28551.035 32366.473 27717.713 28713.582 22865.598 40805.38
00000000: 56a1 c346 e677 7c47 120e df46 f2dc fc46
00000010: 6d8b d846 2a53 e046 32a3 b246 6165 1f47

weight f4 [8, 8, 3, 3]
-1.1169049 3.8280685 -5.9693646 0.9261025 -7.001304 1.3904556 4.3317676 -4.247785
2.7010787 4.837387 -1.7839506 0.7533191 -4.8086934 1.4076557 -0.6256753 -1.9121696
4.7857313 -5.2487655 3.5242088 -2.1950996 4.600385 -1.8745865 -0.73096365 5.668079
1.2400916 4.63226 -6.7162867 3.6215887 -0.69927335 -3.8119085 -2.8396122 0.48597685
-3.2667327 5.7058487 -3.8883927 2.2568498 3.234638 0.84890854 -1.9756 -0.9335158
-3.6039743 1.4351966 -0.77121425 -4.547633 7.5335298 0.5768346 -3.8147614 -2.6649396
-10.303381 2.6199787 -2.9643242 -0.87561136 0.0875053 -2.2626255 -0.9661139 2.873657
8.050071 2.3570611 -2.541989 0.70097476 -5.386741 3.6961565 3.2563097 -3.9414773
-2.6331737 1.8367336 0.70769656 1.0550524 -3.4792562 -2.5516996 -0.8792226 0.46869418
-1.038271 4.3458805 -0.29356483 2.8822827 1.245814 -0.7890586 -1.4566461 1.6225159
-0.10970511 0.99787766 4.0370445 -7.2689023 2.2845323 -0.08043088 -6.9836006 7.7564473
5.2556996 -1.1056827 -0.42309353 -1.0715547 -2.1306095 -1.9860866 0.8200092 1.7036648
-3.328752 6.760408 -5.11456 1.7163177 -2.6436698 -3.3143308 -3.4702559 1.1440027
-2.9352062 -6.021583 -1.4762399 2.3480778 -2.9979653 -2.2456236 -1.7257403 -5.4292974
-0.3445335 -0.052773148 -6.0409746 0.4405874 3.2324998 -9.360283 2.8474877 6.007504
7.2914977 -7.6368647 -0.0996913 -6.150893 0.56082433 0.05657802 -2.0588038 0.88220924
-3.037982 -1.1917114 3.2210112 -0.7239239 -1.3713896 -2.2706275 0.030651778 -2.0020652
-4.9768753 6.1232677 -1.4037573 -3.4822237 -5.760972 5.772579 -1.1013916 5.5449257
5.2376847 -8.888696 0.34236878 6.154186 -3.4572165 -4.814853 5.574354 1.667331
-1.7295315 4.8107266 -0.24742849 7.819544 -2.54854 1.7438788 -2.8152485 -0.240973
-2.0611122 -3.509881 1.6176283 5.726056 0.27185005 -3.567244 -3.0252604 -3.7774234
3.002583 -8.047655 5.8606777 3.2784579 -4.285921 -3.875452 -2.3367693 5.9779415
-6.0518365 1.4631734 4.2977304 3.1226714 -1.9857323 -1.0100322 -1.1773424 3.4037228
-0.5570848 0.33406785 3.4863076 -0.79475486 -7.041222 2.6278112 -6.530541 5.745766
-8.335759 -0.17336117 0.07136435 0.10505125 3.6039352 -3.7219703 3.6611078 -2.6585891
5.3404126 -2.8040988 1.290216 -1.9611378 -0.9923103 0.85577726 -1.0919203 6.06215
-1.1832881 0.027737306 0.33120203 -4.252405 -1.4570765 -0.5950275 1.2468019 2.9456866
-0.8552404 -2.4143465 -6.0448694 5.4828377 3.898512 -0.4131126 -4.5012803 3.2175224
-3.2356472 4.463461 -2.1829576 1.8760966 -1.4043773 4.3943815 1.0291531 6.838871
-4.073407 -7.555347 0.45393363 2.0760932 -4.2680955 4.918283 -3.427607 -6.398472
-8.594334 0.01325059 -6.421503 -3.0483086 0.45789427 3.6284144 3.3246202 -1.3403037
2.9119148 -0.7563188 -2.3251042 -2.8683786 -6.461744 -5.020713 5.067117 -6.966439
00000000: bdf6 8ebf 13ff 7440 0905 bfc0 0e15 6d3f
00000010: af0a e0c0 73fa b13f d79d 8a40 dbed 87c0
00000020: 79de 2c40 e0cb 9a40 7e58 e4bf 85d9 403f
00000030: d1e0 99c0 102e b43f 422c 20bf f9c1 f4bf
00000040: b624 9940 e3f5 a7c0 a38c 6140 837c 0cc0
00000050: 5b36 9340 73f2 efbf 6f20 3bbf e760 b540
00000060: 52bb 9e3f 793b 9440 d2eb d6c0 1cc8 6740
00000070: 9403 33bf 4ff6 73c0 35bc 35c0 f5d1 f83e
00000080: 2612 51c0 5096 b640 6ddb 78c0 3a70 1040
00000090: 4f04 4f40 1252 593f 76e0 fcbf e4fa 6ebf
000000a0: 84a7 66c0 86b4 b73f 4c6e 45bf 3686 91c0
000000b0: ad12 f140 6fab 133f 0d25 74c0 5f8e 2ac0
000000c0: a6da 24c1 bbad 2740 7db7 3dc0 1128 60bf
000000d0: fb35 b33d dbce 10c0 3e53 77bf ffe9 3740
000000e0: 17cd 0041 17da 1640 f3af 22c0 1573 333f
000000f0: 2f60 acc0 d48d 6c40 6167 5040 2a41 7cc0
00000100: eb85 28c0 161a eb3f 9a2b 353f f50b 873f
00000110: 22ac 5ec0 0c4f 23c0 bb14 61bf aff8 ef3e
00000120: 10e6 84bf 7411 8b40 214e 96be 5277 3840
00000130: d576 9f3f bfff 49bf 6173 babf 9aae cf3f
00000140: 13ad e0bd e974 7f3f 782f 8140 d99a e8c0
00000150: c735 1240 f2b8 a4bd a879 dfc0 d134 f840
00000160: b12e a840 0387 8dbf b79f d8be b428 89bf
00000170: e85b 08c0 1638 febf 1fec 513f b011 da3f
00000180: 460a 55c0 4355 d840 7aaa a3c0 4cb0 db3f
00000190: e331 29c0 ff1d 54c0 ac18 5ec0 ae6e 923f
000001a0: 6bda 3bc0 cfb0 c0c0 6ef5 bcbf e846 1640
000001b0: aade 3fc0 4cb8 0fc0 0fe5 dcbf cebc adc0
000001c0: b266 b0be a828 58bd aa4f c1c0 ac94 e13e
000001d0: 47e1 4e40 b8c3 15c1 3d3d 3640 793d c040
000001e0: f353 e940 3261 f4c0 f42a ccbd 1ed4 c4c0
000001f0: 2f92 0f3f 5bbe 673d 71c3 03c0 77d8 613f
00000200: 4c6e 42c0 008a 98bf 0c25 4e40 1453 39bf
00000210: b289 afbf f651 11c0 7019 fb3c d621 00c0
00000220: 9042 9fc0 cff1 c340 52ae b3bf c1dc 5ec0
00000230: e259 b8c0 f8b8 b840 66fa 8cbf 0870 b140
00000240: 1d9b a740 1938 0ec1 f64a af3e 17ef c440
00000250: 0943 5dc0 4713 9ac0 1c61 b240 1a6b d53f
00000260: 4a61 ddbf 79f1 9940 e55d 7dbe b439 fa40
00000270: 481b 23c0 6c37 df3f 082d 34c0 a0c1 76be
00000280: 43e9 03c0 e4a1 60c0 720e cf3f da3b b740
00000290: ee2f 8b3e ba4d 64c0 de9d 41c0 4ec1 71c0
000002a0: 522a 4040 32c3 00c1 ac8a bb40 41d2 5140
000002b0: 4426 89c0 6807 78c0 a18d 15c0 4c4b bf40
000002c0: a5a8 c1c0 4449 bb3f 0287 8940 d9d9 4740
000002d0: 7a2c febf bc48 81bf 28b3 96bf 98d6 5940
000002e0: 1c9d 0ebf f10a ab3e aa1f 5f40 0e75 4bbf
000002f0: b151 e1c0 0f2e 2840 31fa d0c0 51dd b740
00000300: 455f 05c1 9785 31be 7927 923d 1c25 d73d
00000310: e0a6 6640 c334 6ec0 974f 6a40 5326 2ac0
00000320: a9e4 aa40 5b76 33c0 cc25 a53f 9006 fbbf
00000330: 0c08 7ebf 3814 5b3f 0bc4 8bbf 22fd c140
00000340: fc75 97bf 5939 e33c 5093 a93e b413 88c0
00000350: 7c81 babf b953 18bf 3497 9f3f 2186 3c40
00000360: 09f1 5abf a784 1ac0 926f c1c0 6873 af40
00000370: 3881 7940 7f83 d3be 7d0a 90c0 e3eb 4d40
00000380: d814 4fc0 acd4 8e40 94b5 0bc0 ef23 f03f
00000390: a3c2 b3bf c69e 8c40 4abb 833f 08d8 da40
000003a0: 5a59 82c0 67c5 f1c0 fd69 e83e b6de 0440
000003b0: 3d94 88c0 9362 9d40 ea5d 5bc0 48c0 ccc0
000003c0: 6482 09c1 0119 593c f47c cdc0 7d17 43c0
000003d0: 1e71 ea3e f137 6840 94c6 5440 128f abbf
000003e0: d05c 3a40 1c9e 41bf 82ce 14c0 8493 37c0
000003f0: 9bc6 cec0 aea9 a0c0 d325 a240 11ed dec0

weight f4 [8]
11.004969 10.873953 10.832458 12.407249 11.417099 11.501105 11.17179 9.689383
00000000: 5a14 3041 b6fb 2d41 bf51 2d41 1884 4641
00000010: 70ac 3641 8704 3841 a7bf 3241 b607 1b41

bias f4 [8]
1.2097737 0.48652038 0.62722915 -2.236869 -2.3326247 0.842041 -2.103891 2.2132237
00000000: ddd9 9a3f 3319 f93e 1792 203f dd28 0fc0
00000010: b949 15c0 0090 573f 26a6 06c0 75a5 0d40

running_mean f4 [8]
-85.73263 -154.68094 -10.964394 -431.67282 -31.734325 -171.30621 -273.10242 43.16134
00000000: 1b77 abc2 52ae 1ac3 286e 2fc1 1fd6 d7c3
00000010: e6df fdc1 644e 2bc3 1c8d 88c3 36a5 2c42

running_var f4 [8]
47554.68 36569.97 40305.117 42718.16 34542.863 36464.52 40295.566 38723.973
00000000: aec2 3947 f8d9 0e47 1e71 1d47 29de 2647
00000010: ddee 0647 8570 0e47 9167 1d47 f943 1747

weight f4 [16, 8, 3, 3]
1.782082 2.780426 -1.9710993 0.27459383 0.6818463 -1.2382058 1.14808 1.8237207
1.5997181 0.12744106 -4.6083336 2.0656128 -3.1336567 3.8201978 0.08005078 -3.7483728
2.5628629 6.1840444 -2.764632 1.3999045 -6.288763 -3.0908206 -1.8658242 -1.3576247
-0.3529215 -0.7031207 -4.162613 -2.7328312 0.5397174 2.272262 2.7088754 -3.205271
-1.0578184 -3.7678494 1.377075 -4.729217 -1.2756361 -4.7811017 -1.9432001 0.18667185
-2.913662 0.38598338 -2.1727831 3.2164946 -4.3606844 -4.0796165 0.319516 -0.48862457
0.050901264 1.1778015 3.4231315 -4.6242414 0.23813395 -2.6223772 2.0003188 -0.3222338
0.86902934 -0.9432454 -2.9331238 -1.0578622 -1.6885519 -5.5381627 0.33043742 -0.8931125
-2.1718717 -3.84756 -4.25005 -0.32081747 0.60733414 -7.640768 -0.9034851 -2.724781
-1.7700782 1.5304822 1.5798236 -0.066963725 -5.159696 -1.5341556 -0.42962545 0.56440884
6.308804 3.6866 -1.851378 -4.5429716 -0.8895258 2.545652 -0.21431436 -3.2922723
2.2011511 3.11118 -3.4930706 -3.673822 4.0649548 2.316457 -0.5929652 -1.2217963
-0.6067394 0.44874042 -1.0847915 -1.6559643 0.48649582 -4.3357844 -0.39510465 4.4117393
-1.1274297 3.8853233 3.4182117 0.009771749 3.1763186 -5.677903 5.637123 2.7228248
-4.2879076 0.9790132 -1.8591939 -0.36166 2.6791747 -3.4507706 2.824924 -3.3686163
1.1883423 3.0465622 1.4736024 0.20035535 3.60535 3.2466974 2.0372941 -1.8903996
-1.5859975 1.218978 1.6361383 -1.2531059 -2.643577 3.089569 2.4252458 1.1838443
-0.29160357 0.164734 6.7146277 3.2477086 0.3842944 -1.1260245 1.0751141 -1.0755396
2.3744893 -2.8923287 -3.3518264 4.7731037 0.24692388 0.7389311 -0.30200103 0.95417994
0.41145644 4.1381955 2.0498965 1.6437982 -0.44452575 1.0106767 1.4895201 -1.5641232
-2.6628938 -3.6872523 -0.16495931 -1.304292 -4.7988367 2.0517223 -0.18901151 4.8557363
2.2672348 -5.558218 2.1396217 -5.9802723 -0.5936971 2.7951674 -2.513931 2.1150985
-1.058811 2.5208328 0.13477057 -1.5290617 2.445779 -1.2924061 -0.6809841 -3.4857602
-0.6405792 -2.618139 6.0793905 2.0519483 -2.6594217 -3.536702 -1.1145681 -0.68109024
2.6516712 -2.0195007 2.9834342 3.8245149 -4.5935416 -2.1877067 -4.1806874 1.7949289
-1.094942 3.471008 -4.016703 1.8109071 -3.4678726 -0.34668672 0.93923664 -1.0088478
0.69554543 -1.0155524 4.4593997 -0.7575963 1.5632011 -1.2729685 0.38768125 -3.4145834
3.728211 -3.945857 -0.25800547 -0.61674243 4.214853 -3.6383433 -2.698255 4.5339894
2.9878767 -2.7443166 -1.1126677 2.6822693 0.50684536 0.54195976 -5.8332295 2.2026663
0.6377203 -1.8926048 0.5750872 0.35652876 -3.179001 -1.2974128 1.9343106 -0.6057596
-1.9929205 -4.359351 0.5457958 -0.4941873 -1.7302792 -1.65625 3.6996562 -1.1680895
-3.6432667 1.4644855 2.649833 0.69271034 2.1743164 -1.2906013 -0.95626056 -2.6915867
00000000: 431b e43f 80f2 3140 fb4c fcbf 9097 8c3e
00000010: 7b8d 2e3f 877d 9ebf 49f4 923f ae6f e93f
00000020: 90c3 cc3f e97f 023e 7877 93c0 0033 0440
00000030: d58d 48c0 1f7e 7440 aaf1 a33d 57e5 6fc0
00000040: f205 2440 b1e3 c540 bbef 30c0 1230 b33f
00000050: 8c3d c9c0 01d0 45c0 54d3 eebf a5c6 adbf
00000060: 20b2 b4be b8ff 33bf 2034 85c0 b5e6 2ec0
00000070: eb2a 0a3f be6c 1140 375e 2d40 2923 4dc0
00000080: 9866 87bf 7224 71c0 fe43 b03f bf55 97c0
00000090: 0b48 a3bf c9fe 98c0 c8ba f8bf e826 3f3e
000000a0: 7079 3ac0 9d9f c53e e10e 0bc0 0cdb 4d40
000000b0: ba8a 8bc0 388c 82c0 9a97 a33e 002d fabe
000000c0: d87d 503d 33c2 963f 9614 5b40 c9f9 93c0
000000d0: 63d9 733e 07d5 27c0 3905 0040 d4fb a4be
000000e0: b578 5e3f 8878 71bf 4db8 3bc0 0768 87bf
000000f0: 7822 d8bf a138 b1c0 182f a93e 05a3 64bf
00000100: f2ff 0ac0 6c3e 76c0 6900 88c0 3042 a4be
00000110: 407a 1b3f 2c81 f4c0 cd4a 67bf d062 2ec0
00000120: ec91 e2bf d7e6 c33f a937 ca3f 4724 89bd
00000130: 3b1c a5c0 365f c4bf def7 dbbe 197d 103f
00000140: b9e1 c940 41f1 6b40 f4f9 ecbf 0660 91c0
00000150: f6b7 63bf f6eb 2240 3975 5bbe 97b4 52c0
00000160: a9df 0c40 931d 4740 788e 5fc0 e61f 6bc0
00000170: 1c14 8240 d540 1440 91cc 17bf d263 9cbf
00000180: 4653 1bbf 4ec1 e53e 73da 8abf a3f6 d3bf
00000190: fb15 f93e bfbe 8ac0 284b cabe f82c 8d40
000001a0: 9e4f 90bf 23a9 7840 fbc3 5a40 b019 203c
000001b0: ce48 4b40 62b1 b5c0 5063 b440 c342 2e40
000001c0: 8a36 89c0 9ca0 7a3f 11fa edbf 802b b9be
000001d0: 9977 2b40 6dd9 5cc0 8ecb 3440 6997 57c0
000001e0: 9a1b 983f e0fa 4240 019f bc3f f429 4d3e
000001f0: 0ebe 6640 e4c9 4f40 0763 0240 9df8 f1bf
00000200: f701 cbbf 7907 9c3f fb6c d13f c665 a0bf
00000210: 5e30 29c0 80bb 4540 3a37 1b40 3688 973f
00000220: 104d 95be 08b0 283e 3bde d640 75da 4f40
00000230: 3cc2 c43e 9221 90bf 579d 893f 48ab 89bf
00000240: a2f7 1740 ea1b 39c0 5384 56c0 44bd 9840
00000250: 9dd9 7c3e 972a 3d3f e19f 9abe 2345 743f
00000260: 6baa d23e 196c 8440 8131 0340 fb67 d23f
00000270: e198 e3be db5d 813f 98a8 be3f 3035 c8bf
00000280: da6c 2ac0 f1fb 6bc0 18eb 28be 0af3 a6bf
00000290: 1290 99c0 6b4f 0340 3c8c 41be 3162 9b40
000002a0: 601a 1140 ecdc b1c0 90ef 0840 645e bfc0
000002b0: 88fc 17bf 06e4 3240 3fe4 20c0 c65d 0740
000002c0: 1e87 87bf 5355 2140 4c01 0a3e 4bb8 c3bf
000002d0: a587 1c40 906d a5bf f954 2ebf b216 5fc0
000002e0: 00fd 23bf 978f 27c0 5e8a c240 1f53 0340
000002f0: f733 2ac0 5359 62c0 2baa 8ebf ee5b 2ebf
00000300: fbb4 2940 803f 01c0 96f0 3e40 dac4 7440
00000310: 4bfe 92c0 6303 0cc0 31c8 85c0 3bc0 e53f
00000320: 0f27 8cbf ff24 5e40 d588 80c0 cecb e73f
00000330: a0f1 5dc0 ec80 b1be d071 703f ed21 81bf
00000340: 440f 323f 9ffd 81bf 67b3 8e40 d5f1 41bf
00000350: f916 c83f a2f0 a2bf 287e c63e 8988 5ac0
00000360: 029b 6e40 ec88 7cc0 4b19 84be d5e2 1dbf
00000370: 13e0 8640 9eda 68c0 36b0 2cc0 7116 9140
00000380: 5f39 3f40 e2a2 2fc0 e56b 8ebf 4daa 2b40
00000390: 9ec0 013f e0bd 0a3f d1a9 bac0 7cf8 0c40
000003a0: a341 233f e040 f2bf ea38 133f f08a b63e
000003b0: c174 4bc0 9f11 a6bf 7d97 f73f 1013 1bbf
000003c0: 0518 ffbf ce7f 8bc0 46b9 0b3f 1e06 fdbe
000003d0: ca79 ddbf 0000 d4bf 2bc7 6c40 f583 95bf
000003e0: 482b 69c0 4374 bb3f dd96 2940 7755 313f
000003f0: 0028 0b40 6c32 a5bf 7ecd 74bf f542 2cc0

weight f4 [16]
3.542395 2.9543169 3.6152563 3.3533866 4.479753 3.0863166 3.2134435 3.7370307
6.0956826 6.289353 6.0893574 5.5421586 6.021441 5.3117723 6.163099 6.860226
00000000: 9ab6 6240 8713 3d40 5c60 6740 e39d 5640
00000010: 235a 8f40 3686 4540 0fa9 4d40 832b 6f40
00000020: d50f c340 6142 c940 04dc c240 5d59 b140
00000030: a5af c040 0afa a940 1b38 c540 f986 db40

bias f4 [16]
-1.0917773 -0.87816036 -1.9544733 -0.7889147 -1.9495499 -1.1929605 -1.5382931 -1.7696228
-2.8370392 -1.9207603 -1.6349134 -1.5573103 -1.661825 -2.0350342 -2.1990058 -2.7508185
00000000: 5cbf 8bbf 1ecf 60bf 2e2c fabf 50f6 49bf
00000010: da8a f9bf eeb2 98bf cae6 c4bf 0083 e2bf
00000020: 0d92 35c0 79db f5bf d844 d1bf f255 c7bf
00000030: aeb6 d4bf 003e 02c0 83bc 0cc0 690d 30c0

running_mean f4 [16]
-293.5941 110.70411 -37.98178 -85.974304 -135.06396 4.087907 -360.41592 27.646437
113.2833 -199.67987 -184.72636 29.379152 -328.16992 -68.29947 -195.91252 17.329666
00000000: 0bcc 92c3 8168 dd42 58ed 17c2 d8f2 abc2
00000010: 6010 07c3 22d0 8240 3d35 b4c3 e72b dd41
00000020: 0d91 e242 0cae 47c3 f3b9 38c3 8108 eb41
00000030: c015 a4c3 5499 88c2 9be9 43c3 28a3 8a41

running_var f4 [16]
23835.535 24840.865 24414.31 17701.69 24870.477 20344.594 21818.83 21381.562
21680.158 25373.69 17509.062 22052.207 25659.426 20471.406 27186.873 22617.336
00000000: 1237 ba46 bb11 c246 9fbc be46 614b 8a46
00000010: f44c c246 30f1 9e46 a975 aa46 200b a746
00000020: 5160 a946 613b c646 20ca 8846 6a48 ac46
00000030: da76 c846 d0ee 9f46 bf65 d446 acb2 b046

weight f4 [64, 96]
1.1952903 1.3909391 0.32824042 -3.0644817 -0.17892304 -2.1139286 -0.21856141 1.2736402
0.17710634 -0.44985563 2.4575224 -1.5762367 0.7456216 -0.31769454 -2.3396783 -0.084159784
-1.647209 0.051205497 0.551124 -0.5797437 -0.02315612 -1.8645315 0.11920836 -0.6176674
-1.367572 -1.58078 -2.1883345 -1.2974983 -0.4443331 -0.35946694 -0.41061747 1.0110875
0.96202266 -2.3985229 -1.8867095 -0.30723515 0.19932757 -2.4567122 1.6001848 0.36182326
-1.7216785 -2.5716739 -2.904444 -2.5783255 -1.4927187 0.08864685 1.2354733 -0.33539507
-1.6464332 1.7188609 -2.6176295 -2.0798206 -1.9156969 -1.2640527 2.9479706 -1.1008908
-1.9296257 -1.8582642 0.661229 -2.395977 -2.9104087 1.3168824 -0.1835075 -0.9133116
-0.19928545 0.56212056 -3.403522 -2.0110307 -1.0197008 -1.7672796 -1.8040211 0.9727866
-1.8297694 -0.811685 1.514224 -1.6447504 -1.5947415 0.75407696 0.43212664 1.366411
-2.0828688 -0.4361033 -2.4541726 1.7142298 -1.9168447 0.56493485 -0.13766481 0.44062603
-0.49164736 -1.0588338 0.41112316 -0.6185767 -0.9748665 1.8301429 -0.39919513 -3.4940872
-0.5323218 0.52058756 0.79876906 0.8213352 -1.9369229 1.1462996 -0.013352627 -1.8551056
1.1478424 0.28488496 0.19756228 0.6374313 0.35569102 1.4519173 -2.2003598 -0.19548284
0.9222141 -0.19780368 -1.7261415 -0.1793204 -0.43575346 -1.7934538 -0.57905644 0.13000162
-1.0974389 -1.2473435 -1.1543919 -0.30886176 -0.26021475 -0.696411 -0.028968224 0.4252541
-0.9429618 0.26822853 -0.24893083 -1.0685585 -2.4411561 0.18009904 0.73716134 2.0984151
0.29849657 0.6116013 -0.2677252 -0.048481897 1.0815753 -1.4672816 -0.11789553 -1.9979719
0.41411254 -0.46101198 -1.0566233 1.1108086 0.5378415 0.29581323 -2.4313316 -0.6142666
0.2975866 -0.6579036 -0.89951724 -0.18926786 -0.4094486 1.1428667 0.73078316 0.46290237
0.35244825 -0.57261556 0.66670394 -0.27391347 0.83866847 -0.08276976 2.0792 -2.4198067
-0.59767836 1.269375 -0.81512743 0.18861143 0.10213928 -0.33197927 1.1471701 -1.1574074
-0.5732192 1.8508052 0.5897644 -0.09050826 -0.6567551 0.493587 1.2644305 -0.25320995
-0.9346019 -0.7052789 -1.1213882 -0.056199823 -1.0783166 0.52040404 1.1821067 2.089805
-0.75533295 0.6726392 0.7252693 1.0879184 1.0429419 -0.24053575 -1.2087399 0.012432538
-0.8638892 -0.15764578 1.1581377 -0.14991693 -0.6006541 0.9804383 -2.1031182 0.7881757
0.22451177 -2.2180617 0.47301197 -0.33170322 0.3545887 1.1424445 -1.3613304 1.4063267
-1.3606752 -0.21742035 -2.2048683 1.4524374 0.24251089 -0.38241065 -1.1437579 -1.328208
0.5665555 -1.6675087 0.14830707 0.2812511 2.334755 -2.1916435 1.2982424 -0.5644707
-1.0487351 -1.8587692 -0.3145634 -0.00670892 -0.54433686 -1.3246095 0.57913876 -1.3182011
1.9402312 -0.107896395 -0.030933484 0.31864798 -0.976026 -0.019889733 -1.5156748 0.5179461
0.55868125 -0.49340138 -0.86639 -1.828451 -1.5156711 1.3689 -0.6715208 -1.9996521
00000000: 46ff 983f 4b0a b23f 210f a83e 7820 44c0
00000010: 9a37 37be 9b4a 07c0 90ce 5fbe a406 a33f
00000020: 5d5b 353e 7a53 e6be 0c48 1d40 20c2 c9bf
00000030: 0fe1 3e3f dca8 a2be 4abd 15c0 f75b acbd
00000040: bfd7 d2bf dbbc 513d 7616 0d3f 156a 14bf
00000050: e7b1 bdbc f8a8 eebf 8323 f43d 731f 1ebf
00000060: 990c afbf 0057 cabf ac0d 0cc0 6d14 a6bf
00000070: a17f e3be 0d0c b8be 743c d2be 516b 813f
00000080: 1e47 763f 6681 19c0 b27f f1bf ed4d 9dbe
00000090: 871c 4c3e c63a 1dc0 dbd2 cc3f e640 b93e
000000a0: f65f dcbf 4e96 24c0 69e2 39c0 4903 25c0
000000b0: 6811 bfbf 7b8c b53d fd23 9e3f e7b8 abbe
000000c0: 53be d2bf a203 dc3f 3e87 27c0 c81b 05c0
000000d0: 8e35 f5bf 7bcc a1bf 8dab 3c40 fde9 8cbf
000000e0: fafd f6bf 9adb edbf 4e46 293f b057 19c0
000000f0: 2344 3ac0 9a8f a83f 64e9 3bbe cace 69bf
00000100: 7c11 4cbe 22e7 0f3f 4ed3 59c0 bab4 00c0
00000110: 8e85 82bf 3836 e2bf 2aea e6bf 8b08 793f
00000120: e235 eabf 97ca 4fbf 18d2 c13f 2e87 d2bf
00000130: 7d20 ccbf 300b 413f b43f dd3e 8ee6 ae3f
00000140: b94d 05c0 ef48 dfbe 2a11 1dc0 e26b db3f
00000150: 2b5b f5bf 929f 103f 01f8 0cbe bc99 e13e
00000160: 34b9 fbbe de87 87bf bc7e d23e 0b5b 1ebf
00000170: da90 79bf 1f42 ea3f 4e63 ccbe 209f 5fc0
00000180: 3e46 08bf 3a45 053f 217c 4c3f 0643 523f
00000190: 17ed f7bf f2b9 923f fac4 5abc 1a74 edbf
000001a0: 80ec 923f 71dc 913e c44d 4a3e b32e 233f
000001b0: 221d b63e 6dd8 b93f b2d2 0cc0 a72c 48be
000001c0: 3916 6c3f 0c8d 4abe 34f2 dcbf c49f 37be
000001d0: 141b dfbe e58f e5bf 0b3d 14bf 251f 053e
000001e0: e178 8cbf f4a8 9fbf 1dc3 93bf 2123 9ebe
000001f0: de3a 85be fe47 32bf c54e edbc e8ba d93e
00000200: f265 71bf 4055 893e b9e7 7ebe 86c6 88bf
00000210: e73b 1cc0 e26b 383e 9bb6 3c3f 6f4c 0640
00000220: 8bd4 983e e791 1c3f 4713 89be f494 46bd
00000230: 0f71 8a3f e2cf bbbf 3673 f1bd 8bbd ffbf
00000240: 8f06 d43e c309 ecbe 6f3f 87bf fa2e 8e3f
00000250: fbaf 093f d574 973e f09a 1bc0 9340 1dbf
00000260: 455d 983e 5f6c 28bf c346 66bf 6fcf 41be
00000270: 3fa3 d1be 7549 923f 9b14 3b3f 8a01 ed3e
00000280: 1974 b43e ef96 12bf 1cad 2a3f 633e 8cbe
00000290: fab2 563f 3183 a9bd 9d11 0540 1dde 1ac0
000002a0: 7301 19bf e17a a23f 31ac 50bf 5b23 413e
000002b0: 662e d13d 30f9 a9be 78d6 923f ed25 94bf
000002c0: 7ebe 12bf 2fe7 ec3f cdfa 163f 655c b9bd
000002d0: 1a21 28bf 6fb7 fc3e dcd8 a13f bca4 81be
000002e0: 1242 6fbf 288d 34bf a689 8fbf c931 66bd
000002f0: 4706 8abf 3339 053f 464f 973f 5dbf 0540
00000300: 805d 41bf 1532 2c3f 40ab 393f e940 8b3f
00000310: 1f7f 853f 014f 76be fdb7 9abf d8b1 4b3c
00000320: d827 5dbf e56d 21be db3d 943f d383 19be
00000330: 78c4 19bf 01fe 7a3f 7d99 06c0 e2c5 493f
00000340: 6ae6 653e b9f4 0dc0 a02e f23e 01d5 a9be
00000350: a68c b53e 9f3b 923f 1340 aebf 8302 b43f
00000360: 9b2a aebf 71a3 5ebe 901c 0dc0 78e9 b93f
00000370: c654 783e 54cb c3be a966 92bf b802 aabf
00000380: c809 113f ed70 d5bf cfdd 173e 2500 903e
00000390: a06c 1540 e343 0cc0 cf2c a63f 2781 10bf
000003a0: f43c 86bf 26ec edbf 740e a1be 80d6 dbbb
000003b0: a959 0bbf ce8c a9bf 7042 143f d0ba a8bf
000003c0: 7f59 f83f c9f8 dcbd 3868 fdbc d425 a33e
000003d0: d7dc 79bf cbef a2bc a201 c2bf 1e98 043f
000003e0: bc05 0f3f 1b9f fcbe bccb 5dbf af0a eabf
000003f0: 8301 c2bf 1d38 af3f cae8 2bbf 9af4 ffbf

bias f4 [64]
-1.8815705 6.1984086 6.5352297 4.0166817 -1.4060493 -1.5148098 5.506603 -1.0346557
-1.2901078 -1.6152915 -1.1176912 4.0562215 2.1338825 5.99595 4.7230787 -0.94865733
-1.4148316 5.8732266 -1.2096468 -1.7376134 -1.2799948 -1.4595957 -1.3798213 7.1331716
4.578289 -1.3222243 -1.1853218 -0.8528051 6.6401095 -1.1700791 3.5863698 2.460622
6.1916327 -0.6614594 -1.0637842 5.7779355 4.263094 -1.3390058 1.8781341 4.1250515
2.9304905 5.5730767 -1.2485422 -1.2653652 -1.7790482 5.673373 -1.447414 4.8726935
-1.5051222 -1.2197618 3.6795626 5.521649 4.470903 8.291995 6.9205623 -1.1484349
7.6000514 6.784265 2.23779 4.784846 7.5009766 -1.1815579 7.070789 -1.5281608
00000000: 4dd7 f0bf 5d59 c640 9a20 d140 a888 8040
00000010: 6cf9 b3bf 4ae5 c1bf 1736 b040 996f 84bf
00000020: 4122 a5bf dfc1 cebf 8110 8fbf 91cc 8140
00000030: 8891 0840 d3de bf40 7623 9740 35db 72bf
00000040: 3419 b5bf 79f1 bb40 b5d5 9abf 1e6a debf
00000050: dfd6 a3bf 08d4 babf fc9d b0bf f142 e440
00000060: 5881 9240 a53e a9bf a0b8 97bf 6f51 5abf
00000070: c77b d440 27c5 95bf 1587 6540 d57a 1d40
00000080: db21 c640 6755 29bf 152a 88bf d9e4 b840
00000090: 446b 8840 8b64 abbf b366 f03f 6c00 8440
000000a0: 288d 3b40 a556 b240 3bd0 9fbf 7df7 a1bf
000000b0: dab7 e3bf 468c b540 dd44 b9bf 1bed 9b40
000000c0: d8a7 c0bf 2821 9cbf f47d 6b40 59b1 b040
000000d0: a311 8f40 03ac 0441 3f75 dd40 eaff 92bf
000000e0: 9f33 f340 b318 d940 f437 0f40 751d 9940
000000f0: 0008 f040 4a3d 97bf e743 e240 c69a c3bf

weight f4 [1, 64]
-6.9222097 1.5135062 2.8128245 1.5078309 -4.6812377 -5.5387034 1.1848857 -5.696793
-5.145046 -5.1121254 -4.53299 1.735588 1.8964002 1.4470009 1.8086742 -4.197116
-5.3041205 1.546916 -5.9255857 -5.434876 -5.7895694 -5.3852215 -3.7462616 1.550891
1.4647988 -3.447659 -6.0291343 -4.376216 2.0726624 -6.1805468 1.7124349 1.9735994
1.5557628 -5.497056 -4.3681226 2.1278954 1.569638 -3.5967135 2.0216975 1.3268772
1.9804666 1.8614596 -4.8206615 -4.723377 -4.358433 2.007438 -3.9568598 1.7260503
-5.369397 -3.7341363 2.4421382 2.1193852 1.3069913 2.270641 2.1237023 -5.7750797
2.2708664 1.739905 1.6653141 1.810164 2.3621671 -4.126828 2.6110866 -5.535675
00000000: be82 ddc0 92ba c13f 5105 3440 9a00 c13f
00000010: b3cc 95c0 0f3d b1c0 56aa 973f 214c b6c0
00000020: 38a4 a4c0 8896 a3c0 410e 91c0 bf27 de3f
00000030: 3ebd f23f 5337 b93f a382 e73f c64e 86c0
00000040: 5bbb a9c0 5801 c63f 669e bdc0 81ea adc0
00000050: 2744 b9c0 bc53 acc0 c0c2 6fc0 9983 c63f
00000060: 877e bb3f 72a6 5cc0 abee c0c0 f609 8cc0
00000070: 80a6 0440 0ac7 c5c0 1131 db3f e89e fc3f
00000080: 3c23 c73f e2e7 afc0 a9c7 8bc0 702f 0840
00000090: e6e9 c83f 8e30 66c0 7e63 0140 1dd7 a93f
000000a0: ee7f fd3f 4f44 ee3f dc42 9ac0 e825 97c0
000000b0: 4878 8bc0 dd79 0040 313d 7dc0 37ef dc3f
000000c0: 1ad2 abc0 17fc 6ec0 fe4b 1c40 02a4 0740
000000d0: 7e4b a73f 2f52 1140 bdea 0740 74cd b8c0
000000e0: e055 1140 35b5 de3f 0329 d53f 74b3 e73f
000000f0: bf2d 1740 fa0e 84c0 0b1c 2740 4024 b1c0

weight f4 [64, 96]
-0.12933628 2.0236964 -0.19346772 -0.94405156 0.7538159 1.178191 -0.1700008 1.5334177
-1.6919769 0.35897458 1.818615 1.6439114 -2.4788826 3.2235 0.37802154 1.1041654
1.7239498 0.71077406 0.66685754 -0.47791132 -0.4330546 1.5393572 -0.18941876 -1.4939301
0.23887858 0.0036606158 -1.3988477 -0.96752304 0.88396555 0.8160095 0.96238124 -2.2033799
-0.38745907 -0.91323066 0.17105062 -0.20073743 -2.3169892 -1.8662717 -0.044541877 -1.8691701
1.0213368 -3.7419329 0.90446585 -1.6632394 -2.3089662 -1.2791463 -0.46032625 1.4257214
0.8501816 0.16526999 -0.9017481 -0.83579546 -2.600876 -4.127766 0.028740546 -2.5118043
1.6237609 -1.4016153 0.7262582 -1.5821645 -0.8877803 -2.2338128 0.15147962 0.4365248
-1.3109192 2.0910156 1.4173352 1.2353755 -0.5623605 -0.43195528 3.1704311 -0.9550352
0.44222954 -0.6340664 -2.1687114 0.2571485 -1.5291544 3.9373863 -1.1226505 -2.0547683
0.504606 -1.245037 -0.23635145 -0.35724553 -1.8352214 -1.5142587 1.0727806 -3.0878544
1.2426506 -1.0450562 0.49522048 -0.28420243 0.65668446 2.21761 0.21187815 -3.3459578
0.31324443 -1.4238105 -0.05859745 -0.86004543 1.4620897 1.3491535 -0.6241664 -2.6063626
-0.8311776 -0.81410676 0.05253936 -2.358483 -2.9048114 -3.3418698 0.81957227 1.0261238
-0.8147204 0.55379343 -1.9535519 -1.6781123 -2.770681 2.8184683 2.795001 -0.40529698
0.03657572 1.6704724 1.3256664 0.51939225 0.44798598 -1.4790255 2.982105 0.56240654
-1.0532384 -0.774062 0.81278545 0.67779255 -0.82396096 -1.4245273 0.92441934 -0.90654427
-0.026690155 1.1904005 -1.6951141 0.96584034 1.7689546 2.7338777 1.0912312 0.5913776
0.078706935 -0.864651 -1.9001517 1.2202626 0.7818582 -0.92397726 0.762377 1.6709651
2.1854424 1.1534822 -1.6841576 -2.151857 -1.3844486 -1.5977191 2.6364577 -2.1369512
-2.3993778 -0.68223315 -1.6497072 0.24861756 -0.95555204 0.41298768 -1.8559104 3.0023344
-0.75204116 -1.8326542 -1.3956722 -0.01522187 -0.15662503 -0.11025712 0.38932922 0.9175311
-2.0092778 -1.1408422 0.17648968 -2.4773574 0.34545204 -0.9763407 -2.3980806 0.23820321
2.8681805 -1.1938664 -0.60467994 -0.31743696 0.39085796 -0.080408566 -0.8553029 0.6015276
-1.6495478 -1.1591566 0.3806972 1.1133214 0.436894 -0.6877355 2.8541884 0.3409099
-1.2570606 0.8593164 0.74602866 -0.22232704 -1.57829 0.84373146 1.0282688 -2.974085
0.48529497 0.6834533 2.1763632 -1.4216343 0.7265544 -1.5217643 -3.1317732 0.5822383
-0.9063259 -2.3398771 0.887898 1.3653826 -0.28692198 -0.12459141 0.40006235 -1.1049083
1.1232233 0.02621669 -0.09206243 -1.1316764 -1.0383846 -0.95886606 -2.001112 -0.27259067
1.5073904 -2.9314454 -0.8846725 -0.05236786 0.44867867 0.4805764 -0.0702681 -0.9320563
0.24081275 -1.1389283 -0.29596728 2.0560067 2.7226796 1.2516738 -1.1848456 -0.4477371
0.11634036 1.5183707 0.2063458 -0.9769871 0.1443872 -1.7917136 2.2079844 -2.6240687
00000000: bb70 04be 3e84 0140 671c 46be 5dad 71bf
00000010: 14fa 403f f6ce 963f b114 2ebe 0847 c43f
00000020: b392 d8bf 84cb b73e 60c8 e83f b06b d23f
00000030: 03a6 1ec0 d34d 4e40 0a8c c13e 4b55 8d3f
00000040: 63aa dc3f 4af5 353f 2db7 2a3f cbb0 f4be
00000050: 55b9 ddbe a809 c53f fef6 41be 1a39 bfbf
00000060: 969c 743e f1e6 6f3b 710d b3bf 97af 77bf
00000070: 914b 623f 00e6 503f 9e5e 763f 2d04 0dc0
00000080: 0961 c6be 7cc9 69bf e527 2f3e 1d8e 4dbe
00000090: 8d49 14c0 fee1 eebf 8b71 36bd f740 efbf
000000a0: 2abb 823f d47b 6fc0 138b 673f 07e5 d4bf
000000b0: 1ac6 13c0 11bb a3bf e2af ebbe 0a7e b63f
000000c0: 80a5 593f 893c 293e f7d8 66bf b1f6 55bf
000000d0: c174 26c0 a916 84c0 4b71 eb3c 67c1 20c0
000000e0: 66d7 cf3f 2168 b3bf 0fec 393f 5e84 cabf
000000f0: 9245 63bf caf6 0ec0 791d 1b3e 2e80 df3e
00000100: 33cc a7bf 33d3 0540 3d6b b53f c920 9e3f
00000110: dcf6 0fbf 3e29 ddbe 58e8 4a40 307d 74bf
00000120: e96b e23e 2d52 22bf 2bcc 0ac0 f8a8 833e
00000130: 55bb c3bf 23fe 7b40 03b3 8fbf 5381 03c0
00000140: dc2d 013f 5f5d 9fbf 1d06 72be e3e8 b6be
00000150: 89e8 eabf 3bd3 c1bf e050 893f 689f 45c0
00000160: 2d0f 9f3f 67c4 85bf 8a8d fd3e fb82 91be
00000170: 791c 283f 52ed 0d40 96f6 583e 2c24 56c0
00000180: 9361 a03e 6c3f b6bf e103 70bd f02b 5cbf
00000190: c125 bb3f 10b1 ac3f 5fc9 1fbf a5ce 26c0
000001a0: 0ec8 54bf 4d69 50bf 8333 573d 63f1 16c0
000001b0: 6ee8 39c0 32e1 55c0 7dcf 513f 0658 833f
000001c0: 8491 50bf 68c5 0d3f fd0d fabf 62cc d6bf
000001d0: d652 31c0 c961 3440 4ce1 3240 1683 cfbe
000001e0: 6cd0 153d 0ad2 d53f 70af a93f e4f6 043f
000001f0: 6b5e e53e b550 bdbf cfda 3e40 e0f9 0f3f
00000200: 84d0 86bf ed28 46bf b512 503f d083 2d3f
00000210: 1bef 52bf e956 b6bf bfa6 6c3f 4913 68bf
00000220: 50a5 dabc 0b5f 983f 80f9 d8bf 5041 773f
00000230: 1b6d e23f daf7 2e40 77ad 8b3f 8664 173f
00000240: 1a31 a13d c559 5dbf 2c38 f3bf 9131 9c3f
00000250: dc27 483f c689 6cbf 242b 433f 2fe2 d53f
00000260: 4ade 0b40 4ea5 933f 7a92 d7bf 06b8 09c0
00000270: 9d35 b1bf 0f82 ccbf b9bb 2840 cfc3 08c0
00000280: 688f 19c0 d5a6 2ebf 9b29 d3bf 9a95 7e3e
00000290: 0f9f 74bf 1f73 d33e 798e edbf 3f26 4040
000002a0: c585 40bf 6a94 eabf 63a5 b2bf 2665 79bc
000002b0: 5062 20be 7cce e1bd 2956 c73e 51e3 6a3f
000002c0: 0298 00c0 1e07 92bf b6b9 343e 068d 1ec0
000002d0: 17df b03e 77f1 79bf 277a 19c0 8beb 733e
000002e0: 4590 3740 9dd0 98bf 4ecc 1abf 1987 a2be
000002f0: 891e c83e 3fad a4bd 21f5 5abf b6fd 193f
00000300: 6224 d3bf 3e5f 94bf beea c23e 5181 8e3f
00000310: 92b0 df3e 6f0f 30bf 06ab 3640 be8b ae3e
00000320: 5de7 a0bf 29fc 5b3f bcfb 3e3f b3a9 63be
00000330: 6805 cabf c9fe 573f 509e 833f 6957 3ec0
00000340: 9578 f83e ccf6 2e3f 8949 0b40 1df8 b5bf
00000350: 78ff 393f 2cc9 c2bf f96e 48c0 920d 153f
00000360: f904 68bf 8cc0 15c0 494d 633f dbc4 ae3f
00000370: 70e7 92be c829 ffbd f9d4 cc3e a36d 8dbf
00000380: c8c5 8f3f 62c4 d63c 3a8b bcbd c6da 90bf
00000390: c9e9 84bf 3f78 75bf 3812 00c0 0191 8bbe
000003a0: 2bf2 c03f cd9c 3bc0 e679 62bf ae7f 56bd
000003b0: 36b9 e53e 1c0e f63e b9e8 8fbd 3e9b 6ebf
000003c0: 9e97 763e 67c8 91bf 0689 97be 9d95 0340
000003d0: 6240 2e40 d936 a03f 05a9 97bf cc3d e5be
000003e0: db43 ee3d f959 c23f 504c 533e d41b 7abf
000003f0: 3dda 133e df56 e5bf 9e4f 0d40 bef0 27c0

bias f4 [64]
0.25598204 0.37404218 0.16336484 0.3358651 0.08293085 0.33124363 0.34212255 0.12561221
0.34279078 -0.30344722 0.18776147 0.14251353 0.2548793 -0.0042692255 0.19567405 0.3366608
0.4978346 0.0010380823 0.33399943 0.28125927 0.18166754 0.5493538 -0.13671498 0.22179197
0.3251414 -0.028476367 0.1384472 0.25806195 -0.1978126 -0.020723114 0.45903248 -0.16467458
0.026453413 0.5085367 -0.16781689 0.37826207 0.051488914 0.3106092 0.23146932 0.31842342
0.0886681 0.18125458 0.24745294 0.077679165 0.21218888 0.09149047 0.1577519 0.11529156
0.05491612 0.43137062 0.18433869 0.0036843582 -0.014026382 0.43534052 0.09646294 0.054254495
0.06681923 0.12919699 0.22017987 0.055083495 -0.13602644 0.08866209 0.24937442 -0.122528344
00000000: 1410 833e 7582 bf3e 1d49 273e 83f6 ab3e
00000010: a6d7 a93d c498 a93e b02a af3e 7da0 003e
00000020: 4682 af3e 6f5d 9bbe 8b44 403e 11ef 113e
00000030: 8a7f 823e dce4 8bbb c75e 483e ce5e ac3e
00000040: 2de4 fe3e 4310 883a f901 ab3e 3701 903e
00000050: 0e07 3a3e 73a2 0c3f 03ff 0bbe 6f1d 633e
00000060: ef78 a63e 4547 e9bc 1ac5 0d3e b220 843e
00000070: 638f 4abe 85c3 a9bc 4e06 eb3e 74a0 28be
00000080: d4b4 d83c 762f 023f 31d8 2bbe 91ab c13e
00000090: 0ae6 523d 2b08 9f3e 4b06 6d3e 6508 a33e
000000a0: 9f97 b53d cd9a 393e 4e64 7d3e 4116 9f3d
000000b0: 0b48 593e 5b5f bb3d b789 213e fb1d ec3d
000000c0: baef 603d 9cdc dc3e 48c3 3c3e 4675 713b
000000d0: e9ce 65bc f4e4 de3e 5d8e c53d f639 5e3d
000000e0: 85d8 883d 374c 043e d576 613e 3b9f 613d
000000f0: 844a 0bbe 7894 b53d 025c 7f3e 24f0 fabd

weight f4 [128, 64]
0.2562521 1.1184735 -0.091063164 0.34607482 0.7688749 0.47219393 -0.2749487 0.09166089
-0.28911656 0.5104926 0.34392282 0.096558206 -1.3067145 0.20567253 0.02869943 1.3924307
0.3300459 0.67567664 0.1475184 -0.62913305 0.61012834 0.28893283 0.05511215 0.11401071
1.1843047 0.1718381 -0.7122144 1.0587534 0.50577223 -0.36985385 -0.052910157 1.4988936
0.9233596 0.9586519 0.6065948 -0.54830265 1.2449147 0.104064964 0.33398843 0.21333559
0.057784878 -0.6149353 -0.14686835 0.15886484 0.22157077 -0.11510219 0.102917686 -0.3876235
0.4519586 -1.4811246 0.23902036 0.66159254 -0.3367813 0.17736042 -1.4347404 0.12831217
0.3176708 0.16104418 -0.1283243 -0.38113272 -0.52938914 0.3753953 1.1145681 0.48449713
-1.2718953 1.6360785 -0.26908752 -0.8072735 1.98945 0.9578438 0.5548431 0.65870816
0.61900365 0.75708956 0.8379585 -0.5645186 0.8985613 -1.6412188 -0.48067445 -0.5980595
-0.4227432 -0.37370062 1.1073631 -1.0950303 0.44271418 -1.1441426 0.15606114 0.70274955
1.3035713 0.46083492 -0.77746695 -1.7389346 0.43842527 -1.6347119 -0.039817903 0.5251323
-0.970941 1.149661 0.9601819 -0.3575409 -0.6123782 0.26215968 -0.29480252 -0.36582196
-1.0561788 -0.29365084 0.18199855 0.725718 0.6150269 -0.19317058 1.8795332 0.088522
-1.623595 1.6257509 -1.2932346 -0.41378367 -0.30557552 -1.2788922 0.6294879 -0.03783494
-0.36113703 0.18167147 -1.1359943 0.40928417 -0.18503958 0.65525544 -0.87261945 1.379997
0.76600164 1.7301174 0.3673159 0.103611715 0.35988492 -0.86013776 -0.85161525 -0.23813176
0.40911266 0.20921749 0.011295739 -0.33451447 1.3114756 0.68376184 0.3987885 0.09875126
-0.35122597 0.10252115 0.6773015 -0.35172853 0.8147654 0.6825156 -0.24942146 -0.013821485
0.20752497 0.21187818 0.31654277 -1.7501984 -0.9554801 0.66666794 0.89969194 0.6647299
-0.38332415 1.0801114 -0.08745662 -0.7430073 1.6060598 0.71890855 -0.7579865 0.03511274
-0.4908406 0.06294354 -0.16840006 0.176269 0.3462947 0.80315703 0.44036886 0.14193612
-1.3210616 -0.008219414 0.6424636 -0.7402784 0.2723225 0.14596377 0.3080061 0.025702538
1.2055532 -0.23594308 -0.28150845 0.73909086 -0.28343368 -0.8970038 -0.06736441 0.7309433
0.8217327 -1.022221 -0.85767347 1.3776687 0.53434926 0.69595367 0.9367 0.17407264
0.7812871 0.850436 -0.098258 0.39215916 1.1000488 0.51469016 1.4198719 0.36234805
-0.16875187 1.18873 -1.3563325 0.13622946 0.64676034 -1.7527364 0.32760942 0.29112703
0.11595016 0.31391644 0.38133132 1.1023588 -0.0615974 0.780545 0.15726438 -1.4777552
-1.0414569 0.15731479 0.61811465 -0.18877272 -1.1153291 -0.5626999 0.22431271 0.41071227
0.45815042 -0.44182828 0.9348198 -0.7959079 0.14051278 -0.5217768 0.07436597 -0.53089345
0.30712563 0.21000385 0.6633342 0.4569791 0.4531293 0.3059398 -1.1194204 0.18262164
0.8288254 -0.5191451 1.4805912 -0.8806213 0.74093467 -0.27887645 -0.09265844 -1.0994939
00000000: 7a33 833e 242a 8f3f 537f babd b830 b13e
00000010: fcd4 443f 67c3 f13e 13c6 8cbe b4b8 bb3d
00000020: 1607 94be a5af 023f a716 b03e 4fc0 c53d
00000030: 6c42 a7bf d29b 523e 111b eb3c 2b3b b23f
00000040: c7fb a83e 25f9 2c3f 100f 173e dd0e 21bf
00000050: 5f31 1c3f 01ef 933e 47bd 613d 727e e93d
00000060: 4c97 973f 54f6 2f3e af53 36bf 3b85 873f
00000070: 4a7a 013f 7c5d bdbe 52b8 58bd bfdb bf3f
00000080: 4b61 6c3f 366a 753f cc49 1b3f 905d 0cbf
00000090: 5d59 9f3f 0320 d53d 8800 ab3e a574 5a3e
000000a0: d6af 6c3d 666c 1dbf a864 16be 77ad 223e
000000b0: 73e3 623e b2ba ebbd 82c6 d23d 9676 c6be
000000c0: 1e67 e73e 7e95 bdbf c1c1 743e 215e 293f
000000d0: 996e acbe f89d 353e 93a5 b7bf 4464 033e
000000e0: bfa5 a23e c4e8 243e 7267 03be d423 c3be
000000f0: 0c86 07bf d033 c03e 2baa 8e3f 0210 f83e
00000100: 77cd a2bf 056b d13f d7c5 89be 7aa9 4ebf
00000110: 4ca6 fe3f 4035 753f 330a 0e3f 19a1 283f
00000120: 0677 1e3f 9fd0 413f 7384 563f 4a84 10bf
00000130: 1d08 663f 7513 d2bf f61a f6be 6d1a 19bf
00000140: cc71 d8be b055 bfbe 13be 8d3f f429 8cbf
00000150: 6fab e23e 4473 92bf 7ece 1f3e 65e7 333f
00000160: 6ddb a63f 8ef2 eb3e 1308 47bf 6995 debf
00000170: 4779 e03e 3d3e d1bf 1918 23bd 126f 063f
00000180: 978f 78bf 1728 933f 7bce 753f 9a0f b7be
00000190: d1c4 1cbf cb39 863e 5bf0 96be 044d bbbe
000001a0: de30 87bf 6759 96be d45d 3a3e a8c8 393f
000001b0: 6772 1d3f 82ce 45be 8b94 f03f 064b b53d
000001c0: f6d1 cfbf 9b18 d03f b688 a5bf 74db d3be
000001d0: 6574 9cbe bdb2 a3bf 1e26 213f cff8 1abd
000001e0: f4e6 b8be 1608 3a3e 4368 91bf b28d d13e
000001f0: 047b 3dbe d2be 273f fd63 5fbf bea3 b03f
00000200: af18 443f 7d74 dd3f d410 bc3e 6132 d43d
00000210: d642 b83e fd31 5cbf 7503 5abf d0d8 73be
00000220: 3777 d13e 1c3d 563e c311 393c 7b45 abbe
00000230: 6fde a73f 040b 2f3f 022e cc3e 1a3e ca3d
00000240: e4d3 b3be 9cf6 d13d a263 2d3f c315 b4be
00000250: 7794 503f 58b9 2e3f 5768 7fbe 8373 62bc
00000260: 6d81 543e 98f6 583e e511 a23e 8006 e0bf
00000270: 589a 74bf c0aa 2a3f 3652 663f bd2b 2a3f
00000280: 1043 c4be 1741 8a3f 751c b3bd ba35 3ebf
00000290: 5e93 cd3f 640a 383f 670b 42bf 60d2 0f3d
000002a0: 764f fbbe 8be8 803d 1171 2cbe dc7f 343e
000002b0: 8a4d b13e b39b 4d3f 0778 e13e b457 113e
000002c0: 8c18 a9bf b9aa 06bc 7f78 243f e382 3dbf
000002d0: db6d 8b3e 8777 153e fab2 9d3e 218e d23c
000002e0: 914f 9a3f 109b 71be e021 90be 0f35 3d3f
000002f0: 381e 91be 0ba2 65bf 5af6 89bd 1a1f 3b3f
00000300: 135d 523f 23d8 82bf 7d90 5bbf 7357 b03f
00000310: 1dcb 083f 052a 323f 92cb 6f3f 1940 323e
00000320: 6e02 483f 2cb6 593f 7e3b c9bd 16c9 c83e
00000330: 66ce 8c3f bcc2 033f 5dbe b53f af85 b93e
00000340: 4acd 2cbe 4e28 983f 4e9c adbf bc7f 0b3e
00000350: 1692 253f ab59 e0bf 6cbc a73e 9a0e 953e
00000360: 4777 ed3d a8b9 a03e dc3d c33e 181a 8d3f
00000370: 8e4d 7cbd ccd1 473f ea09 213e 1527 bdbf
00000380: 764e 85bf 2117 213e c33c 1e3f a34d 41be
00000390: 1bc3 8ebf 1a0d 10bf 3bb2 653e e148 d23e
000003a0: b192 ea3e 5137 e2be 5a50 6f3f 9fc0 4bbf
000003b0: 95e2 0f3e 2a93 05bf 304d 983d a2e8 07bf
000003c0: 923f 9d3e 400b 573e 45d0 293f 2af9 e93e
000003d0: 9000 e83e 24a4 9c3e 2b49 8fbf 2b01 3b3e
000003e0: e72d 543f b1e6 04bf 0384 bd3f 6670 61bf
000003f0: e5ad 3d3f e5c8 8ebe b5c3 bdbd 37bc 8cbf

bias f4 [128]
0.061021037 -0.03523968 0.0012079957 -0.09337244 -0.00042751583 -0.15223083 0.0053036343 -0.1667127
0.8107551 -0.06297276 0.40420315 0.937467 -0.22194782 -0.2433261 -0.23100175 -0.28193623
-0.19182023 -0.08846857 -0.09891152 0.073979706 -0.026429739 -0.12701695 -0.1697251 -0.03379855
0.14888294 0.1152785 -0.1638799 0.10866395 -0.055496316 -0.08020707 -0.010589403 -0.064819016
-0.13378347 -0.0028079208 -0.073146984 -0.19137448 -0.0118269855 0.01988295 0.079437464 -0.038285144
0.3360024 0.13315369 0.03743479 0.1662139 -0.016098352 0.046350613 0.37468496 0.030323843
-0.078285575 -0.065864496 0.1033888 0.10796034 -0.233073 -0.04944784 -0.3412157 -0.22522995
0.4492345 0.014764179 0.7088446 0.016961701 0.24961041 -0.13212025 -0.12522954 -0.059372313
-0.016651182 -0.019549116 -0.18266268 -0.11395868 -0.1061221 -0.1633254 -0.045045808 -0.022287942
0.23066647 0.18616429 0.04271342 0.49532866 0.0017655722 -0.18122981 -0.045547225 -0.12708801
0.02970021 -0.1095766 -0.059306893 -0.039906498 0.00805355 -0.10658864 -0.23447658 -0.20057672
0.120264806 0.47443077 -0.027565721 0.5710017 -0.11195612 -0.08973572 -0.21384308 -0.18876386
-0.09473162 -0.06890766 -0.18234096 -0.21887039 -0.2364437 -0.20140696 -0.21505138 -0.11926581
1.0468446 0.01571509 0.062202677 0.2642352 -0.1904683 -0.071365625 -0.11653676 -0.13508613
-0.1960269 -0.11211816 -0.026468728 -0.048664205 -0.07430618 -0.26601687 -0.092363335 -0.104493245
0.123196855 0.013219632 -0.15348004 0.26260862 0.01686246 -0.036321957 0.018786041 -0.06270527
00000000: 32f1 793d 7c57 10bd 9c55 9e3a 0d3a bfbd
00000010: 3424 e0b9 66e2 1bbe 1cca ad3b bcb6 2abe
00000020: a58d 4f3f ddf7 80bd b7f3 ce3e d6fd 6f3f
00000030: 4a46 63be 7a2a 79be b98b 6cbe f259 90be
00000040: 866c 44be 022f b5bd 1f92 cabd ac82 973d
00000050: 2e83 d8bc bb10 02be 6bcc 2dbe 5970 0abd
00000060: c574 183e 2217 ec3d 22d0 27be 348b de3d
00000070: 1b50 63bd 9b43 a4bd 2d7f 2dbc d5bf 84bd
00000080: 89fe 08be 1805 38bb 16ce 95bd acf7 43be
00000090: f9c5 41bc 91e1 a23c 1cb0 a23d e2d0 1cbd
000000a0: 8208 ac3e 7159 083e 3955 193d fa33 2a3e
000000b0: b1e0 83bc 24da 3d3d b5d6 bf3e b569 f83c
000000c0: 3054 a0bd f7e3 86bd 82bd d33d 501a dd3d
000000d0: b0aa 6ebe d189 4abd d3b3 aebe aea2 66be
000000e0: 1002 e63e 74e5 713c d776 353f 44f3 8a3c
000000f0: df99 7f3e 884a 07be 2c3c 00be 6230 73bd
00000100: 0f68 88bc 7825 a0bc ed0b 3bbe 2b63 e9bd
00000110: 8b56 d9bd c63e 27be f481 38bd 3495 b6bc
00000120: d533 6c3e daa1 3e3e 44f4 2e3d b89b fd3e
00000130: c66a e73a 4f94 39be ba8f 3abd 5c23 02be
00000140: db4d f33c b269 e0bd c9eb 72bd ff74 23bd
00000150: 09f3 033c 254b dabd a11a 70be fc63 4dbe
00000160: 654d f63d 97e8 f23e 82d1 e1bc 2b2d 123f
00000170: 4049 e5bd 5cc7 b7bd aef9 5abe 504b 41be
00000180: a702 c2bd 761f 8dbd 97b7 3abe 8f1f 60be
00000190: 4c1e 72be a03d 4ebe 6e36 5cbe a241 f4bd
000001a0: 01ff 853f efbc 803c 3cc8 7e3d d649 873e
000001b0: 1f0a 43be 2428 92bd d3aa eebd 0554 0abe
000001c0: 47bb 48be 359e e5bd f2d4 d8bc 1e54 47bd
000001d0: d72d 98bd 5d33 88be fd28 bdbd 8e00 d6bd
000001e0: a24e fc3d 2897 583c df29 1dbe a374 863e
000001f0: 2423 8a3c 55c6 14bd 2fe5 993c 9f6b 80bd
