trained_models/5/doom-model.pth (torch, 106629 bytes, 27 tensors)

weight f4 [8, 1, 3, 3]
0	0x3ecdc48f	0.40189025
1	0x3fc40a05	1.5315558
2	0x3fb6409b	1.4238466
3	0x3f0fe186	0.56203496
4	0x3f19d13c	0.6008489
5	0xbf5370f6	-0.8259424
6	0xbfb4ee35	-1.4135195
7	0xbf9bc611	-1.216982
8	0xc0540622	-3.3128743
9	0x3fab87e5	1.3400847
10	0x3f0b5ba7	0.54436725
11	0xbee97c61	-0.45602706
12	0x400eeb63	2.2331169
13	0x40180bd3	2.3757217
14	0x3e4d0c98	0.20024335
15	0xbffd3dd9	-1.97845
16	0xbf681a14	-0.9066479
17	0xbf9e85d7	-1.2384595
18	0x3f25de44	0.64792275
19	0xc02124b3	-2.517865
20	0xbfe500a3	-1.7890819
21	0x4021ea5d	2.5299294
22	0xbff50c3a	-1.9144356
23	0xbf99b1c8	-1.200738
24	0xbde62b7d	-0.112387635
25	0xbfe85883	-1.8152012
26	0x3fc1c022	1.5136759
27	0x4048fcbc	3.1404257
28	0x3ec57886	0.38568515
29	0xbf2e1384	-0.6799853
30	0xc02224bc	-2.533492
31	0xbf7deb5b	-0.9918725
32	0xc0acbbae	-5.39791
33	0x3fd98b7a	1.699569
34	0xbf1a5b33	-0.6029541
35	0x3fb480a8	1.4101763
36	0x3eec1101	0.46106723
37	0x3e3e1798	0.18563688
38	0x3f30ad79	0.690147
39	0xc062bc24	-3.5427332
40	0x3ea3f531	0.32023004
41	0xbfcc1693	-1.5944389
42	0xbf2c2d58	-0.6725669
43	0x3f8ef208	1.1167612
44	0xbf98c13c	-1.193397
45	0xbf07df5b	-0.5307519
46	0xc05c8d07	-3.4461076
47	0x3f07df73	0.5307533
48	0x3f5ed0d8	0.8703742
49	0x4062942c	3.5402937
50	0xbf80a646	-1.0050743
51	0xc0263ad4	-2.5973406
52	0xbf17b8ba	-0.59266245
53	0x3e44b0fb	0.19208138
54	0xc0357483	-2.8352363
55	0x402f2b84	2.737031
56	0xbfdd5bfc	-1.7293696
57	0x3f0b59b1	0.54433733
58	0x3f9ea882	1.2395175
59	0xbf236338	-0.6382327
60	0xbedb0f87	-0.42785284
61	0xbf774df6	-0.96603334
62	0xc014d474	-2.325467
63	0xbffbe536	-1.9679325
64	0x4013fa96	2.3121696
65	0xbe8e44d3	-0.27786884
66	0xbfd4d5fd	-1.6627804
67	0x400bb01e	2.1826243
68	0xbf8c2f56	-1.0951946
69	0x3e4c9316	0.19977984
70	0x405313c7	3.298082
71	0x3e661203	0.22467808

weight f4 [8]
0	0x406b4056	3.6758018
1	0x402b0afc	2.6725454
2	0x4053baa5	3.3082669
3	0x40803463	4.006395
4	0x4069b07a	3.6513963
5	0x40488edd	3.1337197
6	0x404d9a23	3.2125328
7	0x4019e6f6	2.4047217

bias f4 [8]
0	0xbf50c211	-0.8154612
1	0xbec6c3a2	-0.3882113
2	0x3e2ca978	0.16861522
3	0x3e21e3e0	0.15809584
4	0xbf57afae	-0.8425244
5	0xbf206bca	-0.62664473
6	0x3f8c7d95	1.0975825
7	0x3edc7171	0.430553

running_mean f4 [8]
0	0xbeb295b2	-0.34879833
1	0x3e880871	0.2656894
2	0xbf266244	-0.6499369
3	0xbefa8fcc	-0.48937833
4	0xbf19ae72	-0.6003181
5	0xbed69569	-0.41910866
6	0xbf28e90f	-0.6598062
7	0x3ee217ca	0.44158775

running_var f4 [8]
0	0x3dc774e4	0.09739092
1	0x3d37f215	0.0449086
2	0x3dce87ba	0.100844815
3	0x3dba669e	0.09101604
4	0x3d97b458	0.07407445
5	0x3d2400a1	0.040039662
6	0x3db793d7	0.08963745
7	0x3d9390f4	0.07205382

weight f4 [8, 8, 3, 3]
0	0x3f107013	0.5642101
1	0x3f1793ad	0.5920971
2	0x3d55b68d	0.052176047
3	0xbf6b8bbd	-0.920101
4	0x3c4d0594	0.012513537
5	0xbfa2f30b	-1.2730421
6	0x3e986eb3	0.29771957
7	0xbf6fc601	-0.93661505
8	0x3fa45f50	1.2841587
9	0xbd0917fe	-0.033470146
10	0x3de18730	0.11012113
11	0xbf6e912d	-0.9319027
12	0x3dfa65ca	0.12226446
13	0xbdffe976	-0.12495701
14	0xbef900ab	-0.48633322
15	0xbddf8826	-0.1091464
16	0x3e88b12c	0.2669767
17	0xbf8974ae	-1.0738733
18	0x3d924f33	0.07144012
19	0x3ddefd44	0.1088815
20	0x3fc1c8cf	1.5139407
21	0xbf661bcc	-0.89886165
22	0x3fa7a0ac	1.3095908
23	0xbeed7ddf	-0.46385095
24	0xbf07b0ff	-0.5300445
25	0x3f0edb6c	0.5580356
26	0xbe35c939	-0.17752542
27	0x3e999e07	0.30003378
28	0x3ede9881	0.43475726
29	0x3ed9bc2e	0.42526382
30	0x3b44f844	0.0030055204
31	0x3efef814	0.49798644
32	0x3fd6ca16	1.6780422
33	0xbf44b5b1	-0.7683974
34	0x3eddda2e	0.4333052
35	0x3f8211d1	1.0161687
36	0xbfde8646	-1.7384727
37	0x3dad751e	0.08469604
38	0xbe31ef20	-0.17376375
39	0xbf9b66c3	-1.2140735
40	0xbe9f7e0d	-0.31150857
41	0xbe8567c4	-0.2605573
42	0xbfd12f60	-1.6342583
43	0xbe1dc02d	-0.1540534
44	0x3f463f9e	0.7744082
45	0xbf6311b9	-0.8869892
46	0xbe374e37	-0.1790093
47	0x3f09b089	0.53784996
48	0xbee8f799	-0.45501402
49	0x3d91cead	0.071194984
50	0xbeb04e70	-0.34434843
51	0xbf3920af	-0.72315496
52	0x3f03bf4d	0.51463777
53	0xbe6df071	-0.23236252
54	0xc0126808	-2.2875996
55	0xbf161ebf	-0.58640665
56	0xbf30338a	-0.6882864
57	0xbfdc8bdc	-1.7230182
58	0xbfb80fec	-1.4379859
59	0xbf53b612	-0.8269969
60	0xbeafba08	-0.34321618
61	0x3e0e5c46	0.13902387
62	0x3dfe7273	0.12424173
63	0xbeefaa64	-0.46809685
64	0x3f384744	0.7198374
65	0xbec504a9	-0.38480118
66	0xbf9bfc35	-1.2186342
67	0xbf1fef83	-0.6247484
68	0x3eb55424	0.35415757
69	0xbfaddae2	-1.3582423
70	0xbf33b970	-0.7020483
71	0xbe98bbe6	-0.29830855
72	0xbe89ec9c	-0.2693833
73	0x3f1e2c48	0.6178632
74	0x3ebd1e4d	0.3693718
75	0xbd24e23f	-0.040254828
76	0xbf2b49c3	-0.66909426
77	0xbeb75921	-0.35810187
78	0x3f9e0c2e	1.2347467
79	0xbf368050	-0.7128954
80	0xbf9405af	-1.1564234
81	0xbf90eb3d	-1.1321789
82	0x3cd48d72	0.025946353
83	0xbeff969d	-0.49919596
84	0xbf962896	-1.1731136
85	0xbf98265f	-1.188671
86	0x3d008d2d	0.031384636
87	0xbd81095f	-0.063006155
88	0x3e82b9f7	0.25532505
89	0x3dc0f580	0.094218254
90	0x3ef1ae18	0.47203135
91	0xbfa55eb3	-1.2919525
92	0x3e3a49c6	0.18192205
93	0xbf7712ff	-0.9651336
94	0x3d4d80c4	0.05017163
95	0x3f004432	0.5010406
96	0x3f001558	0.5003257
97	0x3f9c28dd	1.219997
98	0xbd2b2c28	-0.041790158
99	0x3d086b6a	0.033305563
100	0xbc5cde9d	-0.0134808095
101	0x3ec6ddc9	0.38841084
102	0x3e19bd12	0.15013531
103	0xbfd5a408	-1.6690683
104	0x3f285d8d	0.6576775
105	0xc002488a	-2.0356774
106	0x4011d09d	2.2783577
107	0x3fa7e19b	1.3115724
108	0xbe9c9cf0	-0.30588484
109	0x3f6869f8	0.90786695
110	0x3f065445	0.52472335
111	0x3e488398	0.19581449
112	0xbe23ac99	-0.1598381
113	0xbed885f0	-0.42289686
114	0xbf8874a1	-1.0660592
115	0xbf92de75	-1.1474138
116	0x3ec85f83	0.3913537
117	0x3f57455a	0.840902
118	0x3f9241cd	1.1426331
119	0x3f52f3dd	0.82403356
120	0xbe34e359	-0.17664851
121	0x3f1ee6fe	0.62071216
122	0x3e83b9a4	0.2572757
123	0xbe8c15c6	-0.27360362
124	0xbe386604	-0.18007666
125	0xbff85856	-1.9401958
126	0x3fabe128	1.3428087
127	0xbec02c51	-0.3753381
128	0x3f0f74f3	0.56037825
129	0x3e0e9bef	0.13926671
130	0xbe6f4ad3	-0.23368387
131	0xbea6c208	-0.3256991
132	0xbeffec7c	-0.4998511
133	0xbd895dd6	-0.06707351
134	0xbe932b13	-0.287438
135	0x3bd4d2dd	0.0064948634
136	0xbfb6ff7a	-1.4296715
137	0x3e574fbc	0.2102651
138	0x3f4a3381	0.7898484
139	0xbf7bba6b	-0.98331326
140	0x3ea8a1bd	0.32935897
141	0xbfc40b09	-1.5315868
142	0xbf24e51a	-0.6441208
143	0xbf5b32c5	-0.85624343
144	0x3f568962	0.8380338
145	0xbe6beb00	-0.23038864
146	0x3ea1fafd	0.316368
147	0x3fafa7c2	1.3723071
148	0x3cf45061	0.029823484
149	0xbd9496dc	-0.07255337
150	0xbf097e28	-0.53708124
151	0x3f0091d8	0.5022254
152	0xbe80f210	-0.2518468
153	0x3fc0d40f	1.5064715
154	0x3f093217	0.53592056
155	0xbf5a12ed	-0.8518513
156	0x3f6e8079	0.93164784
157	0xbf9170a5	-1.1362501
158	0xbf40c4a4	-0.7530005
159	0x3f31ecf6	0.695022
160	0x3dd793a2	0.105262056
161	0xbf91d584	-1.1393285
162	0x3f17822a	0.5918299
163	0x3fe998a5	1.8249708
164	0x3ca795d3	0.020457184
165	0x3dd53d85	0.104121245
166	0x3ea19ebe	0.31566423
167	0xbc2fad04	-0.0107224025
168	0xbdad9f0a	-0.084776
169	0xbf52e3c0	-0.8237877
170	0x3dc92775	0.09821979
171	0x3fdc69d9	1.7219802
172	0x3fd3fe7f	1.6562041
173	0xbf41e88a	-0.7574545
174	0xbdf737db	-0.120712005
175	0xbf94a969	-1.16142
176	0x3d558627	0.05212989
177	0xbf3a3dec	-0.72750735
178	0xbf211b40	-0.62932205
179	0xbf848869	-1.0354129
180	0x3f2825c1	0.6568261
181	0x3ed03a85	0.40669647
182	0x3ebd739e	0.3700227
183	0x3f84fe32	1.0390074
184	0xbdf49051	-0.11941589
185	0xbeb6b820	-0.3568735
186	0x3f1b08f5	0.6056054
187	0x3e2c272e	0.16811821
188	0x3f20f0be	0.62867343
189	0x3ea7ca07	0.32771322
190	0xbe1855c2	-0.14876464
191	0x3f1b5732	0.60679924
192	0xbe1393d5	-0.14411862
193	0xbf47dc4a	-0.7807051
194	0x3dd0c1e1	0.101932295
195	0xbe8d18a4	-0.27557862
196	0xbf6b8c4a	-0.9201094
197	0xbed615e7	-0.41813585
198	0x3dabeaf2	0.08394422
199	0x3e93c6af	0.2886252
200	0x3f516b87	0.818047
201	0x3fbcfb5a	1.4764206
202	0xbf00d37d	-0.50322706
203	0xbf3236c2	-0.69614804
204	0x3e2d5d97	0.16930233
205	0x3ebc5a4b	0.36787638
206	0x3ed38af4	0.4131695
207	0x3f6bdd2a	0.92134345
208	0xbf0465f9	-0.517181
209	0xbf27297c	-0.65297675
210	0x3f827aea	1.019376
211	0x3fe47e95	1.785113
212	0x3afb52e2	0.0019174481
213	0x3df19a53	0.11797013
214	0x3fafd366	1.3736389
215	0xbf9131a0	-1.1343269
216	0x3e9471d1	0.28993085
217	0xbfa2a335	-1.2706057
218	0x3e9df1cb	0.30848536
219	0x3dfaf168	0.12253076
220	0xbe19f45c	-0.15034622
221	0x3fa82d18	1.3138762
222	0xbfd93dd2	-1.6971991
223	0x3e306bfb	0.17228691
224	0x3e9392b3	0.2882286
225	0xbfd51859	-1.6648055
226	0x3e9a84d9	0.3017948
227	0x3fb440e1	1.40823
228	0xbea23a2a	-0.31685
229	0xbeeaaf64	-0.45836937
230	0xbe63328a	-0.22187248
231	0xbeaf52fb	-0.34242997
232	0xbeb867ce	-0.36016697
233	0xbf0a42b3	-0.54008025
234	0x3f6eaf32	0.93236077
235	0x3fa399f4	1.2781358
236	0xbf5c6a72	-0.8609992
237	0x3f5aa39d	0.85405904
238	0xbf8a7928	-1.0818224
239	0xbfbbbba8	-1.4666643
240	0x3ec6dfe3	0.38842687
241	0xbf962325	-1.1729475
242	0x3f26e0e4	0.65186906
243	0xbea0248d	-0.31277886
244	0x3fb4b560	1.4117851
245	0x3eb9ffad	0.36327878
246	0x3fb33101	1.399933
247	0xbfe7fa4c	-1.812326
248	0x3ffddc63	1.9832882
249	0xbd3c8440	-0.04602456
250	0xbfc7627b	-1.5576929
251	0x3dfb81dd	0.12280629
252	0x3ed6a863	0.41925344
253	0xbd9ef467	-0.0776146
254	0xbe630394	-0.22169334
255	0x3ed70023	0.41992292

weight f4 [8]
0	0x401988ed	2.3989823
1	0x4030bdfc	2.7615957
2	0x402f5a47	2.739885
3	0x403e1c9b	2.970496
4	0x4037417c	2.8633718
5	0x406f0050	3.734394
6	0x403200ab	2.7812908
7	0x405841f1	3.3790247

bias f4 [8]
0	0x3efd03c8	0.49416947
1	0x3bd6d3dc	0.0065560173
2	0xbf6a4362	-0.9150907
3	0xbe8c14dd	-0.27359667
4	0x3ead479e	0.33843702
5	0xbf813122	-1.0093119
6	0x3f23f289	0.64041954
7	0xbe8ac65d	-0.27104464

running_mean f4 [8]
0	0xc1902107	-18.016127
1	0xc0101695	-2.2513783
2	0x413ab44e	11.66902
3	0xc12b8890	-10.72084
4	0xc18bfdb0	-17.49887
5	0xc19a5629	-19.29207
6	0xc077b495	-3.8703969
7	0x3e6da345	0.23206814

running_var f4 [8]
0	0x43077df9	135.49208
1	0x42a92586	84.57329
2	0x42ea9f8f	117.31164
3	0x42ef3f13	119.62319
4	0x4347cb8f	199.79515
5	0x4333df26	179.87167
6	0x42ee7c25	119.24247
7	0x431d18ca	157.09683

weight f4 [8, 8, 3, 3]
0	0xbe1810fe	-0.14850232
1	0x3f34c235	0.70608836
2	0x3dabf17f	0.08395671
3	0x3d018192	0.03161771
4	0xbe0c501e	-0.13702437
5	0x3dff82df	0.124761336
6	0x3f85a0e3	1.0439724
7	0x3dcdbdd5	0.10045973
8	0xbf8219e7	-1.0164155
9	0xbfe9b569	-1.8258487
10	0x3e564ebc	0.20928472
11	0x3f23f15a	0.6404015
12	0x3f92db8e	1.1473253
13	0x3f6fda3c	0.93692374
14	0xbf4a43c1	-0.79009634
15	0x3eb8db15	0.36104646
16	0x3d1f7244	0.03892733
17	0x3eac803f	0.33691594
18	0x3fddc4bd	1.7325665
19	0xbf82309b	-1.0171083
20	0x3f6fe9bb	0.9371602
21	0x3e6d8c9b	0.23198168
22	0xbfb5f41f	-1.4215125
23	0xbe06db51	-0.131696
24	0x3ccd4ac1	0.02506006
25	0x3f0451cc	0.5168731
26	0x3e7023d1	0.23451163
27	0x3f1b8a13	0.6075756
28	0xbeb3af89	-0.3509486
29	0xbdd433bd	-0.10361431
30	0xbf92740b	-1.1441664
31	0xbfe65795	-1.7995478
32	0x3f20f0ae	0.6286725
33	0xbf5b264a	-0.856053
34	0xbe56c593	-0.20973806
35	0x3d322772	0.04349465
36	0x3f27d8af	0.6556501
37	0xbf9c2ee5	-1.2201811
38	0xbfbed7fe	-1.4909666
39	0x3e4612d0	0.19343114
40	0xbf8b46c6	-1.0880973
41	0x3ead70fe	0.3387527
42	0xbfc5977f	-1.5436858
43	0x3e0a6816	0.13516268
44	0xbe1ca045	-0.15295513
45	0x3ffd56df	1.9792136
46	0xbed7a675	-0.42119184
47	0xbf4c079a	-0.796991
48	0xbfe286f6	-1.7697437
49	0x3fb99561	1.4498712
50	0xbd98a158	-0.07452649
51	0x3ed10938	0.40827346
52	0xbf090f5e	-0.53539073
53	0xbed703c5	-0.41995063
54	0x3ea1c129	0.31592682
55	0x3ed436f9	0.4144819
56	0xbfa7c57f	-1.3107146
57	0xbf9b0324	-1.2110333
58	0x3e96f515	0.29483858
59	0x3f8cc76d	1.099836
60	0xbf8932b1	-1.0718595
61	0x3fa0ace4	1.2552762
62	0x3e6d6436	0.23182759
63	0xbf0d31e0	-0.5515423
64	0xbf629685	-0.88510925
65	0x3eef28fb	0.46710953
66	0x3fca6a5e	1.5813711
67	0xbfb0d0d0	-1.3813725
68	0x3e260ba6	0.16215381
69	0xbea08dd7	-0.31358215
70	0xbeec29bf	-0.461256
71	0xbfad4503	-1.3536686
72	0x3ef6bdb5	0.4819161
73	0xbfd1470c	-1.6349807
74	0xbfba2f79	-1.4545738
75	0xbe30c0fd	-0.17261119
76	0xbf7516e6	-0.95738065
77	0xbf05163d	-0.5198706
78	0xbe87f872	-0.26556736
79	0xbef5a468	-0.47976995
80	0x3f5377e9	0.82604843
81	0xbeed438b	-0.46340594
82	0xbf01ae17	-0.50656265
83	0x3fc1e711	1.5148641
84	0xbf0a4c60	-0.5402279
85	0xbe8adb26	-0.27120322
86	0xbe8bc0a1	-0.27295402
87	0x3f92463b	1.1427683
88	0xbf067ed2	-0.5253726
89	0xbea7ae01	-0.32749942
90	0xbe9ecaaf	-0.3101401
91	0x3e55bab0	0.20871997
92	0xbebf04a8	-0.3730824
93	0xbf730c50	-0.9494066
94	0xbf083a0b	-0.53213567
95	0xbd944457	-0.07239597
96	0x3f8e9e56	1.114207
97	0x3e8367e3	0.25665197
98	0xbf6fa7d3	-0.93615454
99	0x3f078442	0.52936184
100	0x40039e57	2.0565393
101	0xbf0bd6ed	-0.54624826
102	0x3f06d5ac	0.5266979
103	0xbf38c441	-0.7217446
104	0xbf0ee362	-0.5581571
105	0xbdcb2e36	-0.099209234
106	0x3f19740d	0.59942704
107	0xbfc3ba4b	-1.5291227
108	0x3fbaf148	1.4604883
109	0x3b8fd897	0.004389833
110	0x3f7f009e	0.99610317
111	0xbf2ad62c	-0.6673305
112	0x3fceacee	1.6146524
113	0x3eaf98af	0.34296176
114	0xbf8ee848	-1.1164637
115	0xbeb39621	-0.35075477
116	0x3f4c224a	0.7973982
117	0xbf9f1fa0	-1.2431526
118	0x3f7f65b8	0.99764585
119	0xb9c51d80	-0.00037596747
120	0xbf1d5921	-0.61464125
121	0x3dc4ce42	0.09609653
122	0x3ea62fec	0.32458436
123	0xbeb757ea	-0.3580926
124	0x3fa24f34	1.2680421
125	0xbde39894	-0.11113086
126	0xbf0a8056	-0.54102075
127	0x3f4d9147	0.802998
128	0x3de1df77	0.11028951
129	0xbfc1fc96	-1.5155208
130	0x3edb73b1	0.42861703
131	0x3eaf2092	0.34204537
132	0x3f8049cc	1.0022521
133	0x3f95a8a7	1.1692094
134	0x3c88405b	0.01663225
135	0xbf542fce	-0.82885444
136	0xbac718a0	-0.0015189834
137	0x3dca6d7f	0.09884166
138	0xbdc56ec0	-0.096402645
139	0x3f05eea4	0.5231726
140	0xbfb67b3c	-1.4256358
141	0xbdd0f5c4	-0.10203126
142	0x3cbc08dd	0.022953445
143	0x3eec383c	0.46136653
144	0xbf71e615	-0.944917
145	0x3f6f0b0b	0.93376225
146	0xbfa50b6a	-1.2894108
147	0x3edcdc89	0.43137005
148	0x3efa4e97	0.48888084
149	0xbfa4051a	-1.2814057
150	0x3eb50ce7	0.35361406
151	0xbe023cc6	-0.12718496
152	0xbf465d3f	-0.7748603
153	0xbf968c69	-1.17616
154	0x3fbdcbfe	1.4827878
155	0x3f0084d2	0.5020267
156	0xbe5e8a5a	-0.21732464
157	0xbfe72374	-1.8057694
158	0x3f6336f0	0.887557
159	0xbdf1b02b	-0.118011795
160	0xbd960a95	-0.07326237
161	0xbf3402a5	-0.70316535
162	0x3fbb7814	1.464602
163	0x3df1b3d8	0.118018806
164	0xbf9fd06b	-1.2485479
165	0x3e5a68d6	0.21329054
166	0xbf6c094e	-0.922017
167	0x3e9beeb6	0.3045556
168	0xbf4dcc32	-0.803897
169	0xbf62a036	-0.8852571
170	0x3eb6f77a	0.35735685
171	0x3ff8a087	1.9423989
172	0xbfb4511c	-1.4087253
173	0xbeb35b1d	-0.3503045
174	0xbfec7e9c	-1.8476138
175	0x3f1b2e57	0.60617584
176	0x3ed5b282	0.41737753
177	0xbd9f66af	-0.07783257
178	0x3dfe9b8a	0.124320105
179	0xbf2155bc	-0.63021445
180	0x3f2f9cb6	0.68598497
181	0xbe23ba98	-0.15989149
182	0x3ef792b2	0.48354107
183	0x3d6d5005	0.05793764
184	0x3f0c945c	0.5491388
185	0xbec583cb	-0.38577113
186	0x3f07369b	0.52817696
187	0xbeb5b72c	-0.35491312
188	0x3f32ffe8	0.6992173
189	0x3e5162b7	0.20447813
190	0xbf8f79d0	-1.1209049
191	0xbd8f5296	-0.06998174
192	0xbfa2a353	-1.2706093
193	0x3f0fd045	0.5617717
194	0xbea0a1a2	-0.31373316
195	0x3f076d5d	0.5290125
196	0xb9bd79c0	-0.000361396
197	0xbed78233	-0.42091522
198	0xbf792b2a	-0.9733149
199	0x3d8f8cab	0.07009252
200	0xbf13c8a9	-0.5772806
201	0x3f44bf25	0.76854163
202	0xbe63ddb7	-0.22252546
203	0xbf3111ea	-0.6916796
204	0x3e9a9560	0.3019209
205	0xc00c1447	-2.1887376
206	0x3f873172	1.0561965
207	0x3fb49f45	1.4111105
208	0xc0105a24	-2.2555017
209	0x3f9ea11a	1.2392914
210	0x3f43b0d7	0.7644171
211	0xbf1b0ab9	-0.60563236
212	0x3ee44fb3	0.44592056
213	0xbe95f81b	-0.29290852
214	0xbbdfddc2	-0.0068318555
215	0xbef4235f	-0.47683236
216	0xbfad4788	-1.3537455
217	0xbee4b944	-0.44672596
218	0xbf0f26cd	-0.5591858
219	0xbe79fe89	-0.24413504
220	0x3eb789a6	0.35847205
221	0xbf98d5bc	-1.1940227
222	0x3f38b9b2	0.7215835
223	0x3f9df6e8	1.2340975
224	0xbfb8dc64	-1.4442258
225	0xbfbc3918	-1.4704924
226	0xbe361d81	-0.17784692
227	0xbf2098c1	-0.62733084
228	0x3fb7a901	1.4348451
229	0x3f8a8565	1.0821959
230	0xbf1f6470	-0.6226263
231	0x3d8b9c38	0.06816906
232	0xbea77517	-0.3270652
233	0x3fa8e72c	1.3195548
234	0xbef45eed	-0.47728673
235	0xbf9c192e	-1.2195184
236	0x3f0aa00d	0.5415047
237	0x3f090ead	0.5353802
238	0x3ef3dabc	0.4762782
239	0xbe86a9db	-0.26301464
240	0xbf42aa12	-0.76040757
241	0xbf9b9431	-1.21546
242	0xbfbb2902	-1.462189
243	0xbf8c9af8	-1.0984793
244	0xbe31a580	-0.1734829
245	0x3fad168e	1.3522508
246	0x3eaf95cb	0.3429397
247	0xbf5deb7d	-0.8668745
248	0xbf5bd5c0	-0.8587303
249	0x3f65b34b	0.89726704
250	0xbf83a7c7	-1.0285577
251	0x3eec87ac	0.4619726
252	0xbe8cf28d	-0.27528802
253	0x3f748797	0.95519394
254	0x3e21e5aa	0.15810266
255	0xbf3e1ae5	-0.7425979

weight f4 [8]
0	0x403a676e	2.9125628
1	0x401e9d16	2.4783378
2	0x403d21c9	2.955187
3	0x401a6954	2.4126787
4	0x403d4259	2.9571745
5	0x403ca059	2.9472868
6	0x40286543	2.6311805
7	0x402ff0d0	2.749073

bias f4 [8]
0	0xbfbeefef	-1.4916972
1	0xbf9d62de	-1.2295797
2	0xbfd8cad2	-1.6936896
3	0xbecf6768	-0.4050858
4	0xbfc33a3f	-1.525215
5	0xbf976448	-1.1827478
6	0xbf4e6850	-0.8062792
7	0xbf8f6f04	-1.1205754

running_mean f4 [8]
0	0xc1093391	-8.575089
1	0xbfbaf668	-1.4606447
2	0xc101c476	-8.110464
3	0xbfc6968c	-1.5514693
4	0x3e198f72	0.14996126
5	0xc12d73b8	-10.840752
6	0xc1110a68	-9.065041
7	0xc0e39314	-7.111704

running_var f4 [8]
0	0x42da36b9	109.10688
1	0x42aa6bdb	85.210655
2	0x42a41340	82.0376
3	0x42ea43fb	117.132774
4	0x431c5caf	156.36205
5	0x42e0c51a	112.384964
6	0x42bec2bc	95.38034
7	0x42c3bb6f	97.86608

weight f4 [16, 8, 3, 3]
0	0x3e2b9f60	0.16760015
1	0x3f356802	0.7086183
2	0x3d961537	0.07328265
3	0x3fe764c0	1.8077621
4	0x3f1e6008	0.6186528
5	0x3f9bc674	1.2169938
6	0xbf04e8cb	-0.51917714
7	0xbf2e298b	-0.6803214
8	0x3ebc2392	0.36745888
9	0x3ee5ce89	0.44884136
10	0xbf67574d	-0.90367585
11	0xbef86e21	-0.48521522
12	0x3db60333	0.08887329
13	0xbee4d386	-0.4469263
14	0x3e999c0d	0.3000187
15	0x3f55a7e6	0.8345932
16	0xbf459cbe	-0.77192295
17	0x3e0f3882	0.139864
18	0x3f0a3ad4	0.53996015
19	0x3f3a29d2	0.7272006
20	0xbde6fbc3	-0.112784885
21	0x3f8c3be8	1.0955782
22	0xbf5e45ef	-0.8682546
23	0x3f38d07b	0.72193116
24	0xbdbe2a4d	-0.09285412
25	0x3f0ab200	0.54177856
26	0x3f33423b	0.70022935
27	0xbecea259	-0.40358236
28	0xbf4015f1	-0.7503348
29	0xbf1542c4	-0.58305
30	0x3ed9df0f	0.42552993
31	0x3eada72f	0.33916613
32	0xbe6cb6aa	-0.23116556
33	0x3e2a8f37	0.16656195
34	0xbe5227f1	-0.20523049
35	0xbf19e345	-0.6011241
36	0x3fb9325d	1.4468495
37	0x3dea2ade	0.114339575
38	0xbf428fba	-0.7600056
39	0x3f0fb622	0.5613729
40	0x3f9a740b	1.2066664
41	0x3f50a2b8	0.8149829
42	0xbbd16bf8	-0.0063910447
43	0xbef1b76d	-0.47210255
44	0x3fcb9545	1.5904928
45	0x3f0a0e5d	0.53928167
46	0x3ecb7fe2	0.39746004
47	0x3d4f40e6	0.050599
48	0x3fbe0ee0	1.484829
49	0xbf87ee35	-1.061957
50	0x3e71d03a	0.23614588
51	0x3f2b1ef3	0.668441
52	0xbf3d52a6	-0.73954237
53	0x3f951378	1.1646566
54	0xbd6e5f76	-0.058196507
55	0xbf21f360	-0.63261986
56	0xbd0b7b9b	-0.034053426
57	0x3eab3848	0.33441377
58	0x3db23bed	0.08702836
59	0x3f24b86e	0.6434392
60	0x3df89bc2	0.121390834
61	0xbed54e71	-0.4166141
62	0x3f2abcf7	0.6669459
63	0x3e84aba9	0.25912216
64	0xbf5a8233	-0.8535492
65	0x3f641f15	0.8910993
66	0x3f11d746	0.56969106
67	0xbf904f16	-1.1274135
68	0xbef01bd1	-0.46896222
69	0xbdee4df0	-0.11635959
70	0x3f083317	0.53202957
71	0x3eaf82f0	0.34279585
72	0xbf306a9a	-0.6891266
73	0xbded60df	-0.11590742
74	0x3fc9059b	1.5704836
75	0x3f194db6	0.598842
76	0xbf9b3e5f	-1.2128409
77	0xbe1ddbb0	-0.15415835
78	0x3e8c231f	0.27370545
79	0x3e268fdf	0.1626582
80	0xbbe34d5e	-0.006936713
81	0x3f1825f1	0.59432894
82	0xbf2f871f	-0.68565553
83	0xbf02337f	-0.50859827
84	0x3ed4eb01	0.41585544
85	0xbcebb1e6	-0.028771352
86	0x3f96b0a0	1.1772652
87	0xbe45e288	-0.19324696
88	0xbf33041a	-0.69928133
89	0xbedaf032	-0.4276138
90	0x3e6a8924	0.22903877
91	0x3e88eab3	0.2674156
92	0xc01452a9	-2.3175452
93	0x3ecc9740	0.39959145
94	0xbf4e9bea	-0.80706656
95	0xbeeb6234	-0.4597336
96	0x3e32cbcb	0.17460553
97	0xbdf8d44a	-0.12149866
98	0x3daa96f5	0.08329574
99	0xbf4e01eb	-0.80471677
100	0xbecb01b8	-0.3964975
101	0x3e1246b5	0.14284785
102	0x3fa2d698	1.2721739
103	0xbfab0884	-1.3361974
104	0x3f12d1fc	0.5735166
105	0x3f2b0bbd	0.66814786
106	0xbfafdf24	-1.3739972
107	0x3f8ef8d3	1.1169685
108	0xbf3a8bda	-0.72869647
109	0xbf16fdc4	-0.58980966
110	0x3f18735c	0.59551024
111	0xbe2193b5	-0.15779002
112	0x3ef8050b	0.48441347
113	0x3f0116d5	0.50425464
114	0x3dc7cbd6	0.097556755
115	0x3e0d6e85	0.13811691
116	0x3f073f98	0.5283141
117	0xbebaf8f5	-0.36518064
118	0x3faa101d	1.3286167
119	0xbf866523	-1.0499614
120	0x3b854620	0.0040671974
121	0xbf47f8ff	-0.7811431
122	0x3ea0d306	0.31410998
123	0xbf55f888	-0.83582354
124	0xbe3546c9	-0.17702784
125	0x3e7b56bc	0.24544805
126	0x3eb715da	0.3575886
127	0xbe54ebe8	-0.20793116
128	0xbf325af8	-0.6967006
129	0x3f8d378b	1.1032575
130	0xbfb74457	-1.4317731
131	0x3ed02506	0.40653247
132	0xbfd04068	-1.6269655
133	0xbf013de9	-0.5048509
134	0x3f696e9f	0.9118442
135	0xbeed3a4b	-0.46333537
136	0x3d8ae123	0.06781223
137	0xbf240269	-0.6406618
138	0x3f573dee	0.8407887
139	0x3ee3dcfc	0.44504535
140	0x3d9af7ef	0.07566821
141	0xbf6fa329	-0.9360834
142	0xbf7ecd66	-0.99532163
143	0xbda3a4f4	-0.07990447
144	0xbd53f5c0	-0.051748037
145	0xbf77fba9	-0.9686838
146	0xbf82f4ba	-1.0230935
147	0xbe57901c	-0.21051067
148	0xbf5387cf	-0.826291
149	0xbff3d1dc	-1.9048419
150	0xbf196ac1	-0.5992852
151	0xbf0d7ae3	-0.55265635
152	0x3e99b998	0.3002441
153	0xbf8eb6ca	-1.1149533
154	0xbeeadeec	-0.458732
155	0x3f1cf4f2	0.61311257
156	0xbd3c1eb8	-0.045927733
157	0x3f571566	0.84017026
158	0x3da650c7	0.08120876
159	0xbf6c5fbd	-0.92333585
160	0x3f7324e6	0.9497818
161	0x3e67329b	0.22577898
162	0x3f14db36	0.5814699
163	0xbe567b28	-0.20945418
164	0x3c9e984b	0.019359728
165	0xbdb50288	-0.088383734
166	0x3d98aca6	0.07454805
167	0xbf70ebdb	-0.94109887
168	0x3f340940	0.70326614
169	0x3f645d53	0.892049
170	0xbedd6db7	-0.43247768
171	0x3fb202a5	1.3907057
172	0xbf6161cf	-0.8803987
173	0x3ec6d2ef	0.38832805
174	0x3f090ab6	0.5353197
175	0xbf3bb8e7	-0.73329014
176	0xbf1252fe	-0.57157886
177	0xbf00f25d	-0.50369817
178	0x3f9a6a2b	1.206365
179	0x3f49f13b	0.78883713
180	0xbe9f91b9	-0.31165865
181	0xbf8dad6a	-1.1068547
182	0x3e33effe	0.17572019
183	0xbe8c3897	-0.27386925
184	0xbee94708	-0.45562005
185	0x3f2eb6a6	0.6824745
186	0xbdf703c0	-0.12061262
187	0x3e4ea14f	0.20178722
188	0x3e373e5a	0.17894879
189	0x3f15151d	0.5823534
190	0xbee6d6b7	-0.4508569
191	0x3d19eec3	0.037581217
192	0x3fa8af69	1.3178531
193	0xbefddaa3	-0.4958087
194	0xbe973e30	-0.29539633
195	0xbf5b2da4	-0.8561652
196	0x3e14a2f8	0.14515293
197	0xbebaa90d	-0.364571
198	0xbf2a8def	-0.66622823
199	0xbd63004e	-0.055420212
200	0x3ed1114f	0.40833518
201	0xbebdf8a5	-0.37103763
202	0xbd9af2d5	-0.07565848
203	0xbfd2dc6e	-1.647352
204	0x3df98470	0.121834636
205	0x3ee5daf0	0.448936
206	0x3ef78163	0.48340902
207	0xbe45bc6a	-0.19310156
208	0xbf156fda	-0.58373797
209	0x3db28902	0.087175384
210	0xbfcaff22	-1.585911
211	0x3f3a8689	0.72861534
212	0x3ca54c36	0.020177942
213	0xbe5b0c25	-0.21391352
214	0x3f897169	1.0737735
215	0xbef80d9a	-0.48447877
216	0xbe33a843	-0.17544656
217	0xbe3f9e71	-0.18712784
218	0xbe8094e5	-0.25113598
219	0x3fb92893	1.4465507
220	0x3e834d42	0.2564488
221	0x3e98d2e0	0.29848385
222	0x3e8fc2ea	0.28078395
223	0xbf58a792	-0.8463069
224	0xbf047a8e	-0.51749504
225	0x3f9270b3	1.1440643
226	0xbebc747b	-0.36807618
227	0xbe82fc33	-0.25583038
228	0x3e0dfd63	0.1386619
229	0x3f38d0a2	0.7219335
230	0x3ebc229e	0.3674516
231	0x3ee94bef	0.45565745
232	0x3fe0e98b	1.7571272
233	0x3edd481a	0.43219072
234	0x3fed34de	1.8531759
235	0xbe0f3245	-0.1398402
236	0xbb845aa3	-0.004039125
237	0xbeee0937	-0.46491405
238	0x3e876292	0.2644239
239	0xbf8319ac	-1.024221
240	0xbddfb9da	-0.1092412
241	0x3e86d323	0.2633296
242	0xbebf9bd0	-0.37423563
243	0xbfc011bd	-1.5005413
244	0xbde15dfa	-0.11004253
245	0x3edff3b1	0.4374061
246	0xbf9cc92f	-1.2248896
247	0x3f87aedc	1.0600238
248	0xbf8cb92a	-1.0994008
249	0xbf7aac14	-0.9791882
250	0xbe8885b5	-0.2666451
251	0x3eee2fe6	0.4652092
252	0xbf7a9ff3	-0.97900313
253	0xbe6e900d	-0.23297139
254	0xbe351f51	-0.17687728
255	0xbf2edc87	-0.6830525

weight f4 [16]
0	0x403bd86c	2.9350843
1	0x4046b429	3.104746
2	0x4035f094	2.8428087
3	0x40526d30	3.2879143
4	0x4052e22a	3.295054
5	0x40502b22	3.2526326
6	0x4054ef8d	3.327121
7	0x406e11db	3.7198398
8	0x407f0852	3.9848828
9	0x4067a89c	3.619666
10	0x408ca285	4.394839
11	0x407e4cce	3.9734378
12	0x406ef213	3.733525
13	0x407c01f3	3.937619
14	0x406a3a17	3.6597955
15	0x4077c83b	3.871596

bias f4 [16]
0	0xbf717b89	-0.94329125
1	0xbd2db9ba	-0.04241345
2	0xbf1a1476	-0.6018747
3	0xbeedf6a9	-0.4647725
4	0xbf9c3169	-1.2202579
5	0xbebf115c	-0.37317932
6	0xbff1885d	-1.886974
7	0xbf81122f	-1.0083674
8	0x3eac8d41	0.33701518
9	0x3f53c0bc	0.82715964
10	0x3f126135	0.57179576
11	0x3d987e7e	0.074460015
12	0x3e293c33	0.1652687
13	0x3d8a8b2f	0.067648284
14	0x3e3fa29d	0.18714376
15	0x3ef8136d	0.4845232

running_mean f4 [16]
0	0x40bbb2b4	5.8655643
1	0xc0619f61	-3.5253527
2	0xc0548c39	-3.3210585
3	0xc0984c12	-4.759286
4	0x40219af0	2.5250816
5	0xc0e076f4	-7.0145206
6	0xc048f45b	-3.1399143
7	0xc0cba15c	-6.363447
8	0x3fba67e0	1.456295
9	0xc09d4511	-4.914681
10	0x3fdbf3ac	1.7183738
11	0xc0003adf	-2.0035932
12	0x402c7b4c	2.6950254
13	0xbf36ae62	-0.7135984
14	0x404b4460	3.1760483
15	0xbfece181	-1.8506318

running_var f4 [16]
0	0x422d0ac2	43.260506
1	0x4246f519	49.739353
2	0x422484d0	41.1297
3	0x42373924	45.8058
4	0x422903ab	42.253582
5	0x423d2f5c	47.29625
6	0x422e17d0	43.523254
7	0x42647168	57.11075
8	0x4183ddcf	16.483305
9	0x41682215	14.508321
10	0x4192dc62	18.357609
11	0x412c3568	10.763039
12	0x4122cf9d	10.175687
13	0x41491fca	12.570261
14	0x415afe77	13.687125
15	0x415aea06	13.682135

weight f4 [64, 96]
0	0x3dbcfc7d	0.09227846
1	0x3e07e21b	0.13269846
2	0xbeb7a06d	-0.35864583
3	0xbe9133ca	-0.28359824
4	0x3e36ccc4	0.1785155
5	0xbd91d451	-0.07120574
6	0x3d5ed23b	0.05439971
7	0xbea8e01c	-0.32983482
8	0xbeac4820	-0.33648777
9	0x3ead183e	0.33807558
10	0xbd9b3895	-0.075791515
11	0xbe1e6666	-0.1546875
12	0x3dc7d246	0.09756903
13	0x3d969adb	0.07353755
14	0x3e5ebc8c	0.21751612
15	0xbefb7dec	-0.49119508
16	0xbf10afa1	-0.5651799
17	0xbe2c461c	-0.1682362
18	0x3e5b49e6	0.21414909
19	0xbe71e537	-0.23622595
20	0x3e7e61cd	0.24841996
21	0xbcbafcba	-0.022825588
22	0xbe60d6d2	-0.21956947
23	0x3e9fabe0	0.31185818
24	0xbdedbdbf	-0.11608457
25	0x3cb9cc3b	0.022680392
26	0x3db4e125	0.088320054
27	0x3dc5400a	0.09631355
28	0xbdd5054f	-0.10401403
29	0xbce7cf80	-0.028297186
30	0x3e53ace7	0.20671426
31	0xbe60cfd0	-0.21954274
32	0x3db96fe9	0.09054548
33	0x3f09d4bc	0.5384023
34	0xbe068617	-0.13137089
35	0xbdc8cf89	-0.09805209
36	0x3d77cdb5	0.060498912
37	0xbe68586e	-0.22689983
38	0x3e8cface	0.275351
39	0xbe0fdfab	-0.14050166
40	0xbd993a7e	-0.074818596
41	0x3cf5dd68	0.030012801
42	0x3ebfd8ea	0.3747018
43	0xbea1c8bc	-0.3159846
44	0xbeba6729	-0.3640683
45	0xbeb1f784	-0.34759152
46	0x3d5a826b	0.053347033
47	0xbe20375a	-0.15646115
48	0x3b40a024	0.0029392326
49	0xbe3cdc76	-0.18443474
50	0xbccd3378	-0.025048956
51	0x3dcdb6fd	0.10044668
52	0xbe2799fa	-0.16367331
53	0x3eb63e93	0.35594615
54	0x3d25448e	0.040348582
55	0xbe9222f8	-0.28542304
56	0xbd8f176e	-0.06986891
57	0xbcb705c9	-0.022341626
58	0x3eabc392	0.33547646
59	0xbd980c52	-0.07424225
60	0xbe7ec200	-0.24878693
61	0xbd03f6e0	-0.03221786
62	0x3de32c68	0.11092454
63	0x3ee43874	0.4457432
64	0xbbd7319c	-0.006567193
65	0x3e0776c6	0.13228902
66	0xbde8f46e	-0.11374746
67	0xbd04562c	-0.032308742
68	0x3c7408e2	0.014894696
69	0x3e6773c8	0.22602761
70	0x3c646a88	0.013941415
71	0xbd8db8ef	-0.06920039
72	0xbd528f78	-0.051406354
73	0x3d253ec6	0.04034307
74	0x3eac48a7	0.3364918
75	0x3e82c80a	0.25543243
76	0xbda219da	-0.07915087
77	0x3e80f9d1	0.25190595
78	0xbe019e7c	-0.12658113
79	0xbe0fe974	-0.14053899
80	0x3e17769e	0.14791343
81	0xbeab9cdc	-0.33518112
82	0x3e547efa	0.20751563
83	0xbed01438	-0.40640426
84	0xbd2e937a	-0.042621113
85	0xbe562e2f	-0.20916055
86	0xbe0cdc6d	-0.13755961
87	0x3d37ecb3	0.04490347
88	0x3d47d608	0.0487881
89	0x3db1ce1a	0.08681889
90	0x3ae597d2	0.001751656
91	0x3d774bfd	0.060375202
92	0xbe1fbb47	-0.15598784
93	0x3cc7a1b4	0.024369098
94	0x3e530e5d	0.20610948
95	0x3e61599b	0.22006838
96	0x3e4314a0	0.19050837
97	0x3dbf02db	0.093267165
98	0xbdaa04e5	-0.08301715
99	0xbed57132	-0.41687924
100	0x3e00aae7	0.12565194
101	0xbe32090a	-0.1738626
102	0x3d6feda2	0.058576234
103	0xbf0e8b27	-0.5568108
104	0xbe1e9e1b	-0.1549
105	0x3ec3d4dd	0.3824834
106	0x3e0515b9	0.12996568
107	0xbf06dec4	-0.52683663
108	0x3e051cbc	0.12999243
109	0x3eec1664	0.46110833
110	0x3ea7e958	0.32795215
111	0xbe998692	-0.29985482
112	0xbf35cd56	-0.7101644
113	0xbd90149d	-0.07035182
114	0x3e2da059	0.16955699
115	0x3d51bbe7	0.05120459
116	0x3eb2733c	0.34853542
117	0x3e14d5b4	0.14534646
118	0x3ba372a2	0.0049880305
119	0x3eff0cb0	0.49814367
120	0x3dc54cd2	0.09633793
121	0x3c8dd451	0.017313154
122	0x3eba0aa1	0.36336234
123	0x3ee63608	0.44963098
124	0x3ed860cb	0.42261347
125	0xbd581e3a	-0.0527632
126	0x3ead8ce8	0.33896565
127	0xbea11910	-0.31464434
128	0x3e5a3dc0	0.21312618
129	0x3ec89434	0.3917557
130	0xbf09c317	-0.5381331
131	0x3de3a3ae	0.11115204
132	0xbd4e64ae	-0.050388984
133	0xbe4e84f1	-0.201679
134	0xbec68f5b	-0.38781247
135	0xbeb145e2	-0.3462363
136	0xbe0fce88	-0.14043629
137	0xbea25bbc	-0.31710613
138	0x3e81d769	0.25359657
139	0x3e7786ad	0.24172468
140	0xbd6a2d8c	-0.057172343
141	0x3ba039d6	0.004889707
142	0xbe4e4143	-0.20142083
143	0xbf24fc9f	-0.6444797
144	0xbefd5cbe	-0.4948482
145	0x3d994112	0.07483114
146	0xbe2186ed	-0.15774126
147	0xbe35599d	-0.17709966
148	0x3dc6108f	0.09671127
149	0x3e261d3c	0.1622209
150	0xbe9867a3	-0.2976657
151	0x3c8586f2	0.016299699
152	0x3cf8e7ff	0.030384062
153	0x3ea12a87	0.31477758
154	0x3f3a2ce2	0.72724736
155	0xbc40247e	-0.01172745
156	0xbe8abb84	-0.27096188
157	0xbe932241	-0.2873707
158	0x3ec9acc8	0.39389634
159	0x3e4b03dd	0.19825692
160	0x3d9f1516	0.07767694
161	0x3dfe04e4	0.124032766
162	0xbe9439fe	-0.28950495
163	0x3df6f9cd	0.120593645
164	0xbdf794e9	-0.12088949
165	0x3d82f0ae	0.06393562
166	0xbe43568e	-0.19075987
167	0x3e3c98cd	0.18417664
168	0x3ebf5a53	0.373736
169	0x3ee309d5	0.4434344
170	0xbe305607	-0.17220317
171	0x3ed7a717	0.42119667
172	0xbef87fea	-0.4853509
173	0xbd9d2125	-0.076723374
174	0xbd20037c	-0.039065823
175	0xbe37f0c0	-0.17962933
176	0x3e80d7a7	0.2516453
177	0xbdb7d4f4	-0.089761645
178	0xbdcf4599	-0.101206966
179	0xbe2de07f	-0.1698017
180	0x3d6118ac	0.05495517
181	0xbf4a91d6	-0.7912878
182	0x3dfa1227	0.122104935
183	0xbec9dcbb	-0.39426216
184	0xbe85b238	-0.26112533
185	0xbe523a08	-0.2052995
186	0xbe683727	-0.22677289
187	0xbe555081	-0.20831491
188	0xbe884c1e	-0.26620573
189	0xbd211e39	-0.039335463
190	0x3ef063ff	0.4695129
191	0x3ea0da55	0.31416574
192	0x3caa1caa	0.020765621
193	0x3db67fe5	0.08911113
194	0x3cc49d32	0.024000738
195	0xbdbe38a5	-0.09288148
196	0xbdcf863c	-0.10133025
197	0x3d3216d7	0.043478813
198	0x3d79bd98	0.060971826
199	0x3b78da6a	0.0037971982
200	0x3d44ee32	0.048078723
201	0x3d14bdbe	0.036313765
202	0x3dad2da5	0.08455972
203	0x3d5a95d9	0.053365562
204	0xbd3c5e7f	-0.045988556
205	0xbd6d84dc	-0.057988033
206	0xbe151ad5	-0.14561017
207	0xbd702dd7	-0.058637466
208	0x3e0de8af	0.13858293
209	0xbc4fa24a	-0.01267297
210	0xbceb7f88	-0.028747335
211	0xbd02d5b0	-0.03194207
212	0x3ba29733	0.004961872
213	0x3da6bd72	0.081416026
214	0xbd52dcb1	-0.05148
215	0x3dd0ae26	0.10189466
216	0x3d864f2f	0.06558072
217	0xbd3a3df8	-0.045469254
218	0xbd3742b2	-0.04474134
219	0x3d3fa21d	0.046785463
220	0x3dfefcb1	0.12450541
221	0x3c9b0f51	0.018928202
222	0x3de3febe	0.111325726
223	0xbd7ce427	-0.06174102
224	0xbbec7c19	-0.007216942
225	0xbda220b7	-0.07916396
226	0xbd956462	-0.07294537
227	0xbd29dbb7	-0.041469302
228	0x3b269c39	0.0025422706
229	0xbd7f93ff	-0.062397
230	0xbc8b176b	-0.01697894
231	0x3d8c6776	0.06855671
232	0x3c9c4e1c	0.019080214
233	0x3de7b9ba	0.113147214
234	0x3dcd6128	0.10028297
235	0x3dbcb4d2	0.09214176
236	0x3b33eb1d	0.002745337
237	0xbd8a1996	-0.067431614
238	0x3d51dfd7	0.05123886
239	0x3ba84742	0.0051354477
240	0x3db47beb	0.08812698
241	0xbc36c87e	-0.0111561995
242	0xbdc3d67b	-0.09562393
243	0x3d6d328e	0.05790954
244	0xbd27a269	-0.04092637
245	0x3d98be0e	0.07458125
246	0x3db9e8c0	0.09077597
247	0x3c43228e	0.011910094
248	0x3d237431	0.03990573
249	0xbdca87f4	-0.09889212
250	0x3db2f84c	0.08738765
251	0xbd79bfa5	-0.060973782
252	0xbd22c145	-0.039735097
253	0xbd627b12	-0.05529315
254	0x3d4deb92	0.050273485
255	0x3e1dd09a	0.15411606

bias f4 [64]
0	0xbd24b2ab	-0.040209454
1	0x3a4abba5	0.00077336497
2	0xbd497754	-0.049186066
3	0x3e321e50	0.17394376
4	0x3d112078	0.035431355
5	0x3d8e294c	0.069414705
6	0x3d0bdcc5	0.03414609
7	0x3cb395d3	0.021922028
8	0x3dab681e	0.08369468
9	0x3df82fc9	0.12118489
10	0x3db8e4ac	0.09027991
11	0x3e3434ba	0.17598239
12	0x3da9ef72	0.08297624
13	0x3eec8160	0.46192455
14	0x3d7b343f	0.061329123
15	0x3dcb9843	0.09941151
16	0x3b7f4c06	0.0038955226
17	0xbd0a78f2	-0.03380675
18	0x3d278581	0.040898804
19	0x3e13b61a	0.14424935
20	0x3e544967	0.20731126
21	0x3c48085e	0.012209026
22	0xbd81d61d	-0.06339667
23	0x3e5e02e1	0.21680786
24	0xbca27785	-0.019832382
25	0xbd8a91bd	-0.067660786
26	0x3ec7c22b	0.39015326
27	0x3ddbeaa8	0.107381165
28	0x3df587fc	0.119888276
29	0x3e718f3f	0.235898
30	0x3d6da759	0.058020923
31	0xbae5992f	-0.0017516966
32	0x3e32c231	0.1745689
33	0x3e00c558	0.1257528
34	0x3ea01c58	0.31271625
35	0x3efb8492	0.4912458
36	0xbba6e90f	-0.0050937007
37	0x3df14f04	0.11782649
38	0x3e9f501c	0.31115806
39	0x3cf5733f	0.02996218
40	0x3c1a4a68	0.009417154
41	0x3d5e7336	0.054309092
42	0x3d58e509	0.0529528
43	0xbd798a6f	-0.060923036
44	0x3da727aa	0.08161862
45	0x3dabadfa	0.08382793
46	0xbd9e5fe2	-0.07733132
47	0x3dbfa667	0.093579106
48	0x3c91f6f2	0.017817948
49	0xbdb89554	-0.09012857
50	0xbc42af11	-0.011882559
51	0x3dc168ae	0.09443794
52	0x3b6a73e5	0.0035774645
53	0x3e2562a4	0.1615091
54	0xbbdcf350	-0.0067428723
55	0x3eb023ce	0.34402317
56	0xbd65ff3c	-0.056151614
57	0x3d1ee96e	0.038796835
58	0x3de241f3	0.11047735
59	0x3db3cfb1	0.08779848
60	0x3c88cf54	0.016700424
61	0x3dff2622	0.12458445
62	0x3d1542d9	0.036440704
63	0xbdaba15d	-0.08380387

weight f4 [1, 64]
0	0xbf76a036	-0.9633821
1	0xbfe79c02	-1.8094485
2	0xbe45ab1d	-0.19303556
3	0x3f28384b	0.65710896
4	0xc01604de	-2.344047
5	0x3f0014e2	0.50031865
6	0x3ea69483	0.3253518
7	0xbfbb73d2	-1.464472
8	0x3f9a8915	1.2073084
9	0xbfe26aaa	-1.7688801
10	0xbf3f4b33	-0.7472412
11	0x3ed7719c	0.42078865
12	0x3e83afea	0.2572015
13	0x3f789d68	0.9711518
14	0x3ee092fa	0.43862134
15	0xbfa3a72f	-1.2785395
16	0x3ebbb55f	0.36661813
17	0xbeb1fb2e	-0.34761947
18	0x3e6f3909	0.23361601
19	0x3e4af225	0.19818933
20	0xbfdf3df8	-1.7440786
21	0xbf4fb0d7	-0.8112921
22	0xbf9aa97a	-1.208297
23	0x3fbd5e78	1.4794455
24	0xbf842e4d	-1.032663
25	0xbf166bb6	-0.58758104
26	0x3f40d003	0.753174
27	0x3fc8b0a5	1.5678908
28	0xbfec2b59	-1.8450729
29	0x3edf4e0c	0.43614233
30	0x3ebcc43a	0.3686846
31	0xbf184428	-0.59479
32	0x3f3812e6	0.71903837
33	0x3fae7559	1.3629562
34	0x3efd4aa8	0.4947102
35	0x3f531ff4	0.8247063
36	0xbf90a9b6	-1.1301792
37	0x3eee2f13	0.4652029
38	0x3f0a5b05	0.54045135
39	0xbf6bc4e7	-0.92097324
40	0xbf06ace1	-0.5260754
41	0xbf8f69b7	-1.1204137
42	0xbfe87e23	-1.8163494
43	0xbedf034f	-0.43557212
44	0x3ec11516	0.377114
45	0xbf3bfd72	-0.734336
46	0x3cca6f63	0.024711316
47	0x3e4afb76	0.19822487
48	0xbf0d751b	-0.55256814
49	0xbf5a503a	-0.85278666
50	0xbf85a50e	-1.0440996
51	0xbfa44266	-1.2832763
52	0xbfe037b8	-1.7517004
53	0x3f295ab9	0.66154057
54	0xc003c81c	-2.0590887
55	0x3f44707f	0.76734155
56	0x3f3ec471	0.74518496
57	0x3f75d7ff	0.9603271
58	0x3f4c6fa6	0.7985786
59	0x3f9e3b6b	1.2361883
60	0xbfb702ef	-1.429777
61	0x3f29d4c2	0.6634027
62	0xbfb0f59b	-1.3824953
63	0xbd941095	-0.07229725

weight f4 [64, 96]
0	0x3e69b9c5	0.22824772
1	0xbe687e7e	-0.22704503
2	0xbd9a3207	-0.07529073
3	0xbd0e5916	-0.034752928
4	0x3f15b689	0.5848165
5	0xbdc68b75	-0.09694568
6	0xbdc2ec3a	-0.09517713
7	0xbe29c80d	-0.1658022
8	0xbcc05efd	-0.023482794
9	0x3e7cd604	0.24691015
10	0xbd2cf8b9	-0.042229388
11	0xbdb42b99	-0.08797378
12	0x3e8f6229	0.28004578
13	0xbbc74d89	-0.006082241
14	0xbc3f7cfa	-0.011687512
15	0x3e8b542e	0.27212662
16	0x3cef47f7	0.02920912
17	0x3eafcc41	0.3433552
18	0xbe36e8d8	-0.1786226
19	0xbe883950	-0.26606226
20	0x3e58a260	0.21155691
21	0x3d273b15	0.04082783
22	0x3e8f5fab	0.28002676
23	0x3e25fd54	0.16209918
24	0xbe1d48ca	-0.15359798
25	0x3ddbce00	0.10732651
26	0x3d9c1aa2	0.07622267
27	0xbe4c3f21	-0.19945957
28	0xbdd378e8	-0.103257954
29	0x3e12400b	0.14282243
30	0x3e5ce60f	0.21572135
31	0xbe0c4745	-0.13699062
32	0x3da9b3ec	0.082862705
33	0xbe9a012a	-0.30079013
34	0xbdf48221	-0.119388826
35	0xbecf5835	-0.40496984
36	0xbeda2f50	-0.42614222
37	0x3ca803b0	0.02050957
38	0x3bb2dfee	0.0054588234
39	0x3ee7bdf1	0.452621
40	0x3e4f77f5	0.20260604
41	0x3e8335a6	0.25626868
42	0xbc4a1602	-0.012334349
43	0x3ce8603d	0.028366202
44	0x3da5ff8c	0.08105382
45	0xbd9b9a92	-0.07597841
46	0xbe092568	-0.13393176
47	0x3ed67ddc	0.41892898
48	0xbdbf9888	-0.09355265
49	0xbe56e46f	-0.20985578
50	0x3e46bd11	0.1940806
51	0x3deabf66	0.114622876
52	0x3de2240f	0.11042034
53	0xbe987eab	-0.2978414
54	0xbe1c0c47	-0.15239058
55	0xbdf23c65	-0.118279256
56	0xbd79d9ff	-0.060998913
57	0xbdf4a2ad	-0.119450904
58	0xbe4a7f46	-0.19775113
59	0xbdcc420c	-0.09973535
60	0x3dc04f55	0.093901314
61	0x3d8bf3fb	0.06833645
62	0x3e092f7e	0.13397023
63	0xbd00aad8	-0.03141293
64	0x3e58d402	0.21174625
65	0x3e6142e8	0.21998179
66	0xbe219df5	-0.15782912
67	0xbe1f3cc4	-0.15550524
68	0x3e8855ef	0.26628062
69	0x3e4ad0af	0.19806169
70	0xbe18f42a	-0.14936891
71	0xbc7ff56e	-0.01562248
72	0x3e47013d	0.19434066
73	0xbdd9554e	-0.10611974
74	0x3e0ebcbd	0.13939185
75	0xbdf9ebcc	-0.12203178
76	0x3e8f1d08	0.27951837
77	0xbebce20e	-0.36891216
78	0xbd81f0d9	-0.06344766
79	0x3cce0032	0.025146578
80	0xbd2f2517	-0.04275998
81	0xbe0f0c8c	-0.1396963
82	0xbcded750	-0.027202278
83	0x3ead74b4	0.338781
84	0xbe042c38	-0.12907493
85	0x3da53b04	0.08067897
86	0xbb9eb830	-0.004843734
87	0x3e818362	0.2529555
88	0xbdd34efe	-0.10317801
89	0xbe89fd37	-0.26951
90	0xbc12ffe4	-0.008972142
91	0xbe528c69	-0.20561375
92	0x3e812968	0.25226903
93	0x3e03ec5d	0.12883134
94	0x3e985c7a	0.29758054
95	0xbd1c6273	-0.038179826
96	0x3e8d02cd	0.275412
97	0xbd2a1782	-0.041526325
98	0xbda45227	-0.08023482
99	0xbdd099e7	-0.101856045
100	0x3d35886f	0.044319566
101	0xbe0237cc	-0.12716597
102	0x3e4fbc07	0.2028657
103	0x3e1d844f	0.15382503
104	0x3e3de116	0.18542895
105	0x3ec9ec11	0.39437917
106	0xbe0ff7b0	-0.14059329
107	0x3e90d4ed	0.2828745
108	0x3eb1890a	0.34674865
109	0x3c361b3a	0.01111489
110	0x3dc4a5e5	0.09601954
111	0xbe1a3ac4	-0.1506148
112	0xbe81dd29	-0.25364044
113	0x3dfddc58	0.12395543
114	0x3ee140e1	0.4399481
115	0xbe9926b8	-0.29912353
116	0x3e6fddab	0.23424403
117	0x3e2b010d	0.1669962
118	0xbdeafd74	-0.114741236
119	0xbe720551	-0.2363484
120	0xbe8245b2	-0.25443798
121	0x3da91dcf	0.08257639
122	0xbd74fda0	-0.05981219
123	0xbed01c1f	-0.40646455
124	0xbe46c54e	-0.19411203
125	0x3f05c5ce	0.5225495
126	0x3da7f6b2	0.0820135
127	0x3e10907d	0.14117618
128	0x3ddb9d09	0.107233115
129	0xbea7f1e1	-0.32801726
130	0xbe9cc566	-0.30619353
131	0x3d391f71	0.045196
132	0x3d298709	0.041388545
133	0x3dc2a048	0.095032275
134	0x3edc2468	0.42996526
135	0x3eb6263e	0.3557605
136	0x3e06d8bd	0.13168617
137	0xbe440e0b	-0.19145982
138	0x3ecd7a71	0.40132478
139	0xbd7d29ac	-0.06180732
140	0xbe811b49	-0.2521613
141	0xbe8d4560	-0.2759199
142	0x3df94d93	0.12172999
143	0x3e330ebe	0.17486092
144	0x3e973f15	0.29540315
145	0xbdd48834	-0.10377541
146	0xbe6f97c4	-0.23397738
147	0x3e1d34b5	0.15352137
148	0x3d646635	0.055761535
149	0xbe31a774	-0.17349035
150	0x3dba048c	0.090828985
151	0x3e95f45d	0.29287997
152	0xbdf9ef5c	-0.12203857
153	0xbe253c03	-0.16136174
154	0xbe960003	-0.29296884
155	0x3c948901	0.018131735
156	0x3e4eaad4	0.20182353
157	0x3edcbe96	0.43114156
158	0x3e8b5b97	0.27218315
159	0x3d98e5fb	0.0746574
160	0x3dac5296	0.084141895
161	0x3e9c338f	0.30508086
162	0xbea881d2	-0.32911545
163	0x3bcc8716	0.0062416894
164	0xbddd8c68	-0.10817796
165	0xbdf9e217	-0.12201326
166	0x3d4e6ff6	0.050399743
167	0x3e8636ba	0.26213628
168	0x3e10520e	0.14093801
169	0x3ea0e313	0.31423244
170	0x3e59532a	0.21223131
171	0x3cc010ab	0.023445448
172	0x3e8ede95	0.27904192
173	0x3e337fae	0.17529175
174	0x3e1827b2	0.14858893
175	0xbe7bad00	-0.24577713
176	0x3e37df38	0.17956245
177	0xbd91d21d	-0.07120154
178	0x3e24ed1a	0.16106072
179	0x3f156516	0.5835737
180	0xbd9bbbe4	-0.07604197
181	0xbe2de705	-0.16982658
182	0xbea324a0	-0.3186388
183	0xbe07dc12	-0.13267544
184	0xbeb3b361	-0.35097793
185	0xbea976c7	-0.33098432
186	0xbdad04e4	-0.084481984
187	0x3d033330	0.032031238
188	0x3e8dd9fc	0.2770537
189	0x3d8ebd2c	0.069696754
190	0xbe8390d2	-0.25696427
191	0xbe43e84c	-0.19131583
192	0x3d432f8f	0.047652777
193	0x3d129eaa	0.035795845
194	0xbde00ad9	-0.10939569
195	0x3da294e9	0.079385586
196	0xbddb0cea	-0.106958225
197	0x3dc4db1e	0.09612106
198	0x3e4d9405	0.20075996
199	0xbdd76226	-0.10516767
200	0x3f446568	0.76717234
201	0x3e08b77f	0.13351248
202	0xbe550585	-0.20802887
203	0xbe79d04c	-0.24395865
204	0xbe59ad1d	-0.21257444
205	0xbe79ce61	-0.24395134
206	0x3e542fce	0.20721361
207	0x3bb36663	0.005474852
208	0x3c828d82	0.015936617
209	0xbd78dc76	-0.060757123
210	0xbd5b8440	-0.05359292
211	0xbe308d01	-0.17241289
212	0x3d2564f5	0.040379483
213	0x3d4188d4	0.04724963
214	0xbdb683d4	-0.08911863
215	0xbd3451c7	-0.0440233
216	0xbd5bb55e	-0.053639762
217	0xbbaefafd	-0.0053399787
218	0xbe2e5a9c	-0.17026752
219	0x3d5774a3	0.052601468
220	0xbdc38c4b	-0.09548243
221	0x3d387a14	0.045038298
222	0x3eb912c7	0.36147138
223	0x3e8bad56	0.27280682
224	0x3e20bdd4	0.15697414
225	0xbcafcc11	-0.021459611
226	0x3c8cca39	0.017186271
227	0x3e0eb463	0.13936
228	0x3e323c17	0.17405735
229	0x3de5cdcc	0.11220893
230	0x3d740065	0.05957069
231	0x3d0788f5	0.033089597
232	0x3e0f717f	0.14008139
233	0xbe4cb0a0	-0.19989252
234	0x3e28af08	0.16473019
235	0x3e1b2614	0.15151244
236	0x3e93a230	0.28834677
237	0xbd38436e	-0.04498618
238	0xbe15670d	-0.14590092
239	0xbe66ee3c	-0.22551817
240	0x3c41f344	0.011837784
241	0x3d6c4285	0.057680625
242	0x3dea8551	0.11451209
243	0xbde7d208	-0.11319357
244	0xbdcd1997	-0.100146465
245	0xbd0542b5	-0.03253432
246	0x3e8ce69f	0.275197
247	0x3ebe52a5	0.37172428
248	0x3d3dd028	0.04634109
249	0x3e0f32c1	0.13984205
250	0xbdb3aa48	-0.08772713
251	0xbd7de6a5	-0.061987538
252	0x3dcb78d3	0.09935155
253	0x3e526e6f	0.2054994
254	0x3da9033c	0.0825257
255	0xbe5dbe5e	-0.2165465

bias f4 [64]
0	0xbba4f153	-0.005033651
1	0xbb40d382	-0.0029422943
2	0x3dd608d9	0.10450906
3	0x3d281e11	0.0410443
4	0xbd145773	-0.03621621
5	0xbcf28f33	-0.029609298
6	0xbd71a205	-0.058992404
7	0xbcfea52e	-0.031084623
8	0x3de7b148	0.113131106
9	0xbba10d6a	-0.004914929
10	0x3de052a6	0.10953264
11	0xbc0605c4	-0.008180086
12	0xbd9cbf94	-0.07653728
13	0x3dc24201	0.094852455
14	0xbd6df56f	-0.05809539
15	0x3db99cea	0.09063132
16	0xbd9a13e8	-0.07523328
17	0xbd193f0d	-0.037413646
18	0xbda77e86	-0.08178429
19	0xbdb13ffb	-0.086547814
20	0xbd85c23c	-0.06531188
21	0xbda34f11	-0.07974065
22	0x3c8970fc	0.016777508
23	0xbdde991f	-0.10869049
24	0xbe3410b6	-0.175845
25	0x3cb26e6e	0.021781173
26	0x3e33bcc6	0.1755248
27	0xbd621f57	-0.05520567
28	0x3c0238e2	0.007948132
29	0x3da6b25e	0.081394896
30	0xbd0ab15c	-0.03386055
31	0x3deb625f	0.11493372
32	0xbda33392	-0.07968821
33	0x3df40737	0.119154386
34	0x3d3ae806	0.04563143
35	0x3dc13b8e	0.09435187
36	0x3cffa259	0.031205343
37	0x3da27a03	0.07933428
38	0xbd83947f	-0.06424808
39	0x3d40014b	0.046876233
40	0x3daad3ce	0.0834118
41	0xbd76bed7	-0.060240593
42	0xbd77e6c0	-0.060522795
43	0x3cf9cb8c	0.030492567
44	0x3cb6884f	0.022281794
45	0xbd2e781e	-0.04259502
46	0x3cd83d70	0.026396483
47	0x3c2ea6e0	0.010659903
48	0xbd933ff4	-0.071899325
49	0x3da910c2	0.082551494
50	0xbdcb7a08	-0.09935385
51	0x3d31da41	0.043421034
52	0xbd249da7	-0.04018941
53	0xbc5ab9b9	-0.013349944
54	0x3def32f9	0.11679644
55	0x3d92d6ad	0.071698524
56	0xbd9bb356	-0.07602565
57	0x3d08141a	0.033222295
58	0xbd0cea5a	-0.034403183
59	0x3c827d47	0.015928878
60	0xbdff073b	-0.12452551
61	0x3aba8bbc	0.0014232318
62	0xbdc131fd	-0.09433363
63	0xbd2412e5	-0.04005708
