trained_models/5/doom-model.pth (torch, 106629 bytes, 27 tensors)

weight f4 [8, 1, 3, 3]
000000 81 57 96 3f 9f a6 60 40 00 55 91 bc dc 32 6d 3f
       1.1745454 3.5101697 -0.017740726 0.9265573
000010 f5 25 8e 3f 9e 81 53 bf a0 46 60 be 79 cb b1 bf
       1.1105334 -0.82619655 -0.21901941 -1.389022
000020 49 ad e2 bf 5d bf 51 c0 97 d9 ee 3e 12 dd 8a 3f
       -1.7709132 -3.277305 0.46650383 1.0848715
000030 95 00 1a 40 28 70 21 40 f8 67 aa be 2b 54 06 bf
       2.4062855 2.5224705 -0.33282447 -0.5247218
000040 4e 77 64 c0 4a 7f 81 c0 6c 5f fb 3e b6 bd 16 40
       -3.5697818 -4.046788 0.4909624 2.355329
000050 72 e6 96 be 0c 1e eb 3f 3b 81 20 c0 c2 d0 a3 be
       -0.2947269 1.8368545 -2.5078876 -0.31995207
000060 84 20 7d bf 22 99 ba c0 e0 cb 12 40 a4 a4 b9 bf
       -0.9887774 -5.831193 2.2936935 -1.4503369
000070 11 e8 a8 3f 9b 2e 29 c0 35 bb 5a c0 32 32 2b 40
       1.3195821 -2.6434696 -3.4176762 2.6749387
000080 dd be c9 3f cf 33 13 c0 d4 3e 89 bf 52 25 91 3e
       1.5761372 -2.3000371 -1.0722299 0.28348786
000090 d8 be 5d c0 2d 1a 0a 40 4a 53 c5 3f 97 f4 30 bf
       -3.4647732 2.1578476 1.5416043 -0.69123214
0000a0 f2 df 66 40 d7 bb 06 40 91 c4 3e c0 e6 08 22 3f
       3.6074185 2.1052148 -2.9807475 0.6329483
0000b0 79 a2 c0 be 79 c7 4e bf 5b 39 37 3f a5 61 70 40
       -0.37623957 -0.8077312 0.7157189 3.7559597
0000c0 7d 77 a1 bf 55 1b b6 c0 31 b0 db 3e 7e af 68 3f
       -1.261459 -5.6908364 0.4290786 0.9089278
0000d0 4f 7d 6d c0 d0 04 46 40 2b 36 94 c0 f5 ec 7b bf
       -3.7107732 3.0940437 -4.6316123 -0.9840844
0000e0 3f 61 a7 40 2d 6c 42 c0 80 a8 8f be c0 6e 85 3f
       5.230621 -3.0378525 -0.28058243 1.0424423
0000f0 95 da 77 3e de 08 aa 3e 77 92 91 c0 08 7a 90 3f
       0.24204476 0.3320989 -4.549129 1.1287241
000100 9e a3 6d 40 07 d6 45 be 41 42 80 c0 a5 06 56 c0
       3.7131114 -0.19319926 -4.0080876 -3.3441556
000110 e8 d1 e2 c0 85 91 48 bf 2e a5 99 40 5b cd fe 3e
       -7.0881233 -0.78347045 4.8014135 0.4976605

weight f4 [8]
000000 72 db 27 40 e2 2f a4 40 d4 8a b1 40 30 5d 84 40
       2.6227689 5.130845 5.548197 4.1363754
000010 f7 ab 5a 40 ab 45 6d 40 50 52 a5 40 7d a0 b5 40
       3.416746 3.7073772 5.166298 5.675841

bias f4 [8]
000000 6e fb b2 bd 4a c0 35 3f cd 05 a8 bf 6f 6b 59 bd
       -0.08739363 0.70996535 -1.312677 -0.053080972
000010 b4 2a 81 bf 83 76 90 3f ba d4 5d 3f 82 cf e1 3e
       -1.0091157 1.1286167 0.8665272 0.44103628

running_mean f4 [8]
000000 da 94 a0 3e ca 83 4e bf c8 63 f0 be e1 6e 3b bf
       0.31363565 -0.80669844 -0.46951127 -0.7321606
000010 18 37 b2 3e 2a 56 c4 be be 11 7b bf 9a 91 42 bf
       0.34807658 -0.38346988 -0.9807395 -0.7600342

running_var f4 [8]
000000 f3 48 67 3d 1d f5 1f 3e 64 69 da 3d 06 a7 b0 3d
       0.056466054 0.15620847 0.10664633 0.08625607
000010 08 1c 93 3d d0 00 cb 3d 42 a8 3c 3e b5 3a 11 3e
       0.07183081 0.09912264 0.1842356 0.14182551

weight f4 [8, 8, 3, 3]
000000 7b e5 ac 3f ad bf b1 bf f8 a6 4f be 28 42 05 bf
       1.3507532 -1.388662 -0.20278537 -0.5205407
000010 87 56 8a bf 86 bf 91 bd 6d 87 58 3f cb 4f 3c bc
       -1.0807656 -0.07116608 0.84581643 -0.0114936335
000020 5d d2 34 bf 85 67 83 bf 76 75 a9 3d 29 0a 13 40
       -0.7063349 -1.0265967 0.08274357 2.2974951
000030 65 1e 7c 3f 95 e1 a8 be 86 f7 19 be 8d c9 cb 3e
       0.9848388 -0.32984605 -0.15035829 0.3980221
000040 29 06 af 3c e5 5c b6 be f6 7d 3b bf fd 8d 17 be
       0.021365242 -0.35617748 -0.73239076 -0.14800258
000050 1b 3f d6 be ca 25 23 3e 5c eb d4 bf 95 7f a4 bf
       -0.4184502 0.15932384 -1.6634326 -1.2851435
000060 ae 5b 62 3f 39 e0 fd be ec b8 ae be a9 14 18 c0
       0.8842114 -0.4958513 -0.3412546 -2.376261
000070 cc ce 69 3e da d7 f1 3f 87 44 9c bf 1b 0c 1c 3f
       0.22832793 1.8893998 -1.2208413 0.6095597
000080 07 4a 1e 40 3e cc 8c 3f 46 74 7e 3e 40 2e 43 bf
       2.4732683 1.099983 0.24849042 -0.76242447
000090 f7 4f f8 be b4 5a 7a 3f f5 11 32 bf bd ad 01 c0
       -0.48498508 0.9779465 -0.6955865 -2.0262291
0000a0 22 93 53 3e d5 3a 4e 3e b0 20 3c c0 65 f2 88 bf
       0.20661595 0.2013963 -2.939495 -1.0698973
0000b0 92 11 01 bd 71 ce 13 3f ec 02 d5 bf be 1e 37 3e
       -0.031510897 0.5773688 -1.6641517 0.17882821
0000c0 65 10 d4 be fa 5e 20 c0 19 b2 12 c0 f9 03 ad 3f
       -0.41418758 -2.505797 -2.2921202 1.3516837
0000d0 26 68 da bd 31 31 4f c0 f2 19 35 bf 11 50 be bf
       -0.10664396 -3.2373774 -0.70742714 -1.4868184
0000e0 ea c0 01 40 6e d2 c1 bf 29 48 cb 3e 0a 9d b1 bf
       2.0273995 -1.5142343 0.3970349 -1.387605
0000f0 59 9f 41 3f 3b 10 c3 3d 12 e3 76 be 45 df 13 40
       0.7563377 0.0952458 -0.24110058 2.3105023
000100 ef b9 55 bf 5c 79 65 be 3c 76 e6 3d f8 49 55 be
       -0.8348684 -0.22409576 0.1125302 -0.20828998
000110 24 25 4a c0 bc ed ab bf 53 2f a6 3f 5f cf 36 40
       -3.158517 -1.3431926 1.2983192 2.856407
000120 83 33 06 c0 0b bd 01 bf 84 2b 2e bf a7 df 85 3f
       -2.096894 -0.5067908 -0.6803515 1.0458878
000130 0b cf a1 bf 92 a5 fd be 49 9e 9c bf 47 50 be 3e
       -1.264131 -0.49540383 -1.2235805 0.37170622
000140 9e 7d bc bf 29 3a 17 40 30 b1 56 be ed 58 38 c0
       -1.4725835 2.3629248 -0.20966029 -2.8804276
000150 63 98 b5 3f 37 b1 87 bf 19 8a 09 40 74 17 32 3f
       1.418713 -1.0600957 2.1490538 0.69567037
000160 3b 19 29 3f 8e 40 f6 bf 52 f2 a9 be da 04 3f bf
       0.66054124 -1.923845 -0.33192688 -0.7461678
000170 59 67 5f c0 8a 3d 98 3f 83 fb 27 3f 29 82 1f 3f
       -3.4906828 1.189378 0.6561815 0.62307984
000180 0b 5f 91 bf cf 82 ee be 29 b8 10 be 25 e4 9b bf
       -1.135713 -0.46584174 -0.14132752 -1.2178999
000190 6d 5d 12 3e 26 dc a2 bf 7d c7 43 bf 51 65 00 bf
       0.14293452 -1.2723434 -0.7647627 -0.50154597
0001a0 19 33 a1 bf 96 dd d0 3f 0d d2 02 be 2c fe f6 3f
       -1.2593719 1.6317623 -0.1277544 1.9296317
0001b0 f3 82 62 bf 6c d0 7f bf fa 1d 52 bf fb d2 35 c0
       -0.8848106 -0.999274 -0.8207699 -2.8410022
0001c0 83 ea 12 bf 35 4d 21 bf 53 98 89 bb 9c 43 e6 bf
       -0.57389086 -0.63008434 -0.0041990667 -1.7989383
0001d0 78 69 0e bf 36 d3 30 bf 0f 66 00 c0 b7 23 cd bf
       -0.5562968 -0.6907228 -2.0062292 -1.6026524
0001e0 34 48 18 40 76 38 cf 3e 5d e1 16 3f b6 ea fb be
       2.379407 0.40472764 0.5893763 -0.49202508
0001f0 4f 09 bf bf 8d 2d 02 be 8f b1 1e bf 3d cd 4c c0
       -1.4924716 -0.12712689 -0.6198968 -3.2000268
000200 e4 86 c8 bf dd c7 96 3f 00 91 81 3f 33 94 89 3f
       -1.5666165 1.1779743 1.0122375 1.0748352
000210 c2 e8 48 40 ca 05 00 bf 44 68 02 c0 1c 15 38 c0
       3.1392064 -0.50008833 -2.0376139 -2.8762884
000220 c4 ea 60 3f 76 9d 3a 3f b4 b9 23 3d 17 76 c3 be
       0.87858224 0.72896516 0.039972022 -0.38176033
000230 27 36 b2 3f ff 66 06 bf 97 60 3a 40 38 c9 b4 be
       1.3922776 -0.5250091 2.9121454 -0.35309768
000240 83 eb 97 3f 1b fc a0 be 0e 55 7c bf 04 b3 11 3f
       1.1868747 -0.3144234 -0.98567283 0.5691378
000250 ed 10 44 bf 00 af 9b bf 71 4d b8 be 26 69 01 3f
       -0.76588327 -1.2162781 -0.35996583 0.5055107
000260 79 27 97 3e a1 06 7c 3f 89 87 78 3f e4 85 85 3e
       0.29522303 0.98447615 0.9708181 0.26078713
000270 bc a0 71 3f ec d5 fb bf 11 6b 18 3f 02 55 a2 3f
       0.94385886 -1.9674659 0.5953837 1.2682192
000280 3b 90 64 3f 58 8e 88 3f a6 e1 c0 bd 74 4a 16 3e
       0.8928258 1.066844 -0.09418039 0.14676839
000290 50 13 63 bc ef b3 28 bf c6 a7 d4 3f c7 36 cd 3d
       -0.013859585 -0.65899557 1.66137 0.100202136
0002a0 3b 20 d8 3f 9b 51 18 bd c7 83 b9 bf 3a ef 72 3f
       1.6884836 -0.0371872 -1.449334 0.9489628
0002b0 ae ae 49 3f 34 90 cf bf 88 b4 00 bf 23 c0 26 be
       0.78782165 -1.6215882 -0.5027547 -0.16284232
0002c0 14 c8 7a bf 5d fc fb 3d 86 c0 4a 3e 48 53 49 3f
       -0.97961545 0.12303994 0.19800004 0.786427
0002d0 14 c7 e4 bf 3e 0b 75 bf 6d bf 4a bd 99 7e 53 bd
       -1.7873254 -0.9572028 -0.049498964 -0.051634405
0002e0 b7 48 cd bf c9 b7 81 be a2 d6 8e 3f c7 9b 9e 3d
       -1.6037816 -0.2533553 1.1159251 0.07744556
0002f0 9f 2c 8d 3e aa e8 8e bc ea c3 9e 3f 46 b6 a6 be
       0.27573106 -0.017444927 1.2403538 -0.3256094
000300 f3 d8 26 3f d5 95 3c 3f 51 93 87 bf b5 98 28 bf
       0.6517479 0.73666126 -1.0591832 -0.6585801
000310 c4 e3 8e bd 07 8f 72 3d ec 35 ac 3d 70 72 cf 3f
       -0.069770366 0.059218433 0.08408722 1.6206799
000320 70 3a f0 bf 72 cc e7 3f 51 99 da bf 0a 16 8d 3f
       -1.8767834 1.8109267 -1.7078038 1.1022351
000330 15 48 ed bf b2 51 f3 3d db 9f 47 c0 a2 45 61 40
       -1.8537623 0.118808165 -3.1191318 3.519875
000340 e4 15 0e c0 49 ec 28 c0 a6 c0 78 3f 6e d5 b5 be
       -2.220086 -2.6394217 0.9716896 -0.35514396
000350 3d 70 c7 3f 35 4c 0f bf fe 87 4c c0 73 7c 8a 3f
       1.5581127 -0.5597566 -3.1958003 1.0819229
000360 76 14 32 bf 15 8b 60 bf 18 39 03 be c2 22 1d 3c
       -0.6956247 -0.8771222 -0.12814748 0.009590806
000370 b2 cf 9e bd de d9 2c 3e df 3f 91 3f e3 e1 9e bf
       -0.077544585 0.16879985 1.1347617 -1.2412685
000380 01 ed 1a 40 61 9f 18 c0 c1 7f 83 3f 85 33 27 3f
       2.4207156 -2.3847277 1.0273362 0.6531299
000390 2f ef 1b 3e 68 73 ad 3f 8c e8 7f bf a9 c8 a0 3e
       0.1522796 1.3550844 -0.99964213 0.31403092
0003a0 9a e2 6f 3f e4 77 03 3f eb fa bc bf 61 16 26 bf
       0.9370514 0.51354814 -1.4764074 -0.648779
0003b0 a5 6c 10 bf 36 cd 94 bf 24 b8 ed 3f 64 1c 5e bf
       -0.5641578 -1.1625125 1.857182 -0.8676207
0003c0 15 99 ad 3f 27 f3 06 bf 56 4f bc 3f 3e 0d 4b bf
       1.3562342 -0.5271477 1.4711711 -0.7931708
0003d0 df 65 bf bf 08 b0 b2 be 8d 0b c0 bf 8d 85 ef 3e
       -1.4952964 -0.34899926 -1.5003525 0.4678158
0003e0 4c 5c a8 be 72 f5 01 40 ea ef 02 3d 30 86 22 3f
       -0.32882917 2.0306058 0.03196708 0.63486004
0003f0 16 64 6d bf 78 a4 90 3e 28 44 b2 3f 14 f2 ed bf
       -0.92730844 0.2825048 1.392705 -1.8589501

weight f4 [8]
000000 5b 7a 8b 40 65 60 a0 40 57 5d 6e 40 6c bb 8e 40
       4.358686 5.011767 3.724447 4.4603786
000010 42 25 7a 40 2c 68 6f 40 96 bc 9f 40 71 d2 9c 40
       3.908524 3.7407331 4.9917707 4.9006886

bias f4 [8]
000000 6a 5a 64 3e b0 4a 17 3e b8 3d ea bc 64 95 9d be
       0.22300115 0.14774585 -0.028593883 -0.30778039
000010 70 37 46 3e 87 6c 6e 3f b5 4f 1f be 0f 42 1e bf
       0.19357085 0.9313435 -0.1555775 -0.6181955

running_mean f4 [8]
000000 2c 51 ae c1 9f 16 8e c1 d6 af c6 3d 66 8e 71 c1
       -21.789635 -17.761045 0.09701507 -15.097265
000010 1e f8 e7 c1 01 f5 8b 41 1f 5e f6 c1 e7 bf 0c c0
       -28.996151 17.49463 -30.795958 -2.1992128

running_var f4 [8]
000000 06 d6 02 44 f3 78 32 44 4c e8 cf 43 8d bb 2a 44
       523.3441 713.88983 415.81482 682.9305
000010 b6 3d 18 44 66 3b 30 44 bb 3f 2e 44 80 d9 01 44
       608.96423 704.9281 696.9958 519.39844

weight f4 [8, 8, 3, 3]
000000 59 61 24 be 63 08 1b 40 c5 9b 51 bf d7 0e 89 bf
       -0.1605276 2.422387 -0.8187831 -1.0707654
000010 71 da c7 bf 36 5d a6 be 7c 45 c1 3e c6 5b a7 bf
       -1.5613538 -0.3249299 0.37748325 -1.3074882
000020 82 bf 71 3f 76 a1 88 3f fd a4 f4 bd a5 f2 18 bf
       0.9443284 1.0674274 -0.119455315 -0.59745246
000030 a3 50 59 3f 1a db 2d c0 fc bd 80 3d 98 53 84 bf
       0.84888667 -2.716498 0.06286237 -1.0338011
000040 6b 04 32 bf 8d a3 de 3f 73 97 84 bf 91 c5 2a 40
       -0.6953799 1.7393662 -1.0358719 2.6683085
000050 98 fc a7 3f 1f a6 79 bf 68 e4 ab bf 15 63 73 bf
       1.312396 -0.97519106 -1.3429079 -0.9507306
000060 5a a9 cc 3b 2f ca 9e 3f b1 5f eb bf d3 17 c0 bf
       0.006245774 1.2405452 -1.8388578 -1.500727
000070 94 ef 5e bf 01 d8 1c 3f 45 7a 13 bc 1b 84 23 c0
       -0.8708432 0.61267096 -0.009001319 -2.554938
000080 a6 65 1c 40 c9 bb 1c bf 2e c9 2f 3f 8e e8 36 be
       2.4437041 -0.6122404 0.6866635 -0.1786215
000090 7c a8 77 3e 54 f5 a2 bf 98 47 8a bf 7e 5e 39 3f
       0.24185365 -1.2731118 -1.0803099 0.7240981
0000a0 86 2e 21 3f 37 65 3c c0 1a ba be 3e 67 1b 96 3e
       0.62961614 -2.9436777 0.3725136 0.2931778
0000b0 87 f1 c7 bf 71 21 a2 3f 7a 9b cd bf bb 07 35 c0
       -1.5620583 1.2666456 -1.6063073 -2.8285968
0000c0 d4 75 b4 bf 6e ab 14 3e 66 b5 d8 3f 5f e5 83 3e
       -1.4098458 0.1451852 1.6930358 0.25760934
0000d0 6c 43 95 3e 61 0e 05 bf d5 2c 3b 3f bc 1e 8d bf
       0.29153 -0.51975065 0.73115283 -1.1025004
0000e0 57 2d 00 3f d7 b8 29 40 34 7e 60 bf ca 99 ac bf
       0.50069183 2.6519067 -0.8769257 -1.3484433
0000f0 71 73 24 c0 7f a2 2d 40 58 b7 50 be a0 95 46 c0
       -2.569546 2.713043 -0.2038244 -3.1028824
000100 01 80 5d 3f bd ca 24 bf ad b9 95 3d 52 24 cf 3e
       0.86523443 -0.64371854 0.073108055 0.40457398
000110 84 6b a1 3f 90 33 00 bf 7b b5 ad 3d 21 e8 b9 bf
       1.2610936 -0.5007868 0.0848188 -1.4523965
000120 94 6c a4 bf e6 52 95 bf 34 24 84 bf d0 c8 7c be
       -1.2845635 -1.1665924 -1.0323548 -0.24685979
000130 20 28 0d 40 80 7c e8 3e 32 ca 8c 3e 7c 20 78 3e
       2.205574 0.45407486 0.27498013 0.24231142
000140 9c ee a8 be ca 91 41 40 b8 4f 01 c0 99 68 cf 3e
       -0.32994545 3.0245233 -2.0204906 0.4050949
000150 a9 fc ba bf 7a 92 c8 bd 59 ba c1 bf 1b fb 3f 3f
       -1.4608356 -0.09793563 -1.5134994 0.7499253
000160 42 7b 89 3d bb 4f 51 bf 26 7d a9 be be 8f 06 c0
       0.06712963 -0.81762284 -0.33103293 -2.1025233
000170 d4 d1 cf 3f b5 b5 d8 be 05 b2 7e 3f ff cb 0d c0
       1.623591 -0.4232613 0.99490386 -2.215576
000180 3e bb 9c 3e dd 21 12 bf 72 09 cc bf a5 c7 a4 3f
       0.30611604 -0.5708292 -1.5940382 1.2873427
000190 46 78 89 bf 2e e1 f9 be 31 bf 98 bf d0 82 ac 3f
       -1.073983 -0.4880461 -1.1933347 1.3477421
0001a0 54 98 5a 3f 2c ac 99 3f 00 50 3b 40 52 4e 3d c0
       0.85388684 1.2005668 2.9267578 -2.9579053
0001b0 49 f9 bc be 51 6c 67 3f cf 6f f0 be b3 a3 e3 3e
       -0.3690894 0.9039965 -0.46960303 0.4446083
0001c0 6d 8f 8a 3f 31 88 0e c0 58 33 f3 3e 57 44 64 be
       1.082502 -2.2270625 0.4750011 -0.22291695
0001d0 7a 28 79 bf 71 9d 69 bf 16 a9 fd bf 78 78 23 3f
       -0.9732739 -0.9125586 -1.9817226 0.63855696
0001e0 55 e9 b1 3f e9 1a f9 bf 40 c1 4f bf 04 c9 4b bf
       1.3899332 -1.9461337 -0.8115425 -0.796036
0001f0 7e 96 18 40 34 92 9e bd 71 5d a9 be 12 e1 92 3d
       2.3841853 -0.0774273 -0.33079103 0.07171835
000200 84 1d 84 bd dd 46 07 40 4c 74 e2 bf 04 1b ce be
       -0.06450942 2.1137002 -1.7691741 -0.40254986
000210 bc 0a cb 3c 02 34 63 3f f9 e8 39 3f e7 23 a7 be
       0.024785392 0.8875123 0.72621113 -0.3264458
000220 16 f8 53 be e9 ec 71 3e 48 fc 91 3e 62 91 92 3e
       -0.20700106 0.2362553 0.28512788 0.28626543
000230 ce 0c 3f c0 ba 1f 3e c0 87 fc c2 3e 91 74 d6 3f
       -2.9851565 -2.9706864 0.38083288 1.6754323
000240 21 aa c4 3e 40 fa 0d 40 db a4 62 bd ef b9 09 c0
       0.38411048 2.218399 -0.055333 -2.1519735
000250 0f 9b 87 bf c0 ef 80 3f ba 83 93 3f a2 92 9c 3e
       -1.0594195 1.0073166 1.1524575 0.30580622
000260 5c 72 ea be 90 5c 99 bf 7f a7 2f be dc 17 48 3f
       -0.45790374 -1.1981373 -0.17153738 0.78161407
000270 a6 29 01 c0 15 6f 03 40 b9 36 9e bf 06 eb e0 bf
       -2.018167 2.053655 -1.236045 -1.7571723
000280 3f c5 1c c0 60 02 04 40 cc 89 5d bf a0 1b b0 be
       -2.449539 2.062645 -0.86538386 -0.34396076
000290 39 dc cb bf 8e 65 d1 be 77 ec 9c bf 9c 5f b8 bf
       -1.5926582 -0.40897793 -1.2259663 -1.4404178
0002a0 99 a5 ce be 43 cf 4b 3e 7d d1 ca bf 4d b9 70 3f
       -0.40360716 0.19903283 -1.5845181 0.94032747
0002b0 45 83 71 3f 7a 09 80 bb 90 3a 8f bf 5d ab 97 bf
       0.94340926 -0.0039073797 -1.1189747 -1.1849171
0002c0 ed 37 dc be 26 ae bc bf df 43 7f be 68 ff f1 3e
       -0.43011418 -1.4740646 -0.24928235 0.47265172
0002d0 77 11 c7 bc fc 0f a8 bf 1c 88 fa 3d 62 b3 f0 3c
       -0.02430032 -1.3129878 0.12232992 0.029382411
0002e0 55 c7 d1 be 5e 10 dd bf 0f ae f8 be e8 29 ce 3f
       -0.4097239 -1.727062 -0.48570296 1.6106539
0002f0 ea 6f 78 40 23 a5 08 c0 65 c9 20 3e 92 63 da bd
       3.8818307 -2.1350791 0.15701826 -0.10663523
000300 80 a3 99 bf 54 63 07 c0 73 2b 9b bd e1 45 62 be
       -1.2003021 -2.1154375 -0.07576647 -0.22096969
000310 7e 87 bf be 28 67 b8 bf 28 08 46 bf 98 9f 41 bf
       -0.3740806 -1.4406481 -0.77356195 -0.75634146
000320 ee 92 3d c0 f4 ba 2c 3f 9d a1 c4 3b e0 97 21 c0
       -2.9620929 0.6747277 0.006000711 -2.5248947
000330 96 f0 33 3d c6 ea b5 3f 06 bb 06 3e cd 24 9d 3e
       0.043930613 1.4212272 0.13157281 0.3069214
000340 e3 0d bc bd 18 09 3b c0 e0 ae 62 3f 67 41 a0 3e
       -0.09182336 -2.92243 0.8854809 0.31299898
000350 60 29 51 bf cb 4d 17 be e0 8d 44 c0 b9 f8 f8 be
       -0.8170376 -0.1477577 -3.0711594 -0.4862726
000360 92 a3 a8 3f 0c 19 b2 bf 22 eb e9 3e bc 9a b8 bf
       1.3174918 -1.3913894 0.45687205 -1.4422221
000370 3d 29 2f 40 25 db e5 3f 7d 75 da bd 4c 90 b9 be
       2.736892 1.7957503 -0.1066694 -0.36242902
000380 61 db 8b bf 5a fc 30 3f 01 55 3c 3f af 1b 14 c0
       -1.0926324 0.6913506 0.73567206 -2.3141897
000390 68 e8 c4 bf cf 5c da 3f f3 d6 39 3d f1 e4 56 bf
       -1.5383425 1.7059573 0.045371007 -0.83943087
0003a0 f4 9e d2 3f 0f eb de 3f f9 bc 55 40 9b 29 45 3f
       1.6454759 1.7415484 3.339659 0.7701661
0003b0 1d 55 69 bf f5 aa d9 bf 1f d1 20 3f 16 ea 49 3d
       -0.911455 -1.7005297 0.62819093 0.049295507
0003c0 31 19 b7 be 14 7f a9 be 5e e8 07 bf 0a 75 fe bf
       -0.35761407 -0.33104765 -0.5308894 -1.9879467
0003d0 1e 48 9b be ef e7 e1 be 0a 69 b6 bf c8 f5 ea bd
       -0.3032846 -0.44122264 -1.4250805 -0.1147266
0003e0 31 31 25 c0 15 63 20 c0 41 f3 13 3f 1a 33 63 3f
       -2.5811274 -2.5060475 0.5779305 0.8874985
0003f0 a8 f8 97 3f 93 29 c6 bf cb 42 81 be bd 39 c4 bd
       1.1872759 -1.5481437 -0.25246271 -0.09581325

weight f4 [8]
000000 df e1 70 40 10 0e 98 40 51 b7 8b 40 8b b3 6a 40
       3.763786 4.7517166 4.3661275 3.6672084
000010 5d 85 55 40 0b e0 77 40 7d db 89 40 95 75 85 40
       3.3362648 3.8730495 4.308043 4.1706033

bias f4 [8]
000000 f4 41 9d bf a6 55 f0 bf a2 6a d7 bf fb 1c a8 bd
       -1.2285752 -1.8776138 -1.6829417 -0.082086526
000010 54 63 97 bc 7d 7e 92 bf 2a 57 0f c0 d1 5e f5 bf
       -0.01847998 -1.1444851 -2.239695 -1.9169561

running_mean f4 [8]
000000 66 e9 d5 c1 ba 18 90 c1 79 c4 2b c2 e7 48 d5 c1
       -26.738964 -18.012074 -42.941868 -26.660597
000010 ec 9c c1 3f 05 25 3e c1 ce a4 34 41 ab b8 84 40
       1.5126014 -11.884038 11.2902355 4.1475425

running_var f4 [8]
000000 96 c9 29 44 a4 73 36 44 88 10 2f 44 29 d8 24 44
       679.1498 729.8069 700.2583 659.3775
000010 d7 25 3c 44 7e ac 0d 44 f4 c7 1a 44 2b 85 2e 44
       752.59125 566.6952 619.12427 698.08075

weight f4 [16, 8, 3, 3]
000000 2b 3d c7 be b5 1a 36 be 84 a1 25 bf 9c 1f 1e bd
       -0.38913855 -0.17783625 -0.6469958 -0.038604364
000010 9a 92 66 3f 63 fc 0a 3e 40 0d 25 3e 26 98 90 3f
       0.90067446 0.1357284 0.16118336 1.1296432
000020 de b0 c4 3d 9d 51 bb bf e6 2c 1b 3f 64 c0 67 bf
       0.09604047 -1.4634281 0.60615385 -0.9052794
000030 d9 03 29 3f d4 c4 33 bf 49 f2 84 be 2f 99 b2 bf
       0.66021496 -0.7022221 -0.259661 -1.3952998
000040 dc 29 e4 3f d0 69 81 bf 47 ab 5d bf 84 57 43 3f
       1.7825274 -1.0110416 -0.86589473 0.76305413
000050 8b 9c 5a 3e 3d 4a a7 3e bb cd d2 bf a8 7d ab 3d
       0.21348779 0.32673827 -1.6469034 0.083735764
000060 38 51 cf 3f 7d cf 17 3f e3 75 2d 3f 39 a7 7c 3e
       1.6196661 0.59300977 0.67758006 0.24673165
000070 cb 35 f8 3f 66 b8 49 be 5c 51 c6 3b af 4e 87 be
       1.9391416 -0.19699249 0.0060521793 -0.26427218
000080 0b ab bd 3e e8 c8 50 3e fd e8 55 3f 71 9a 19 bf
       0.37044558 0.2038914 0.83558637 -0.60001284
000090 04 44 a0 be 2c eb 99 be a6 34 fe bf f7 9d c8 bf
       -0.31301892 -0.30062234 -1.9859817 -1.5673207
0000a0 a4 23 f5 bf 1c 64 32 3f 98 c1 d8 3f 9a 92 6e bf
       -1.9151502 0.69684005 1.693408 -0.93192446
0000b0 99 c1 bc 3d 4c af dd bf 58 f9 90 bc c9 39 80 3e
       0.09216613 -1.7319121 -0.017697021 0.25044087
0000c0 60 08 65 bf 3f 50 69 3e fb 0f 6a be 73 22 dc bf
       -0.89465904 0.22784518 -0.22857659 -1.7198013
0000d0 6c 56 2f 3f ca c9 34 be 61 76 d8 3e ee f5 dd be
       0.68491244 -0.17655101 0.42277816 -0.43351692
0000e0 ae 2d a5 bf 0c 20 43 3f 95 96 56 bf 78 a3 92 be
       -1.2904565 0.76220775 -0.8382352 -0.28640342
0000f0 f9 43 bf be 51 dd 1a 40 85 82 87 be b7 46 39 bf
       -0.37356547 2.419758 -0.26466766 -0.7237353
000100 d7 7c ba bd fa 4a 1d 40 4e dc 87 bf 47 98 08 40
       -0.091058426 2.4577012 -1.0614107 2.1342943
000110 c2 c2 92 be 60 ab 8a bf ea ab f2 be 69 aa e0 3e
       -0.28664213 -1.083355 -0.47396785 0.43880013
000120 35 63 ff be 0c cc c5 3d 47 9d 0e 3f bc ff a9 be
       -0.49880376 0.096580595 0.55708736 -0.33202922
000130 6b 8e 1d c0 e1 a9 c6 bf f8 39 2b 3e b0 e2 b3 bd
       -2.4618175 -1.5520593 0.16721332 -0.087834716
000140 1b ee 11 bf c0 c2 76 bf 30 fb df bf 6a 75 e5 be
       -0.57003945 -0.96390915 -1.7498531 -0.44816142
000150 f9 87 28 3f f6 4c 54 3f 2c af ad 3f 7c 75 66 3d
       0.6583248 0.82929933 1.3569083 0.056264386
000160 74 c7 45 3e 65 36 92 3e 11 81 9f bf 38 ed 9a bf
       0.19314367 0.28557125 -1.2461263 -1.2103643
000170 6a 22 52 3e 80 8e 0d be 7d 1a 73 be 4f 2e dc be
       0.2052094 -0.1382389 -0.23740573 -0.4300408
000180 c5 bd aa 3d 6f 21 f6 3e da 28 0f 40 cf 3d e8 bf
       0.08336977 0.48072383 2.2368684 -1.8143862
000190 89 2d 64 3f 4a 96 c0 3e a9 ac 97 3f 58 b4 a0 bf
       0.8913198 0.3761466 1.1849567 -1.2555037
0001a0 e5 e7 27 bf 46 27 a4 3e ca 0e e0 3f 30 dd 03 bf
       -0.6558822 0.32061213 1.7504513 -0.5150938
0001b0 cf d1 1c 3f a2 78 4b bf 91 a1 c9 be 39 c9 43 3f
       0.6125764 -0.79480946 -0.39381078 0.76478916
0001c0 b2 94 82 be fd d4 b8 bc 50 a2 c8 bf ba 12 af 3e
       -0.2550407 -0.022562498 -1.5674534 0.34193975
0001d0 d1 4f ae bf 24 2c ba 3f c7 07 96 3f 70 fe 33 bf
       -1.3618108 1.4544721 1.1721123 -0.70310116
0001e0 e7 d8 52 3f ec 7f d3 bd fa 42 41 be 1d 02 58 3e
       0.82362217 -0.103271335 -0.18873206 0.21094556
0001f0 22 84 67 3f 84 8a 57 bf 48 e9 02 3f 00 a7 16 bf
       0.90435994 -0.84195733 0.5113721 -0.5884857
000200 bc de ec bf 09 50 5b c0 60 f6 86 3f 50 7e d6 be
       -1.8505473 -3.42676 1.0543938 -0.41893244
000210 e3 79 70 bf bb 20 4a 3f 8a 52 06 bf c4 00 c5 3f
       -0.93935984 0.7895619 -0.52469695 1.5390859
000220 3f c5 b6 3f 8e c7 70 3e a7 76 72 3f 1f d3 ab bf
       1.4278945 0.23513624 0.947123 -1.3423804
000230 c4 ec 4b 3f 7a c2 8b be 87 ea c5 3e 6f c7 a1 3f
       0.7965815 -0.2729681 0.38655493 1.2638987
000240 c6 eb 72 3f 1d d2 37 bf 9a f6 16 c0 f8 d5 4c 3c
       0.9489101 -0.7180498 -2.3588014 0.012502186
000250 18 ce c1 bb 30 eb 4f 3f 80 3d 0f bf dd 11 6d bf
       -0.005914461 0.8121824 -0.55953217 -0.9260538
000260 1d a4 b2 3f a9 26 7f bf a5 07 7a 3e 13 77 80 be
       1.3956333 -0.99668366 0.24416979 -0.25090846
000270 3c a3 2f 3e 5c 52 b3 3f d6 d7 d1 bf 85 f7 ad bf
       0.17152113 1.4009509 -1.6393993 -1.3591162
000280 69 2c 9e bf 7e 2e 0c be 1b 80 6d bf 8d 84 b2 bf
       -1.2357303 -0.1368961 -0.927736 -1.3946701
000290 ee e4 ab 3f f3 5b 87 3e b0 22 91 3e 0e b7 cb 3e
       1.3429239 0.2643734 0.28346777 0.39788097
0002a0 6e 07 d0 bf 96 06 69 bd df c8 71 bf c0 75 9f be
       -1.6252267 -0.056891046 -0.9444713 -0.31144524
0002b0 0f 8a 46 3f 2e b7 ba bf 90 4e 10 3f a8 6f c3 3e
       0.7755441 -1.4587152 0.56369877 0.38171124
0002c0 7f 08 d5 bf ec 96 a7 3f a5 e3 9a 3f 62 46 d9 be
       -1.6643218 1.3092933 1.2100722 -0.4243651
0002d0 24 c1 b6 3e 62 e4 ba be cc df 7b 3e e5 7c bc be
       0.3569423 -0.36502367 0.2459709 -0.36814037
0002e0 90 10 27 3f f7 20 bc 3e 01 2d b1 bf 09 64 82 bf
       0.6525965 0.367439 -1.3841859 -1.0186778
0002f0 c7 ce eb 3e 1f 1d ab bf 84 22 27 40 0c ba 8f 3f
       0.46056196 -1.3368262 2.6114817 1.1228652
000300 5a b3 5e bf 1b 26 35 c0 47 94 95 3f 61 62 61 be
       -0.8699242 -2.8304508 1.1685876 -0.22010185
000310 16 35 a3 3e ef 17 bf bf 42 c0 52 3d 17 32 7d bf
       0.3187644 -1.4929179 0.051452883 -0.98904556
000320 15 bc 7d bf 79 e2 6c 3f 7d 2f 06 bf 03 c1 03 bf
       -0.99115115 0.9253307 -0.5241621 -0.5146639
000330 be 10 98 bf 1a 94 8b bf ac ff 00 40 9b 9f 6d 3f
       -1.1880109 -1.0904572 2.015605 0.92821664
000340 d2 1e a4 bf a4 c0 0d be fd 28 9d 3f cf b1 9f 3e
       -1.2821906 -0.13843018 1.2278134 0.31190345
000350 20 56 cf bf 55 22 14 3e a7 59 d3 bf b5 f0 d3 be
       -1.6198158 0.14466222 -1.6511735 -0.41394582
000360 77 34 5b 3f 95 22 95 bd c4 b8 9e bd 59 92 cf 3e
       0.8562693 -0.072819866 -0.07750085 0.40541342
000370 df 11 60 3f 1e ab 17 3d 6d 00 71 be 06 f5 d7 be
       0.8752727 0.037028424 -0.23535319 -0.42179126
000380 84 a6 a4 bf 4c 26 13 3f c3 49 1a 3e 0a 90 03 bf
       -1.2863317 0.5748031 0.150672 -0.5139166
000390 a3 1e 9c be d5 b5 87 bf 9e 81 16 c0 73 c9 18 3e
       -0.30492124 -1.0602366 -2.3516612 0.14920597
0003a0 cc a5 99 be a9 92 09 c0 ad 33 da 3f 70 61 6d c0
       -0.30009305 -2.1495764 1.704702 -3.709072
0003b0 12 7f 47 3f 10 c5 16 c0 54 36 9e 3f 2d ee 3d 3f
       0.7792827 -2.3557777 1.236033 0.7419155
0003c0 64 2c 36 3e 7c 39 94 be a3 4c 3d 3f 24 e6 be bf
       0.17790371 -0.28950107 0.73945063 -1.4913983
0003d0 59 96 bf 3f 8e 8a 2e 3f 49 db c0 bf c1 96 f2 bf
       1.4967757 0.6818017 -1.506692 -1.8952256
0003e0 5f a3 09 40 0e 30 c5 3f a2 c2 c9 bf d7 92 83 be
       2.1505964 1.540529 -1.5762522 -0.25697967
0003f0 9a cc ea be 1a c4 b4 be 98 fc 72 3e 6f 46 37 3e
       -0.45859224 -0.35305864 0.2372917 0.17897962

weight f4 [16]
000000 fa 6d 6b 40 f9 b8 71 40 e1 e4 6b 40 1c f9 6f 40
       3.6785874 3.7769148 3.6858447 3.7495794
000010 be 86 70 40 65 39 80 40 65 2b 45 40 c5 0b 69 40
       3.758224 4.007006 3.0807736 3.6413434
000020 2a c0 da 40 9e ca da 40 93 d4 d5 40 23 48 cf 40
       6.8359575 6.8372335 6.682199 6.4775558
000030 ad fb da 40 5f 03 d1 40 c3 b4 e5 40 eb 50 cf 40
       6.843222 6.5316615 7.1783156 6.4786277

bias f4 [16]
000000 ad f2 01 c0 28 39 21 bf c2 7f 24 bf f7 e9 81 bf
       -2.0304368 -0.6297784 -0.6425744 -1.0149525
000010 0e 11 be bf c4 6e 0c c0 17 cc 75 be 86 1c 3f bf
       -1.4848955 -2.1942606 -0.24003635 -0.746529
000020 9d 25 d4 3e ca d0 54 3f 38 6e 69 3f 4d 1d 02 3f
       0.41434947 0.83131087 0.91183805 0.5082596
000030 51 9c 29 3f ca fa d5 3e 17 e3 e8 3e 7c df 39 3f
       0.66254145 0.417929 0.45485756 0.72606635

running_mean f4 [16]
000000 c0 8f 31 c0 86 83 9a bf a5 68 60 c1 47 86 b6 c1
       -2.7743988 -1.2071388 -14.025548 -22.815565
000010 3c 79 38 40 8a f6 2f c1 78 32 8e c1 4d bb 02 c1
       2.8823996 -10.99769 -17.774643 -8.170728
000020 99 43 56 3e 9f 75 96 c0 40 fc 8d c0 cf f1 c6 c0
       0.20924224 -4.701858 -4.437042 -6.2170177
000030 54 86 43 c1 f9 26 fb c0 a6 05 54 40 58 b6 86 3f
       -12.220295 -7.8485074 3.3128448 1.0524397

running_var f4 [16]
000000 32 18 7c 43 13 a1 8e 43 ab a6 96 43 6c 28 92 43
       252.09451 285.2584 301.3021 292.3158
000010 e6 06 96 43 01 d5 6d 43 e1 50 95 43 df f2 c6 43
       300.0539 237.83205 298.63187 397.89743
000020 58 8b e1 42 48 02 0c 43 3f b6 05 43 9a 22 12 43
       112.772156 140.00891 133.7119 146.13516
000030 07 43 fd 42 bc 95 16 43 5f c6 29 43 5f e4 09 43
       126.63091 150.5849 169.77489 137.89207

weight f4 [64, 96]
000000 c6 72 c2 bd 21 25 4f be 20 36 52 be 79 07 b5 3e
       -0.094945475 -0.20229007 -0.2052846 0.35357264
000010 12 96 d7 bb 98 78 4c be 14 4d 84 3e f9 99 77 bd
       -0.006579169 -0.19967878 0.25840056 -0.060449574
000020 b3 5e 8b bd ee 1a a1 bd 4d 01 e6 3d 53 8d 74 be
       -0.06805172 -0.078664646 0.11230717 -0.23882036
000030 e8 51 97 3e ab 08 c5 be b9 b9 31 bd b3 f4 07 be
       0.29554677 -0.38483176 -0.04339001 -0.13276939
000040 ea 37 11 be 91 69 c2 bc 2c 4f 77 3d 93 0a 89 3e
       -0.14181486 -0.023731979 0.06037824 0.2676588
000050 e1 8f 84 bd 72 1b 87 be 26 a3 a0 3e 07 8d 8a be
       -0.06472755 -0.26388127 0.31374472 -0.2706072
000060 86 70 e2 bd 1c 84 10 3e b1 d5 8a 3e db 50 55 be
       -0.110566184 0.14112896 0.2711616 -0.20831625
000070 24 71 4c be fd f9 d3 bd 58 7a a7 be 26 ca 93 be
       -0.19965035 -0.10350416 -0.32710528 -0.28865165
000080 7e d5 2c bf 57 35 f9 3c a0 da 06 3f 06 3e 47 be
       -0.67513263 0.030420942 0.52677345 -0.19457254
000090 17 da 2a 3f 12 56 08 3e e9 c7 61 be 28 fc 05 3e
       0.6673903 0.13314083 -0.22048916 0.13084471
0000a0 49 d1 e1 3d 35 f6 e0 be 0e cc 83 be a7 8b 6f 3e
       0.11026246 -0.4393784 -0.2574162 0.23393117
0000b0 af 22 a9 be 94 bd 0e bf 69 89 f3 bd dc e1 2f be
       -0.33034274 -0.55758023 -0.11891443 -0.17176002
0000c0 47 cb 86 3e cd 81 5f be 4f 11 9c be 14 bb bc be
       0.26326963 -0.21826859 -0.30481955 -0.3686148
0000d0 dc 1a 1b bd 20 1f 27 3f cb d3 ed be 33 3c 2c bd
       -0.037867412 0.6528187 -0.46450648 -0.042049598
0000e0 d9 ed 6b 3d c1 61 19 bd 9e 41 c1 3e 4b 70 62 3e
       0.057599876 -0.03744674 0.37745374 0.22113149
0000f0 b9 a5 60 be 9e 0c 4c bd 53 7c 4c 3e 11 74 fb 3e
       -0.21938218 -0.04981672 0.19969301 0.4911199
000100 5c dd 97 be c4 50 1d be 0f 03 b9 3e b5 1f f6 3e
       -0.2966107 -0.15362841 0.36135146 0.48071066
000110 a4 a0 1a be 47 dc 8e be d4 ac 28 bd 26 43 c7 3e
       -0.15100342 -0.27902433 -0.041180447 0.38918418
000120 24 aa d8 be 54 50 df bd 12 3e 58 be 02 15 0c 3e
       -0.42317307 -0.10903993 -0.21117428 0.13679889
000130 50 7c 14 be a1 0d 0a 3e 93 bc 16 3e 63 2b be be
       -0.14500546 0.13481762 0.14720373 -0.37142476
000140 26 77 2a 3e 47 33 0d 3e 92 b4 b5 be a7 e5 45 be
       0.16647014 0.13789092 -0.35489327 -0.19325887
000150 a1 b1 81 bd a1 27 71 be 4a f7 6b be b6 ef 07 bf
       -0.06332708 -0.23550273 -0.23043552 -0.53100145
000160 40 b5 d2 be 8a bf 4f 3c 17 a9 b6 3e 32 3e 69 be
       -0.41153908 0.012679944 0.3567588 -0.22777632
000170 12 e4 0e be ed b1 e6 be e4 60 02 3f df 27 82 bd
       -0.1395419 -0.45057622 0.50929093 -0.06355261
000180 a4 ec e6 bd 5c ad 92 bd 19 17 39 3d 05 95 11 3e
       -0.11275604 -0.07161972 0.045188043 0.14217003
000190 24 eb 23 3e a6 a5 1e be ea fa bc 3c 90 9a d3 b8
       0.16007668 -0.15492877 0.023068864 -0.000100900535
0001a0 39 c3 c5 3d eb 48 a4 be 84 14 6a bd db 5f 30 3e
       0.096563764 -0.32086882 -0.05714847 0.17224066
0001b0 6c e7 ec 3e ec 81 95 3d 64 c3 89 be a6 1b 24 bd
       0.4627031 0.07300171 -0.26906884 -0.04006543
0001c0 70 be 1c 3e 6f e1 05 be ba 22 8b be e4 b8 38 be
       0.15307021 -0.13074277 -0.27174932 -0.1803928
0001d0 f2 ec a1 be c7 7e 7e be de a6 54 be 42 ba 5e 3e
       -0.31626087 -0.24853049 -0.2076678 0.21750739
0001e0 40 71 83 3e b1 36 e8 3d 5b c1 44 be ab a8 1d bc
       0.2567234 0.113385566 -0.19214384 -0.009622733
0001f0 aa 37 89 3d 39 60 c0 3c 3b 7e f7 3d fd da 23 3e
       0.0670007 0.023483383 0.120846234 0.16001506
000200 59 ab 61 be 34 b9 a9 be 8c 55 8c 3e 8a a7 85 3e
       -0.2203802 -0.3314911 0.27409017 0.26104385
000210 51 f0 b5 be f8 73 85 be 5a 9b c4 bb 61 db d9 bd
       -0.3553491 -0.2606504 -0.0059999647 -0.10637546
000220 b3 60 82 be 4e cd 49 3d 72 81 96 3e 18 11 f0 3d
       -0.254644 0.04926806 0.29395634 0.117220104
000230 19 50 01 be fb 38 95 bd 57 8d 54 3e df 84 c7 3e
       -0.12628211 -0.07286259 0.20757042 0.3896856
000240 1f 7f 37 3e f8 58 d8 3e ec c8 fb bd 54 09 48 3e
       0.17919587 0.42255378 -0.12294182 0.19534808
000250 69 4f 62 3d 55 35 5a 3c 14 28 39 be c0 01 d9 3e
       0.055251513 0.013318379 -0.18081695 0.42384148
000260 04 e2 86 3e 62 dd 63 be e8 6b b6 3d 7f ea e7 bd
       0.2634431 -0.2225242 0.089073 -0.113240235
000270 ea 0c d2 3e 63 b8 03 be c7 9a 11 be fb 6b d0 3b
       0.41025478 -0.12863307 -0.14219199 0.0063605285
000280 e8 e5 0c be 06 25 92 3e 3e 17 67 be 8e b2 1b 3e
       -0.13759577 0.28543872 -0.2256746 0.15204832
000290 e3 91 98 3d dc 81 0f 3e 3a c3 90 bc 78 73 71 3e
       0.07449701 0.14014381 -0.017671216 0.23579204
0002a0 8d f7 13 be ac e7 a0 3c 1e 67 26 3e bd 8c 8f be
       -0.14449902 0.01964172 0.16250274 -0.28037062
0002b0 7f 03 b3 be ae 08 db be 44 28 8c 3d 66 e1 fb bc
       -0.34963605 -0.4278006 0.068436176 -0.030747127
0002c0 14 3a e9 bd 08 f0 e0 bc c7 93 3b 3e 92 32 93 be
       -0.11388031 -0.027458206 0.18318091 -0.2874952
0002d0 e7 ad 26 3d d0 92 c2 3d 4e c4 fd bd 98 b2 e2 bd
       0.04069319 0.095006585 -0.12390958 -0.1106922
0002e0 76 49 2b be 22 f1 f4 bd 57 19 49 3e 49 18 47 3e
       -0.16727242 -0.11960055 0.19638573 0.19442858
0002f0 50 ea d2 3d d6 d3 2a 3e 9d 1e ee 3b 83 50 0e bf
       0.10298598 0.16682371 0.007266833 -0.555916
000300 c6 b9 99 bd 05 5e 89 be 56 b2 70 be e0 45 e0 be
       -0.075061366 -0.26829544 -0.2350553 -0.4380331
000310 f0 26 08 bc e3 22 0a bf 06 03 f9 3d 03 89 d9 3e
       -0.008310065 -0.5395948 0.1215878 0.42487344
000320 61 e2 4b 3f fa 06 65 bf 2d cb f1 be aa a1 b8 3e
       0.796423 -0.8946377 -0.47225323 0.3606084
000330 c1 b4 8b bf ae 40 69 3f dd 55 4c bc ea c8 6f 3f
       -1.0914537 0.9111432 -0.012471643 0.93665946
000340 3c b2 ba be 90 ff 24 bf 58 c8 63 be b9 8a 24 3e
       -0.36464107 -0.6445246 -0.22244394 0.16068543
000350 94 a0 f9 be 77 51 6f 3e d3 97 4c 3f d3 5e 0c 3f
       -0.48755324 0.2337092 0.79919165 0.5483219
000360 b2 ec 39 3f 3d d3 06 bf 19 00 80 3f ac 3f 79 be
       0.72626793 -0.52666074 1.000003 -0.24340695
000370 5a 62 3f 3c cc 69 58 bc 7e 67 be 3f ed 2e b5 be
       0.011681164 -0.013208818 1.4875333 -0.35387364
000380 7d 86 11 3f c4 1f 8a be 17 3e c5 3c 9a 29 0d bf
       0.5684584 -0.2697736 0.024077458 -0.55141604
000390 46 7d 0c bf d8 56 01 bf 08 ab fc 3e 8d 83 24 bf
       -0.5487865 -0.5052314 0.49349236 -0.6426323
0003a0 89 7d c9 3e b2 97 a8 3d e6 3d e7 3e fc 5d 46 bd
       0.39353588 0.082320586 0.45164412 -0.048429474
0003b0 86 b3 37 3f ba a6 0d 3d 79 a7 2b be 77 ed 35 be
       0.71758306 0.03458283 -0.16763104 -0.17766367
0003c0 24 aa a2 bf 57 0f bf 3e dc 9b 3a bf 03 4f a6 3d
       -1.2708173 0.3731639 -0.7289407 0.08120539
0003d0 58 88 91 3e 4f a7 99 be 2b 4a 81 bf b1 9e 30 bf
       0.28424335 -0.3001046 -1.0100759 -0.68992144
0003e0 0a 41 30 bf da ea 8e be a5 44 cc be f1 85 5f 3f
       -0.6884924 -0.27913553 -0.39896122 0.87313753
0003f0 c9 56 0e 3f 37 a8 d6 3d 14 8a f5 bd 8d d0 db bd
       0.55601174 0.10481303 -0.11989227 -0.10733137

bias f4 [64]
000000 41 9d 15 bd 32 fe 17 3e a0 b0 a1 be 2f d2 01 3f
       -0.036526922 0.14843062 -0.31580067 0.5071134
000010 d2 78 84 3e 3a 00 61 be 38 8a ac be 93 05 8e bd
       0.2587343 -0.21972743 -0.33699203 -0.06934657
000020 35 e7 59 bd a8 fe 8c 3e 75 27 5e 3f c0 bf bf bd
       -0.05319901 0.27538037 0.86778957 -0.09362745
000030 56 ec ac bd 2a 82 9f 3f 03 14 87 3e cf 22 bb 3e
       -0.08443515 1.2461598 0.26382455 0.36549994
000040 a6 d6 1c 3f 8d 13 3b be ad f6 40 be 06 37 37 3f
       0.6126503 -0.18269177 -0.188441 0.71568334
000050 f4 af 84 3e 2e 59 02 be 58 5f 98 bc ae 44 2e 3f
       0.25915492 -0.12729332 -0.018600151 0.68073547
000060 74 77 d7 3d 13 ed 32 3f 31 cf da bd 29 9a 1f 3f
       0.10520831 0.69892997 -0.1068405 0.62344605
000070 92 7b 44 3d 99 33 1d be 9c 09 b7 3e b0 71 44 be
       0.04796941 -0.15351714 0.3574952 -0.19183993
000080 c8 92 e5 be b6 0d 02 be ae a5 21 3f 63 ba 1b 3f
       -0.44838548 -0.12700543 0.6314343 0.6083128
000090 5f c9 3a 3f 49 b4 b1 be 0e 07 37 3f 85 63 c3 bd
       0.7296352 -0.3470786 0.7149514 -0.09540466
0000a0 b3 ef 01 be e3 6f 61 3f 55 86 d7 be 53 a0 8b 3e
       -0.12689094 0.8806135 -0.42094675 0.27270755
0000b0 fc b7 a7 be 87 0c a8 be 12 f2 da 3e 1a 83 f8 bc
       -0.32757556 -0.32822058 0.4276281 -0.030335952
0000c0 94 5c 49 3f 43 3e 27 3f b0 5d e9 3e ad 2e 8a 3e
       0.7865689 0.6532938 0.4557929 0.26988736
0000d0 75 d8 66 3e 20 b1 02 3f 58 4b c1 bd 10 59 9d be
       0.2254351 0.5105152 -0.09438199 -0.30732012
0000e0 74 72 aa be 88 40 87 3e 78 5f 93 be 11 cd 15 3e
       -0.33290446 0.2641642 -0.28783774 0.14629008
0000f0 b1 48 ed 3e 2a 03 cc 3e cb 1c df bd 96 31 94 3e
       0.46344522 0.39846164 -0.10894164 0.2894408

weight f4 [1, 64]
000000 fc 38 ce bf f5 82 8c 3f 0e b3 2c c0 ed c6 d7 3e
       -1.611114 1.0977465 -2.6984286 0.42143956
000010 9e de f9 3e ac 29 2e c0 ea c3 24 c0 d0 68 47 c0
       0.48802656 -2.7212934 -2.5744576 -3.1157722
000020 9d 38 cb bf c4 7c a0 3f aa 75 15 3f 1d 9c 74 bf
       -1.5876652 1.2538075 0.58382666 -0.9555071
000030 a7 94 3d c0 42 6c 6a 3f cd 2e 06 40 fa 98 b8 3e
       -2.962198 0.9157144 2.0966065 0.36054212
000040 fb 6a 45 3f 03 3c c6 bf fc 7e 2b c0 19 d1 b1 3f
       0.77116364 -1.5487064 -2.6796255 1.3891937
000050 3f e9 b2 3f f4 7a ad bf eb 0a 2c c0 b7 30 c6 3e
       1.3977431 -1.3553147 -2.6881664 0.3870904
000060 0b 71 23 3f 9c 9d 19 3f 83 58 d5 bc a9 59 fb 3e
       0.63844365 0.6000612 -0.026043182 0.49091843
000070 ca 2a 9a bf d5 fb 83 bf 59 bc 73 3e fe f2 63 c0
       -1.2044308 -1.0311228 0.23802318 -3.561706
000080 92 a4 25 c0 1e b8 4d bf d7 0a e6 3e ab 12 da 3e
       -2.5881696 -0.80359066 0.44930145 0.42592368
000090 9e e4 f4 3e 41 33 0c c0 50 0e 06 3f b5 a7 be bf
       0.4783067 -2.1906283 0.5236559 -1.489493
0000a0 b1 83 08 c0 94 bc fd 3f 80 49 1c c0 1b dd 95 3e
       -2.1330378 1.9823174 -2.441986 0.29270253
0000b0 d6 48 e6 bf b9 35 fa bf 49 a2 a6 3f 46 48 9a bf
       -1.7990978 -1.9547645 1.3018275 -1.2053306
0000c0 1e f3 1b 3f 3a 5a 35 40 4e 26 ac 3f fb 12 1f 40
       0.6091784 2.833632 1.344919 2.4855335
0000d0 ab 7b a1 3e 64 9d b5 3e 88 ac e6 bf de e7 1b c0
       0.31539664 0.35471642 -1.8021402 -2.436027
0000e0 ce 54 34 c0 9b d8 f9 3f fd 87 15 c0 66 85 4a 3f
       -2.817676 1.9519228 -2.336425 0.791098
0000f0 6c a2 ee 3e 3f 80 f6 3e e2 e1 d9 bf 24 45 cd 3f
       0.46608293 0.4814472 -1.7022059 1.6036725

weight f4 [64, 96]
000000 f5 c9 9b bf b2 42 cc be c7 20 84 be 6c 62 e1 bd
       -1.2171007 -0.39894634 -0.25806257 -0.110051006
000010 70 e1 82 bd 86 11 47 3e 56 e7 a2 3d 8e c9 f2 3c
       -0.06390655 0.19440278 0.0795428 0.029637124
000020 38 6d b7 3e 18 00 c2 3e 18 18 00 3f 9a ff 43 3c
       0.35825515 0.37890697 0.50036764 0.011962796
000030 04 5f b9 bf 93 ef 45 be 94 9b 4e bf a7 e2 d3 3e
       -1.4482121 -0.19329672 -0.80706143 0.4138386
000040 56 88 17 3e 48 e9 6d 3e ce a1 76 be a6 1d 69 3d
       0.14798102 0.23233521 -0.24085161 0.05691304
000050 24 f1 e2 3e fa ed 2b bf 8a 38 80 bd 92 17 0a bf
       0.443246 -0.6716 -0.06260784 -0.53942215
000060 41 6f 31 bf ae a8 01 bf 38 e7 87 be 02 1d be bd
       -0.69310385 -0.5064801 -0.26543593 -0.092828766
000070 8b 52 2c 3e f0 14 ec 3e 71 09 27 3f 15 97 6a be
       0.16828363 0.46109724 0.6524878 -0.22909196
000080 7b 47 09 3e bb ec df 3f a5 4d d7 be 63 ad 61 3f
       0.13406174 1.749412 -0.42051426 0.8815519
000090 3e b7 ad 3e d7 4f 82 bd 4a e8 24 bf c0 84 b8 3e
       0.33928865 -0.063628845 -0.64416945 0.3603878
0000a0 e7 d9 04 3e 2c 89 4c 3e 4c 83 8f 3e 09 02 50 3d
       0.12973748 0.19974202 0.2802986 0.05078319
0000b0 f8 cb 9b be 51 a0 91 be 2c 1a 43 3e 6f dd 9b 3f
       -0.30429053 -0.28442624 0.19052953 1.2176951
0000c0 96 aa 26 3f 29 c1 4f 3f cb 09 ca be 4b 61 1f 3f
       0.65104043 0.81154114 -0.39460596 0.6225783
0000d0 36 2e cd 3d a6 a7 59 3e c5 28 c4 3e 43 40 58 bf
       0.1001858 0.21255359 0.38312355 -0.84473056
0000e0 58 6a 2a bf ec fc 11 be 5e be ab be c6 a0 3a bf
       -0.6656852 -0.14256638 -0.33543676 -0.7290157
0000f0 8f d5 54 bf 2d b0 ca 3d c7 db 3b be 6a fa 6b bf
       -0.83138365 0.09896884 -0.18345557 -0.92178977
000100 ae bb 17 3f ee 49 8c bd c2 1a 0d 3f 53 21 58 bf
       0.5927075 -0.068500385 0.55118954 -0.8442585
000110 ed 67 8e be 26 56 4f 3d ac dd 99 bd 17 ff 0e 3f
       -0.27813664 0.050619267 -0.07512984 0.55857986
000120 f7 f8 bf bf 46 73 d5 3d 51 95 92 bf 74 f2 79 3f
       -1.4997853 0.10422377 -1.1451818 0.9763558
000130 bb 42 20 bf 94 35 97 3e df 12 fc 3e 3d 9f 30 bd
       -0.6260182 0.29533064 0.49233148 -0.04312061
000140 e6 f6 a4 be f3 17 c0 bd d7 b8 87 bf f5 65 f2 bd
       -0.3221962 -0.09379568 -1.0603284 -0.11835853
000150 0f e5 3c 3f a7 d9 9c 3e e1 c3 34 3e 2e 11 87 3d
       0.73787016 0.30634806 0.17652847 0.06595074
000160 ae c2 ca bd 15 f1 b3 be 65 49 23 bf 72 1f 2d be
       -0.099004135 -0.35144868 -0.63783866 -0.16906527
000170 8a b1 80 3d bb c6 ff be dd 90 bb 3d 1a 4a a0 be
       0.06283863 -0.49956307 0.0915849 -0.31306535
000180 d9 3e d1 3d 80 3f 1d 3a f1 2f 5a 3e c1 3c 46 3e
       0.10217065 0.0005998537 0.2130735 0.19359113
000190 1f 9d 34 bf 1d 70 bf 3e 99 29 8c 3e 45 02 50 3e
       -0.7055225 0.37390223 0.27375486 0.20313366
0001a0 59 d9 da 3d ef 6f aa be b5 5d 09 be 40 5e 34 bf
       0.10685987 -0.33288524 -0.13414653 -0.70456314
0001b0 35 cf 9a 3e 23 b5 cc be f3 04 c1 3e f0 b8 6a bd
       0.3023621 -0.39981946 0.37699088 -0.057305276
0001c0 bc 2f 92 3e 5c 7b 03 3f e3 88 a7 bd 04 5d ff bd
       0.28552043 0.51360106 -0.08180406 -0.12468913
0001d0 de b1 e3 be f1 b2 8d 3e 00 2e 7c be 97 73 4b 3e
       -0.4447164 0.27675584 -0.24626923 0.19868313
0001e0 d6 c9 b0 3d 97 13 aa be fb d1 80 bd 9c 63 c0 3e
       0.08632247 -0.3321807 -0.062900506 0.37575996
0001f0 66 8d cb 3d e4 a5 9f bd 3c 77 72 3e 19 16 eb 3c
       0.09939079 -0.07795313 0.23678297 0.02869706
000200 b4 f8 5a bf 4b 7e 56 be 97 10 a4 be 9b 5c ff 3c
       -0.8553574 -0.20946614 -0.32043907 0.031172087
000210 74 b0 00 3d 72 b9 e1 be 2c 3f 55 3e 93 90 1c 3f
       0.03141828 -0.44086796 0.2082488 0.611581
000220 2b 13 b8 be 0e 98 d6 be 50 46 6b 3b d7 45 de 3e
       -0.35952124 -0.41912884 0.0035900064 0.4341266
000230 ea e0 2e bf 0e be 31 3c c4 b0 b4 3d f4 1f 01 3e
       -0.6831194 0.010848535 0.08822778 0.12609845
000240 46 8e cc be c0 d4 ab be 7e e3 ed 3e 34 e5 ee 3d
       -0.39952296 -0.33560753 0.46462625 0.11664811
000250 fc 2a 4e bb 63 e7 07 3f d8 39 37 3e 9a 1a 1b 3e
       -0.0031458726 0.53087443 0.1789316 0.15146866
000260 92 96 11 be 76 85 6b be ba e5 1a 3e 22 2b 93 be
       -0.14217594 -0.2300013 0.15126696 -0.28743845
000270 90 1a 41 3f 7b 00 14 be fa a0 a0 3e fa 89 f9 be
       0.75431156 -0.14453308 0.31372815 -0.4873808
000280 a2 52 02 be c9 06 29 3f a7 d7 87 3e 9d c7 0b bf
       -0.12726834 0.6602598 0.26531717 -0.5460146
000290 8a eb fd 3d 2e 9e 98 3e 08 77 1d bf 09 65 79 bf
       0.12398441 0.29808182 -0.6150975 -0.9741979
0002a0 85 17 b5 3e 05 0d 65 3f d7 e4 89 3e 51 8e 7d bc
       0.35369506 0.8947299 0.26932403 -0.015475825
0002b0 24 18 b5 bf 06 b0 18 3e bc c0 4f 3f 0f bd 83 3e
       -1.4147992 0.14910898 0.81153464 0.25730178
0002c0 22 71 41 be 5f e8 30 3e fc 9b 9b 39 b3 ba 32 bf
       -0.18890813 0.17276143 0.0002968012 -0.6981613
0002d0 61 b5 da be 28 1b a6 3d 9e 59 fb be 46 cb 3d bf
       -0.42716506 0.081106484 -0.4909181 -0.74138296
0002e0 e0 5e 18 be e8 c9 a0 be 72 91 35 3e f2 7e 34 3e
       -0.14879942 -0.31404042 0.17731264 0.17626551
0002f0 de 1b 54 bc e3 1d e0 bd 9b a5 56 3f b0 2f cc be
       -0.012946097 -0.109432004 0.83846444 -0.39880133
000300 89 4f d0 3e b1 a1 ad bd 05 a9 5c bd 87 41 7b 3c
       0.4068568 -0.08478106 -0.053872127 0.015335447
000310 6a 2b be 3d 85 a5 5c 3f 79 6d bc 3b aa 7b 38 bf
       0.09285624 0.8619006 0.005750355 -0.72063696
000320 67 a8 0d 3f 17 1a c5 3e 6c c6 ba be 41 61 70 3e
       0.55335087 0.38496467 -0.3647951 0.234746
000330 d1 93 d8 be 8c 47 ff 3e 87 4d 8f be 41 54 8a 3e
       -0.42300275 0.49859273 -0.27988836 0.27017406
000340 0a 40 b0 be 91 8e d7 3d 53 6e f4 3b 10 e0 27 3f
       -0.34423858 0.10525239 0.0074594407 0.6557627
000350 3b 92 85 be 6f da 82 be 98 62 3e 3e 25 b4 ee 3d
       -0.26088127 -0.25557277 0.18592298 0.116554536
000360 f6 59 28 3e 1d 0f 82 bd 74 b5 1b be d0 a9 63 be
       0.16440567 -0.06350539 -0.15205938 -0.22232747
000370 57 2a 6e be 76 ef d1 3e 91 76 57 3e 93 1a f1 3e
       -0.23258339 0.41003007 0.21041323 0.47090587
000380 51 30 2e be c3 18 d7 be c1 42 47 3e cc 32 c8 3c
       -0.17010619 -0.4201108 0.19459058 0.024438284
000390 1d a9 3d bf cd bd ca be 20 56 2d 3d af d2 d8 bd
       -0.7408617 -0.39597932 0.042318463 -0.1058706
0003a0 05 b4 04 bf 97 9b 5d bf f7 ae 78 be 70 28 43 3e
       -0.5183719 -0.86565536 -0.24285494 0.19058394
0003b0 10 6d f9 bc c1 d6 e5 3e 0d 80 f3 3e 21 f7 dc 3d
       -0.030447513 0.44890407 0.47558632 0.107893236
0003c0 a9 db c9 be e7 9d 08 bf ef a7 0f 3e fd 86 61 3d
       -0.394254 -0.5336594 0.14028905 0.055060375
0003d0 58 87 8d be 30 07 ca be 17 a1 c2 3e 2c 62 95 3e
       -0.27642322 -0.3945861 0.38013527 0.29176462
0003e0 8a bf 8a 3e 42 39 1b 3f d1 ee fa bd 4c 8d 11 bf
       0.27099258 0.60634243 -0.12252582 -0.56856227
0003f0 a2 12 67 3f ab 2b f1 be 6d e8 da be 27 fa c7 3b
       0.90262806 -0.4710363 -0.42755452 0.0061028185

bias f4 [64]
000000 5d de 20 3d 07 ef 36 3d 86 4d 08 3b d3 fb ec 3c
       0.039274562 0.044661548 0.002079816 0.028928673
000010 bc e0 83 3d 11 70 fe 3d bd 79 83 3d 29 dc 44 bd
       0.06439349 0.12423719 0.06419704 -0.048061524
000020 68 ef 31 3d 5d c8 f3 bd b7 af 8b 3e 52 69 de bc
       0.043441206 -0.11903451 0.27282497 -0.02714983
000030 87 fc 95 3d 9d ce 60 3d 3f d6 3f 3c aa 0d bc 39
       0.073235564 0.05488454 0.011708795 0.00035868335
000040 64 4f 97 3d ee b8 60 3d fd 15 15 3d 16 4b 88 3d
       0.073881894 0.054863863 0.036397923 0.066549465
000050 c0 ac 60 bd 03 db f6 3d 71 58 ea 3d 5a 30 8b 3d
       -0.054852247 0.12053492 0.1144265 0.06796332
000060 26 eb ba bd 3f 8c 0d 3e c7 b7 2b 3e b8 5b b7 3d
       -0.09126882 0.13823031 0.16769324 0.08953041
000070 2f 01 56 3a 52 b0 d4 bc 8c 05 f1 3d 63 7d c4 3c
       0.00081636285 -0.025962982 0.11768636 0.02398557
000080 7f c5 fe bd ca 76 3f 3d 93 b2 3a bc ec 1d cf 3d
       -0.12440013 0.046744145 -0.0113951145 0.10113129
000090 43 f2 6c 3d d1 57 19 3e 4a 1a eb bc 72 73 0a bd
       0.057848226 0.14974906 -0.028699059 -0.033801503
0000a0 8b 8a 72 bb fa a2 55 bc b0 29 c1 bd be 6c 0f 3e
       -0.0037008848 -0.013039345 -0.094317794 0.14006326
0000b0 03 a8 ee 3d 4b aa c6 3d 2f f4 c5 3d b7 e5 a0 bd
       0.116531394 0.097004496 0.09665715 -0.07856315
0000c0 a2 2a b4 bd 45 00 bd bc 28 10 80 3b b2 5e d4 3d
       -0.08797194 -0.023071418 0.003908176 0.10369624
0000d0 c5 d1 3d bd 05 da 02 3d ee 99 d0 bd 49 1f 0d 3e
       -0.04634263 0.0319462 -0.1018561 0.13781466
0000e0 08 69 e8 3c a1 49 2d bd 37 3a 72 3d 52 d5 82 3d
       0.028370395 -0.042306546 0.05913755 0.06388344
0000f0 40 b3 82 3c 54 aa 9a bd c3 dd 98 bd 02 34 ae 3d
       0.015954614 -0.07552019 -0.07464173 0.085060135
