trained_models/50/doom-model.pth (torch, 106629 bytes, 27 tensors)

weight f4 [8, 1, 3, 3]
38.847446 -14.129287 7.3629575 25.17593 -51.394447 -17.675764 -2.6014462 -34.603073
22.905836 -10.758965 3.024794 3.8988364 7.5041738 24.6335 -8.177064 16.311447
10.527704 -9.311268 13.658295 41.528557 -1.4866585 -16.5045 -8.116355 -33.03021
10.489854 -1.2713674 -26.146084 -10.318933 7.9724874 -10.304458 -10.009793 19.755516
-78.83263 -26.03928 44.688953 13.350452 2.1059756 0.22443137 8.996274 -6.4292874
12.993976 38.710293 13.668005 -23.933577 -13.520743 17.532286 -9.258299 18.204632
-3.1658356 -2.920263 7.130607 -47.324394 -18.71672 -3.36942 -19.347061 -31.813894
-12.6335535 22.547352 15.975129 26.069395 4.1392345 -38.01082 -18.935816 -15.772213
-1.0758349 20.237555 -17.616627 -6.186195 22.262629 37.80714 -36.883633 -22.198267
00000000: c963 1b42 8f11 62c1 599d eb40 4e68 c941
00000010: ea93 4dc2 f767 8dc1 187e 26c0 8c69 0ac2
00000020: 273f b741 b824 2cc1 3a96 4140 8986 7940
00000030: 3122 f040 6811 c541 41d5 02c1 d87d 8241
00000040: 7a71 2841 f4fa 14c1 6088 5a41 3e1d 2642
00000050: d34a bebf 3709 84c1 97dc 01c1 ef1e 04c2
00000060: 71d6 2741 2bbc a2bf 2e2b d1c1 591a 25c1
00000070: 9e1e ff40 0fdf 24c1 1d28 20c1 4c0b 9e41
00000080: 4eaa 9dc2 7250 d0c1 7dc1 3242 749b 5541
00000090: 4ec8 0640 56d1 653e bdf0 0f41 b9bc cdc0
000000a0: 53e7 4f41 57d7 1a42 26b0 5a41 f777 bfc1
000000b0: f754 58c1 1f42 8c41 fe21 14c1 16a3 9141
000000c0: 0d9d 4ac0 97e5 3ac0 ef2d e440 2e4c 3dc2
000000d0: d8bb 95c1 94a4 57c0 c8c6 9ac1 db82 fec1
000000e0: 0923 4ac1 fa60 b441 219a 7f41 1f8e d041
000000f0: 9c74 8440 140b 18c2 8d7c 97c1 fc5a 7cc1
00000100: f5b4 89bf 83e6 a141 daee 8cc1 4ff5 c5c0
00000110: dd19 b241 833a 1742 d788 13c2 0d96 b1c1

weight f4 [8]
45.263123 20.156267 32.322765 43.522663 27.783978 45.061775 36.48918 29.716026
00000000: 700d 3542 0940 a141 834a 0142 3517 2e42
00000010: 9645 de41 423f 3442 ecf4 1142 6cba ed41

bias f4 [8]
6.892679 -7.6696424 0.32880726 10.963527 -9.521121 -6.2517877 7.9619946 9.562903
00000000: d490 dc40 b66d f5c0 6d59 a83e 9b6a 2f41
00000010: 8356 18c1 a50e c8c0 a9c8 fe40 a701 1941

running_mean f4 [8]
-3.9625072 5.3432817 -3.3029332 -6.3866487 4.4402227 -6.2226853 -7.3694935 -3.0301507
00000000: b899 7dc0 2afc aa40 4263 53c0 6d5f ccc0
00000010: 4e16 8e40 3d20 c7c0 e4d2 ebc0 fded 41c0

running_var f4 [8]
10.671576 6.7667036 8.953491 10.625525 4.7844563 15.396728 11.583141 4.8944774
00000000: c6be 2a41 d688 d840 8041 0f41 2702 2a41
00000010: 441a 9940 ff58 7641 8c54 3941 8f9f 9c40

weight f4 [8, 8, 3, 3]
-0.73430514 6.3876195 3.5201423 16.461197 12.915228 -13.33921 13.834718 -17.154259
10.688916 0.27342033 9.60602 -2.0319414 4.6683116 4.0476227 -9.941057 -2.871761
9.281117 2.8091953 8.984429 4.770301 7.0534153 7.8868937 0.29799205 5.4454885
-4.2071395 1.8823961 7.6037617 -5.8329 -18.21515 -3.1017292 7.774433 13.261428
-17.940649 7.532494 13.618287 -5.6674075 12.5184145 21.896097 13.406869 4.5607505
-10.059704 -2.1667476 -1.5110247 1.5467664 -7.3651867 -5.542527 22.302807 8.376193
5.426123 -0.7559385 9.675553 -5.7747293 -22.461851 -7.7314887 3.2487898 -2.6244323
-10.173623 0.35573965 -7.635855 11.072715 -8.69146 -0.7896785 15.04303 6.5041347
4.9260483 -8.941831 -3.919999 -4.132463 15.192563 -10.564859 -4.3366933 20.183668
2.350193 5.408062 -10.826441 10.510702 -4.4205704 26.772053 8.8051815 4.8818994
-17.572128 -1.3139398 -8.657687 -6.027469 -5.2985544 -5.365509 -11.258223 5.767923
-1.7363558 3.9016244 -9.938228 12.739681 12.069618 8.485978 9.9926605 16.70915
-2.4367492 5.974569 -28.572319 -12.082858 9.113374 -12.517253 3.133018 28.053978
12.725446 7.0848455 -31.774645 5.316612 -5.404851 -5.6415577 -0.47510347 -3.4104767
-6.651369 -1.990965 2.6202552 -0.7594265 4.300573 -4.070977 1.9858208 10.052355
10.367173 5.2451386 13.286205 5.453559 0.8524029 2.6611645 0.9073559 -16.593628
1.895173 -7.123677 -12.725856 -16.841515 14.696655 8.514924 1.1519839 3.718489
-7.1355023 10.600442 -4.9409246 -0.20595914 5.731951 14.14753 7.954326 -8.428804
-3.0776458 22.656834 8.315968 -7.9439235 -11.44005 17.465536 12.174976 -15.029634
-7.7896237 -5.2673984 2.5580478 -6.8277593 4.4931407 -5.5325456 6.7661333 -8.568023
-18.794205 -12.708012 -4.92549 16.935846 -0.74706596 2.5566912 -11.469081 -3.692079
3.608266 -18.098452 -11.325097 4.3681397 -14.842395 -11.515928 2.6355693 -3.5502303
22.133965 -1.7588396 -19.045095 -23.040646 -4.1856713 9.066712 -6.427658 -16.04854
2.156841 6.29151 10.573149 4.0866914 -14.535847 11.270865 11.369259 12.553196
-2.2567563 -7.3054047 -2.15976 0.99329394 -2.5669427 -3.2735958 -7.20198 -7.810486
-13.167093 -1.1413064 18.987385 0.77108127 3.0977857 26.616825 18.307446 -0.08939874
-7.45789 -4.6572556 0.73859775 8.438166 1.6835574 0.37459373 8.386764 -3.202226
6.19088 6.2897673 -2.5756953 6.3772306 -9.97455 12.834079 -4.5826335 6.917649
-0.9218397 2.2933683 3.423474 -5.1738825 -3.6694367 -2.8151858 2.975989 -14.931713
9.249436 -0.49549985 -6.312013 -1.8883755 -11.669925 -13.463581 -5.860839 -6.4201603
19.951586 -1.2215152 1.3004717 -11.190987 17.44663 3.8332357 30.660461 -15.284709
-3.185314 -7.787189 -22.030329 5.2320933 7.6266766 -1.147246 15.435932 -2.9234402
00000000: 6cfb 3bbf 6167 cc40 034a 6140 88b0 8341
00000010: c6a4 4e41 676d 55c1 015b 5d41 ec3b 89c1
00000020: cd05 2b41 c0fd 8b3e 42b2 1941 540b 02c0
00000030: cf62 9540 2086 8140 920e 1fc1 efca 37c0
00000040: 757f 1441 dbc9 3340 39c0 0f41 4ea6 9840
00000050: 94b5 e140 6f61 fc40 6a92 983e 7141 ae40
00000060: e3a0 86c0 5bf2 f03f 0452 f340 1ea7 bac0
00000070: a1b8 91c1 bb82 46c0 28c8 f840 cf2e 5441
00000080: 7386 8fc1 310a f140 81e4 5941 675b b5c0
00000090: 6d4b 4841 352b af41 8982 5641 abf1 9140
000000a0: 8cf4 20c1 feab 0ac0 4269 c1bf 71fc c53f
000000b0: 9caf ebc0 625c b1c0 266c b241 e304 0641
000000c0: cda2 ad40 2f85 41bf 11cf 1a41 95ca b8c0
000000d0: dfb1 b3c1 5b68 f7c0 2cec 4f40 b3f6 27c0
000000e0: 29c7 22c1 8223 b63e ed58 f4c0 d729 3141
000000f0: 3810 0bc1 5f28 4abf 40b0 7041 df21 d040
00000100: 30a2 9d40 bd11 0fc1 43e1 7ac0 233d 84c0
00000110: bd14 7341 aa09 29c1 31c6 8ac0 2778 a141
00000120: 9069 1640 d80e ad40 1a39 2dc1 d62b 2841
00000130: 5075 8dc0 2a2d d641 06e2 0c41 8538 9c40
00000140: b893 8cc1 2e2f a8bf e385 0ac1 07e1 c0c0
00000150: c28d a9c0 40b2 abc0 ae21 34c1 d392 b840
00000160: e840 debf 37b4 7940 fb02 1fc1 bcd5 4b41
00000170: 281d 4141 91c6 0741 f0e1 1f41 57ac 8541
00000180: b3f3 1bc0 ab2f bf40 1c94 e4c1 6353 41c1
00000190: 61d0 1141 ab46 48c1 5e83 4840 8c6e e041
000001a0: 6d9b 4b41 0eb7 e240 7932 fec1 af21 aa40
000001b0: 8af4 acc0 a487 b4c0 c340 f3be 4045 5ac0
000001c0: 04d8 d4c0 f1d7 febf 43b2 2740 c669 42bf
000001d0: 4b9e 8940 7245 82c0 602f fe3f 72d6 2041
000001e0: f1df 2541 2dd8 a740 4c94 5441 8e83 ae40
000001f0: 1437 5a3f 8550 2a40 7a48 683f c0bf 84c1
00000200: 0795 f23f 29f5 e3c0 1b9d 4bc1 6cbb 86c1
00000210: 8025 6b41 213d 0841 3574 933f b9fb 6d40
00000220: 0956 e4c0 699b 2941 0e1c 9ec0 f4e6 52be
00000230: 256c b740 485c 6241 d789 fe40 62dc 06c1
00000240: 26f8 44c0 3241 b541 340e 0541 9f34 fec0
00000250: 720a 37c1 6bb9 8b41 b4cc 4241 6279 70c1
00000260: 9944 f9c0 878e a8c0 0eb7 2340 017d dac0
00000270: cfc7 8f40 9d0a b1c0 2a84 d840 9f16 09c1
00000280: 885a 96c1 0454 4bc1 9d9d 9dc0 9d7c 8741
00000290: b73f 3fbf d4a0 2340 5b81 37c1 064b 6cc0
000002a0: d5ed 6640 a1c9 90c1 9933 35c1 cdc7 8b40
000002b0: 737a 6dc1 3e41 38c1 2bad 2840 f936 63c0
000002c0: 5c12 b141 a821 e1bf 5b5c 98c1 3e53 b8c1
000002d0: 05f1 85c0 4111 1141 60af cdc0 6963 80c1
000002e0: af09 0a40 0d54 c940 9e2b 2941 2dc6 8240
000002f0: d492 68c1 7755 3441 7ce8 3541 e4d9 4841
00000300: b26e 10c0 e0c5 e9c0 8239 0ac0 8348 7e3f
00000310: ca48 24c0 9882 51c0 9f76 e6c0 80ef f9c0
00000320: 6aac 52c1 5416 92bf 2ae6 9741 9565 453f
00000330: 1f42 4640 42ef d441 a675 9241 b016 b7bd
00000340: 09a7 eec0 3d08 95c0 be14 3d3f ba02 0741
00000350: cf7e d73f c0ca bf3e 2f30 0641 45f1 4cc0
00000360: b01b c640 c645 c940 31d8 24c0 4612 cc40
00000370: c297 1fc1 6358 4d41 efa4 92c0 615d dd40
00000380: b0fd 6bbf 8cc6 1240 331a 5b40 7290 a5c0
00000390: 0dd8 6ac0 012c 34c0 9b76 3e40 4ce8 6ec1
000003a0: b1fd 1341 28b2 fdbe 03fc c9c0 4ab6 f1bf
000003b0: 03b8 3ac1 d46a 57c1 fe8b bbc0 f471 cdc0
000003c0: d99c 9f41 9c5a 9cbf db75 a63f 480e 33c1
000003d0: b392 8b41 bc53 7540 a048 f541 2b8e 74c1
000003e0: 2fdc 4bc0 a730 f9c0 1d3e b0c1 4f6d a740
000003f0: bc0d f440 f5d8 92bf 94f9 7641 a519 3bc0

weight f4 [8]
33.175526 30.655088 33.04632 31.716827 38.305485 28.920486 38.15107 31.594736
00000000: bdb3 0442 9f3d f541 6f2f 0442 10bc fd41
00000010: d138 1942 285d e741 b29a 1842 05c2 fc41

bias f4 [8]
-3.6834013 24.107368 7.5987315 4.976373 9.581339 24.31619 -7.0600724 10.590039
00000000: d9bc 6bc0 e4db c041 cf28 f340 733e 9f40
00000010: 2a4d 1941 8f87 c241 1dec e1c0 cd70 2941

running_mean f4 [8]
1267.858 1322.6381 -131.29922 1232.8827 -2127.0234 633.25287 -2226.584 -667.86505
00000000: 757b 9e44 6b54 a544 9a4c 03c3 3f1c 9a44
00000010: 60f0 04c5 2f50 1e44 5829 0bc5 5df7 26c4

running_var f4 [8]
2.7146318e+06 3.3464008e+06 2.1322258e+06 2.82759e+06 3.3572575e+06 2.6592615e+06 3.088252e+06 1.8255659e+06
00000000: 1fb0 254a 833f 4c4a 0724 024a 1895 2c4a
00000010: 26e9 4c4a f64e 224a f07d 3c4a efd8 de49

weight f4 [8, 8, 3, 3]
8.710379 5.324007 14.122308 -11.173066 -11.039008 -5.5069366 6.4422584 -8.549173
-4.836382 5.818723 1.020202 -7.89402 -14.104487 -11.479169 16.208261 5.393842
-8.701621 -6.754856 -19.538036 -3.07631 1.7964109 -8.199709 -16.89359 7.014607
-13.819117 -2.6694775 0.6921514 7.100866 -3.253408 7.5938067 -7.660732 -1.38472
-9.832198 -10.350895 -12.096316 -6.106036 6.248015 19.663408 -3.5984156 -0.8093166
-5.10737 -7.6403995 -9.469079 -9.065755 13.771525 17.805698 0.35290706 11.872079
4.9156365 7.4186893 -13.104713 29.8381 0.19014227 -8.543708 -8.949882 -5.287937
2.4302256 -11.0377445 6.9798665 -15.000834 6.360527 -5.195989 -12.125475 -6.89499
-18.30334 9.38095 -2.6625347 6.884682 -16.074585 -2.367045 -8.545125 -18.356874
15.686638 2.3087611 -3.4687483 -5.8444843 -8.170936 4.768188 -5.080962 2.325683
-7.672382 -0.3717034 -7.2713985 -24.66161 14.903806 3.1149974 16.896437 2.5384216
-11.5545435 7.0957236 6.3424997 21.355473 8.585513 -17.381538 -8.809023 3.2186522
22.079342 2.8528543 -8.535638 -9.0391245 -10.509167 0.029084347 23.99902 -1.6972615
-8.351171 -0.9205299 -5.1758957 -2.2828972 -4.142841 24.738811 -8.823453 0.36201018
7.1498337 -3.566059 -2.3473852 -9.7507925 -6.8652043 3.009576 -8.732205 14.558486
-8.358539 -29.877815 17.090046 -5.4057856 -2.1751966 -4.7140346 7.798856 11.115916
9.145756 6.0186357 8.017957 -13.491357 -19.182102 -9.574168 -4.6624093 -7.255139
-11.7020645 12.544167 4.526185 -9.9086 -2.628169 -9.378747 1.7297134 32.63385
-12.476568 6.6441855 -0.20369813 1.4991632 -15.738908 -11.932354 8.152013 -17.384304
0.8513507 7.8485794 4.461603 -23.259642 -1.8400017 -23.598043 7.9982324 19.167038
21.002407 -8.897681 -15.596957 -0.5413145 -0.22378904 -8.503713 -3.9111636 -4.37556
28.892408 -2.727912 16.868662 -7.4965587 -6.8924093 3.1301143 6.977035 10.878804
0.6966272 -16.481472 7.7554846 3.6035075 11.518702 -10.28224 -10.049601 -6.135948
-10.016557 -6.4263 16.798113 -7.4536705 -22.844608 15.3302145 -6.782383 -5.3722606
1.7753417 -10.656239 4.036833 -9.02228 -1.088721 5.463118 21.521683 -8.512789
1.653005 -14.298433 -14.852246 2.642012 5.875598 5.5196857 -1.4723825 11.16563
-6.533649 -4.1321864 -7.8619924 6.7834806 -12.389634 4.753936 -6.063145 1.9764951
-8.868132 0.2444442 17.392284 -6.982139 -15.5344095 -13.574513 -13.507014 -8.299974
2.1125844 -3.6175873 2.6089993 16.445557 3.5279143 11.65198 2.9500706 0.43382388
-23.29817 -7.4422083 -11.183028 -10.930261 14.259496 -5.4629793 -0.30479676 16.762316
1.9299165 -4.583687 9.880358 -13.002582 -6.7155876 12.72412 -5.1209645 -2.7931566
-20.97423 7.3902483 -19.873219 -11.381846 7.642883 18.857927 -21.111633 8.475613
00000000: b65d 0b41 445e aa40 f9f4 6141 e1c4 32c1
00000010: c79f 30c1 d338 b0c0 fb26 ce40 6ac9 08c1
00000020: a4c3 9ac0 fb32 ba40 fb95 823f d09b fcc0
00000030: fbab 61c1 adaa 37c1 85aa 8141 5b9a ac40
00000040: d739 0bc1 c827 d8c0 e64d 9cc1 43e2 44c0
00000050: cbf0 e53f 0232 03c1 1326 87c1 a977 e040
00000060: 1a1b 5dc1 b8d8 2ac0 d630 313f 4b3a e340
00000070: d637 50c0 7700 f340 b724 f5c0 813e b1bf
00000080: af50 1dc1 449d 25c1 838a 41c1 a664 c3c0
00000090: bdef c740 a94e 9d41 714c 66c0 5f2f 4fbf
000000a0: 936f a3c0 277e f4c0 5981 17c1 550d 11c1
000000b0: 2b58 5c41 1272 8e41 3cb0 b43e 09f4 3d41
000000c0: e54c 9d40 e765 ed40 e8ac 51c1 6eb4 ee41
000000d0: a8b4 423e 07b3 08c1 b732 0fc1 c836 a9c0
000000e0: d188 1b40 9a9a 30c1 115b df40 6b03 70c1
000000f0: 7089 cb40 8b45 a6c0 f201 42c1 c2a3 dcc0
00000100: 3e6d 92c1 5f18 1641 f866 2ac0 514f dc40
00000110: c098 80c1 aa7d 17c0 d5b8 08c1 e1da 92c1
00000120: 78fc 7a41 bec2 1340 f9ff 5dc0 0406 bbc0
00000130: 27bc 02c1 ff94 9840 3e97 a2c0 fed7 1440
00000140: 2784 f5c0 e84f bebe 4caf e8c0 fa4a c5c1
00000150: fd75 6e41 1e5c 4740 e72b 8741 8075 2240
00000160: 69df 38c1 2b10 e340 c2f5 ca40 02d8 aa41
00000170: 435e 0941 640d 8bc1 c2f1 0cc1 66fe 4d40
00000180: 7ea2 b041 2a95 3640 f991 08c1 41a0 10c1
00000190: 8c25 28c1 4c42 ee3c fefd bf41 dd3f d9bf
000001a0: 659e 05c1 d9a7 6bbf f0a0 a5c0 fd1a 12c0
000001b0: 2792 84c0 16e9 c541 dd2c 0dc1 6659 b93e
000001c0: 70cb e440 503a 64c0 8f3b 16c0 3f03 1cc1
000001d0: c1af dbc0 e59c 4040 1db7 0bc1 8fef 6841
000001e0: 93bc 05c1 c405 efc1 6ab8 8841 32fc acc0
000001f0: 6c36 0bc0 5fd9 96c0 3a90 f940 cbda 3141
00000200: 0455 1241 aa98 c040 8d49 0041 99dc 57c1
00000210: f274 99c1 cb2f 19c1 7532 95c0 192a e8c0
00000220: a83b 3bc1 e8b4 4841 82d6 9040 a089 1ec1
00000230: ec33 28c0 590f 16c1 4067 dd3f 1089 0242
00000240: 06a0 47c1 2b9d d440 3e96 50be 94e4 bf3f
00000250: 91d2 7bc1 ecea 3ec1 a56e 0241 0e13 8bc1
00000260: 1ff2 593f 9027 fb40 74c5 8e40 bf13 bac1
00000270: 2d85 ebbf cbc8 bcc1 85f1 ff40 1856 9941
00000280: ee04 a841 e75c 0ec1 238d 79c1 9693 0abf
00000290: f428 65be 350f 08c1 8150 7ac0 9604 8cc0
000002a0: a723 e741 1c96 2ec0 05f3 8641 cfe3 efc0
000002b0: 9e8e dcc0 cb53 4840 df43 df40 950f 2e41
000002c0: 2956 323f 0eda 83c1 ee2c f840 de9f 6640
000002d0: 9a4c 3841 0e84 24c1 2acb 20c1 b059 c4c0
000002e0: d143 20c1 40a4 cdc0 8962 8641 7884 eec0
000002f0: c2c1 b6c1 8f48 7541 4809 d9c0 8fe9 abc0
00000300: 663e e33f f47f 2ac1 bc2d 8140 425b 10c1
00000310: 365b 8bbf ddd1 ae40 682c ac41 6234 08c1
00000320: ab95 d33f 62c6 64c1 cda2 6dc1 b916 2940
00000330: e604 bc40 44a1 b040 0877 bcbf 6ca6 3241
00000340: a713 d1c0 df3a 84c0 7195 fbc0 4612 d940
00000350: f13b 46c1 3e20 9840 4905 c2c0 cbfd fc3f
00000360: dee3 0dc1 954f 7a3e 6623 8b41 af6d dfc0
00000370: f18c 78c1 3531 59c1 bb1c 58c1 b2cc 04c1
00000380: 9534 0740 8d86 67c0 d8f9 2640 8090 8341
00000390: 59c9 6140 836e 3a41 f5cd 3c40 2a1e de3e
000003a0: a762 bac1 9226 eec0 afed 32c1 59e2 2ec1
000003b0: e526 6441 bad0 aec0 520e 9cbe 3919 8641
000003c0: 8107 f73f 90ad 92c0 f215 1e41 930a 50c1
000003d0: 18e6 d6c0 ff95 4b41 f1de a3c0 14c3 32c0
000003e0: 39cb a7c1 ea7c ec40 5afc 9ec1 0b1c 36c1
000003f0: 7f92 f440 09dd 9641 a0e4 a8c1 1c9c 0741

weight f4 [8]
28.435858 36.911602 26.21349 33.465656 41.367825 29.601051 36.61886 29.491259
00000000: a37c e341 7ba5 1342 3ab5 d141 d5dc 0542
00000010: a778 2542 f4ce ec41 b679 1242 19ee eb41

bias f4 [8]
1.5619231 -2.5238125 8.655426 5.2394943 -6.474471 5.756401 4.969574 2.3738787
00000000: 19ed c73f 2586 21c0 a07c 0a41 f0a9 a740
00000010: de2e cfc0 7034 b840 c006 9f40 a1ed 1740

running_mean f4 [8]
-2214.3623 -587.62616 -1743.1346 -2229.5105 -1309.146 146.90977 -4467.391 -3402.7893
00000000: cc65 0ac5 13e8 12c4 4fe4 d9c4 2b58 0bc5
00000010: aca4 a3c4 e7e8 1243 219b 8bc5 a1ac 54c5

running_var f4 [8]
4.210717e+06 4.523831e+06 5.1424355e+06 4.8250385e+06 5.586078e+06 3.7183535e+06 7.141095e+06 4.2073605e+06
00000000: 3a80 804a 6e0e 8a4a 47ef 9c4a 9d3f 934a
00000010: 3c79 aa4a 46f3 624a ceed d94a 0166 804a

weight f4 [16, 8, 3, 3]
-1.920283 -14.96031 4.205053 3.9810803 -4.0159745 -3.9286835 -2.160304 -6.8075624
-9.215932 -7.477683 -1.3657824 -11.18238 -8.006698 -5.2924795 1.8943615 -7.6284313
-3.5631173 -11.772293 -0.6476579 -3.6106575 4.920948 2.4196484 5.6759505 -0.19330621
12.960602 -2.3957782 2.1358547 -2.7612083 -1.7399619 10.9345255 -0.9923058 -1.2178459
-0.53134584 -10.926057 2.96253 5.9340544 -2.7669823 -7.2718897 0.71665955 2.7237542
-2.669265 -0.93045896 -10.553123 6.897539 0.5035616 8.181073 -5.654299 -0.9870714
-14.930953 4.077395 -1.1917936 2.5600655 -2.1171792 -6.5937643 6.7751813 10.422637
5.7513213 -2.656097 -0.77551556 -12.312987 -0.22457737 1.5685693 -3.2747655 -0.56205934
-4.7184286 1.2451785 1.215799 -0.25554976 1.0706122 2.5181448 -3.6653154 -3.662852
-3.0109 0.016785469 -4.340892 4.0791736 4.930279 -1.763191 -9.969516 -5.9651847
-2.5237503 3.721422 -2.7428017 1.4104949 0.59882236 4.888836 -8.728279 0.72900885
-5.8252926 4.5861316 -5.320516 -0.31998852 2.8047104 2.6433604 -2.5500407 0.7949206
3.0093365 -1.740798 -7.95725 1.4552604 10.603112 -1.0574639 10.421005 8.270214
-1.561665 1.040616 19.866434 -8.304703 1.230316 1.4521571 5.716868 4.3113484
-5.81658 5.4008455 -14.577803 4.684167 -4.2918434 9.502501 -2.8542666 11.8126745
2.9007654 9.081227 0.2879367 -13.74137 -6.5334744 -19.08897 5.995411 -0.38584468
0.2762463 2.0146005 -3.8642266 0.95064324 -0.396824 8.6862335 -5.860461 -5.893656
-0.17026557 -9.232686 10.465074 2.0012596 -1.3998557 -0.30212873 0.690144 4.011546
-2.8163502 3.2226384 -4.9516554 -3.3576183 5.6467443 0.7669761 11.770478 -1.4056585
-4.066362 0.8592417 -0.7294073 -5.989284 0.043537106 -15.405133 -1.0525854 3.494108
5.9712114 1.3693168 -7.1723843 -1.3698204 -3.2747872 3.4418268 5.2476883 -3.31361
1.1194766 -10.047593 2.7139494 -7.790421 -5.6787724 -2.1433105 -6.990269 4.372581
-3.5177615 -9.833835 13.492446 -0.49101543 -5.0510044 -6.857664 0.737517 2.7994702
-4.662149 2.818724 -4.8175716 -1.2582699 -4.1628337 -20.008083 -3.1272037 -4.2026343
0.30188864 0.21605405 9.024341 5.2625585 -0.7750803 -13.220168 5.8140187 5.9155884
-11.597815 4.1937704 3.1975503 2.999761 -1.378015 7.618253 -2.2658832 -2.8993914
-7.2726035 -3.900434 -4.9742894 -10.145742 -4.773452 -10.981729 0.92045015 -3.785759
0.8374041 -6.0184855 -6.240118 -2.2867475 -2.45254 -5.46836 -8.695 8.849038
-2.021894 7.7050033 0.63387877 3.0414793 -11.263323 -9.855749 -2.4338062 -12.347317
-4.8840604 3.808997 2.0119588 -6.4361105 -3.8871107 -3.5100138 4.417261 4.094396
-9.220574 -2.178516 3.8377035 -6.7910166 -0.6130359 10.038788 -2.558766 1.947007
7.324667 -5.0573926 10.6858835 -5.675735 11.571249 4.0510135 -6.259553 -1.7955723
00000000: d5cb f5bf 6e5d 6fc1 cb8f 8640 05ca 7e40
00000010: dd82 80c0 8d6f 7bc0 6c42 0ac0 8dd7 d9c0
00000020: 7574 13c1 2e49 efc0 f5d1 aebf 07eb 32c1
00000030: 6f1b 00c1 fe5b a9c0 707a f23f 1c1c f4c0
00000040: 1d0a 64c0 505b 3cc1 e8cc 25bf 0315 67c0
00000050: 6878 9d40 85db 1a40 63a1 b540 10f2 45be
00000060: a05e 4f41 6e54 19c0 d8b1 0840 a3b7 30c0
00000070: 12b7 debf d1f3 2e41 c107 7ebf 60e2 9bbf
00000080: 4806 08bf 21d1 2ec1 179a 3d40 c6e3 bd40
00000090: 3d16 31c0 52b3 e8c0 0077 373f fd51 2e40
000000a0: 3dd5 2ac0 8f32 6ebf 98d9 28c1 a4b8 dc40
000000b0: 6ae9 003f ade5 0241 04f0 b4c0 b6b0 7cbf
000000c0: 2fe5 6ec1 057a 8240 b18c 98bf 1dd8 2340
000000d0: dd7f 07c0 1e00 d3c0 49ce d840 1fc3 2641
000000e0: d30a b840 7efd 29c0 3088 46bf ff01 45c1
000000f0: 9cf7 65be e1c6 c83f c295 51c0 1fe3 0fbf
00000100: 5efd 96c0 0262 9f3f 4d9f 9b3f 6bd7 82be
00000110: d209 893f 4929 2140 8794 6ac0 2b6c 6ac0
00000120: 96b2 40c0 ae81 893c 96e8 8ac0 9788 8240
00000130: d8c4 9d40 3eb0 e1bf 2383 1fc1 cbe2 bec0
00000140: 2085 21c0 c72b 6e40 108a 2fc0 198b b43f
00000150: 6c4c 193f 5871 9c40 08a7 0bc1 53a0 3a3f
00000160: cc68 bac0 97c1 9240 ab41 aac0 89d5 a3be
00000170: 6080 3340 d12c 2940 de33 23c0 eb7f 4b3f
00000180: f898 4040 78d2 debf cba1 fec0 f945 ba3f
00000190: 59a6 2941 fa5a 87bf 70bc 2641 cc52 0441
000001a0: a4e4 c7bf e832 853f 75ee 9e41 10e0 04c1
000001b0: ff7a 9d3f 49e0 b93f 95f0 b640 91f6 8940
000001c0: 6c21 bac0 bad3 ac40 ae3e 69c1 b2e4 9540
000001d0: c856 89c0 3e0a 1841 4eac 36c0 b700 3d41
000001e0: 24a6 3940 b54c 1141 706c 933e a7dc 5bc1
000001f0: 3912 d1c0 36b6 98c1 68da bf40 6f8d c5be
00000200: 2870 8d3e 37ef 0040 7d4f 77c0 5b5d 733f
00000210: 842c cbbe d0fa 0a41 e688 bbc0 d498 bcc0
00000220: 195a 2ebe 15b9 13c1 f170 2741 a314 0040
00000230: 792e b3bf 9eb0 9abe 47ad 303f 965e 8040
00000240: 153f 34c0 b53f 4e40 f673 9ec0 38e3 56c0
00000250: 21b2 b440 8c58 443f e153 3c41 9eec b3bf
00000260: a31f 82c0 44f7 5b3f 70ba 3abf 37a8 bfc0
00000270: f753 323d 6d7b 76c1 1ebb 86bf 779f 5f40
00000280: 2a14 bf40 c645 af3f 2c84 e5c0 4656 afbf
00000290: 1d96 51c0 e446 5c40 10ed a740 3012 54c0
000002a0: 024b 8f3f f1c2 20c1 59b1 2d40 214b f9c0
000002b0: 81b8 b5c0 002c 09c0 49b0 dfc0 2fec 8b40
000002c0: 0123 61c0 6357 1dc1 0fe1 5741 6066 fbbe
000002d0: d4a1 a1c0 fc71 dbc0 eacd 3c3f 852a 3340
000002e0: 5330 95c0 f965 3440 8c29 9ac0 fd0e a1bf
000002f0: ef35 85c0 8e10 a0c1 1b24 48c0 fb7b 86c0
00000300: 2691 9a3e 463d 5d3e b363 1041 e166 a840
00000310: aa6b 46bf cf85 53c1 710c ba40 804c bd40
00000320: a690 39c1 5e33 8640 aaa4 4c40 16fc 3f40
00000330: cc62 b0bf bbc8 f340 3b04 11c0 a18f 39c0
00000340: 2bb9 e8c0 b6a0 79c0 612d 9fc0 f654 22c1
00000350: 1ec0 98c0 29b5 2fc1 9fa2 6b3f e049 72c0
00000360: 1d60 563f 6f97 c0c0 0caf c7c0 125a 12c0
00000370: 6af6 1cc0 cefc aec0 b81e 0bc1 a995 0d41
00000380: b666 01c0 638f f640 e145 223f 99a7 4240
00000390: 9236 34c1 26b1 1dc1 7bc3 1bc0 9c8e 45c1
000003a0: 394a 9cc0 9bc6 7340 efc3 0040 9ef4 cdc0
000003b0: 6cc6 78c0 11a4 60c0 345a 8d40 4b05 8340
000003c0: 7987 13c1 ce6c 0bc0 ef9c 7540 0250 d9c0
000003d0: ecef 1cbf e09e 2041 d2c2 23c0 8637 f93f
000003e0: ac63 ea40 29d6 a1c0 61f9 2a41 9f9f b5c0
000003f0: d623 3941 e7a1 8140 424e c8c0 50d5 e5bf

weight f4 [16]
1.8608893 2.3359444 2.016851 1.9762782 0.9070647 2.9721084 -0.809392 0.82881784
12.325324 10.947277 -0.2456255 9.106675 10.094123 11.646239 10.576364 9.798117
00000000: 9f31 ee3f 1d80 1540 1614 0140 aff6 fc3f
00000010: 6435 683f 0637 3e40 5034 4fbf 682d 543f
00000020: 8734 4541 0c28 2f41 4085 7bbe f1b4 1141
00000030: 8781 2141 ff56 3a41 c938 2941 16c5 1c41

bias f4 [16]
-10.773312 -13.692532 -13.402 -13.633866 -8.883783 -21.638002 -11.007897 -16.714937
-6.5442643 -4.597647 -6.9933767 -5.3655815 -4.514194 -12.4073515 -5.598405 -4.760996
00000000: 7c5f 2cc1 9c14 5bc1 986e 56c1 5124 5ac1
00000010: fa23 0ec1 a11a adc1 5920 30c1 31b8 85c1
00000020: 9d6a d1c0 ed1f 93c0 bec9 dfc0 d8b2 abc0
00000030: 4774 90c0 8384 46c1 2226 b3c0 145a 98c0

running_mean f4 [16]
-1103.4883 206.44469 -1672.7216 -512.71277 116.14272 264.73325 469.7286 490.1327
-465.18497 -1019.5935 -787.8081 -2137.904 -85.43706 104.6426 -1441.8242 -3638.983
00000000: a0ef 89c4 d771 4e43 1717 d1c4 9e2d 00c4
00000010: 1349 e842 db5d 8443 43dd ea43 fc10 f543
00000020: ad97 e8c3 fce5 7ec4 b8f3 44c4 779e 05c5
00000030: c6df aac2 0349 d142 603a b4c4 ba6f 63c5

running_var f4 [16]
873320.4 1.1833258e+06 1.1514849e+06 942474.7 977554.0 1.248596e+06 983727.44 1.197517e+06
3.5986718e+06 3.353371e+06 2.6491388e+06 2.9207192e+06 3.2218468e+06 3.371387e+06 3.055706e+06 4.158496e+06
00000000: 8636 5549 ee72 9049 e78f 8c49 ab18 6649
00000010: 20a9 6e49 a06a 9849 f72a 7049 682e 9249
00000020: 3fa5 5b4a 6cac 4c4a cbb0 214a 3d44 324a
00000030: 5ba5 444a ecc5 4d4a 6881 3a4a 80d0 7d4a

weight f4 [64, 96]
-1.2979668 -0.65099376 -1.8654518 -2.245309 -1.3547426 -3.7126024 1.3025175 -1.357954
-2.484012 -4.1251535 -0.43514124 0.8613423 -2.2914877 -3.2289476 -1.0716803 -4.106709
-3.054756 -4.1590657 -0.8058448 -2.1633048 1.5108702 2.081086 -2.2571464 3.1622753
-5.89059 4.6953464 -2.2774994 -1.4105098 -2.0598826 -0.36278778 -0.7113251 -2.0287826
-2.7736664 -3.380224 -0.15389596 0.62650067 -1.7626641 -1.390264 -5.558074 3.2654138
1.9148448 -3.2210891 -1.199612 -3.685113 -3.7117236 -2.2914677 -4.550194 -2.1612618
-1.4173558 -0.9417522 -3.5701652 -2.3699727 -3.2592556 -0.8662346 3.568031 -1.8337036
-1.0355961 1.589032 -2.9485817 2.9761417 0.33171442 -2.7659457 -1.1987714 -2.943333
-1.9169557 -0.11933064 -3.079616 -3.785982 -2.124812 -0.22204085 -2.1919696 -1.4176322
0.4221965 2.2458916 -2.5225694 -3.0072675 1.5355895 -1.9357207 -0.9626857 0.38994038
-2.1188552 -1.3276893 -0.9717184 -2.459828 -1.5315045 -2.0637257 -1.6842092 -3.5184066
-2.4789722 -2.5820217 -0.20729578 -1.905657 1.5918515 -1.4948113 -1.955766 -4.0308075
-1.0679611 -1.7422756 -0.5667362 3.5531857 -0.18991254 -0.7497448 -1.825205 0.6712417
1.4507542 -3.1951811 -0.36394784 1.05567 -1.5839202 1.0672133 0.5022771 0.7306682
0.32644215 -0.5741055 -4.34863 -1.690726 -2.3389425 0.7355301 -1.7316759 0.40927932
-0.23172261 -1.9279757 -2.3332915 -0.24536729 -2.152434 1.5957708 -0.81269914 0.8871949
0.5240967 0.5667893 -2.8399756 -5.407533 0.36611852 1.5880208 -2.1137104 -1.1819367
-3.8392384 -0.25670788 -4.901408 -0.9041961 -0.6393731 -4.1279135 0.315961 -0.48387188
-5.571016 -4.6641145 -2.6502614 -6.143036 0.8807217 1.0000682 -3.4998584 0.8156485
2.615076 0.06459514 0.4136578 0.20988014 0.48455212 -1.6066911 1.375608 -0.94908655
2.3010774 0.49245226 1.2343951 3.9325151 -5.155936 -1.2473086 -4.758126 -2.3503168
-0.35042354 0.9277372 -0.09319657 -4.5199003 -2.9185407 -1.2429703 -0.20028809 1.3461277
4.6326013 -4.1646423 -2.0634916 1.3329227 -2.6792328 0.78137475 0.5760327 -3.0644908
-0.24471135 -4.1850166 -1.8948243 -1.5061889 0.12443868 1.9184632 -5.0301075 4.3389163
0.26315865 -2.5211518 -0.9706903 0.79117393 0.49122912 0.5588548 2.1377056 -2.075979
-2.93633 0.28696325 -2.6480746 0.27690467 -0.23707156 0.57715327 -4.598237 -1.2147648
-0.45417553 -2.0258148 2.0192468 -2.0552688 -0.49959138 0.25453964 1.5298609 -1.6520451
1.7838242 -0.022924826 1.0859724 -1.443177 2.198161 1.3476479 -1.8967845 -2.156522
-0.32391164 -0.7332942 -6.3074884 -3.650866 0.32529595 -1.9483495 -0.0075415447 -1.1778868
-0.67263705 -0.80334705 1.4180926 0.67291 -0.55333227 1.8191166 0.82143044 -0.6757425
2.2025428 -2.9276392 1.441162 0.72412574 -2.057667 -2.2188294 -1.7180488 -1.4247713
-6.0511985 -0.416551 -0.35513535 0.9763475 -1.8351313 -2.27437 1.8305886 0.9874031
00000000: c723 a6bf 87a7 26bf 20c7 eebf 25b3 0fc0
00000010: 3568 adbf 479b 6dc0 e5b8 a63f 70d1 adbf
00000020: 0dfa 1ec0 4201 84c0 d5ca debe ee80 5c3f
00000030: bca7 12c0 14a7 4ec0 d22c 89bf 296a 83c0
00000040: 1f81 43c0 1117 85c0 d84b 4ebf 9673 0ac0
00000050: 3264 c13f 8330 0540 1675 10c0 b862 4a40
00000060: b77f bcc0 4740 9640 8dc2 11c0 968b b4bf
00000070: 1ed5 03c0 52bf b9be 6719 36bf 93d7 01c0
00000080: c083 31c0 9755 58c0 e796 1dbe 5962 203f
00000090: fa9e e1bf 2cf4 b1bf bedb b1c0 8afc 5040
000000a0: a219 f53f 5326 4ec0 e38c 99bf e4d8 6bc0
000000b0: e18c 6dc0 68a7 12c0 309b 91c0 1d52 0ac0
000000c0: ea6b b5bf ac16 71bf 967d 64c0 a2ad 17c0
000000d0: a597 50c0 8dc1 5dbf 9f5a 6440 cdb6 eabf
000000e0: 6a8e 84bf 6765 cb3f 90b5 3cc0 1b79 3e40
000000f0: 79d6 a93e 4105 31c0 5771 99bf 915f 3cc0
00000100: ce5e f5bf 9f63 f4bd 6e18 45c0 874d 72c0
00000110: ebfc 07c0 ad5e 63be 3b49 0cc0 f974 b5bf
00000120: 242a d83e b0bc 0f40 c771 21c0 1277 40c0
00000130: 328e c43f b2c5 f7bf 9272 76bf 44a6 c73e
00000140: 539b 07c0 b9f1 a9bf 89c2 78bf d26d 1dc0
00000150: 5708 c4bf 1514 04c0 2b94 d7bf 932d 61c0
00000160: 7ba7 1ec0 d83f 25c0 5845 54be 92ec f3bf
00000170: cac1 cb3f fa55 bfbf 8a56 fabf 60fc 80c0
00000180: f3b2 88bf e302 dfbf a015 11bf 6567 6340
00000190: 6f78 42be 46ef 3fbf 51a0 e9bf 7fd6 2b3f
000001a0: 50b2 b93f d97d 4cc0 5f57 babe 3220 873f
000001b0: e6bd cabf 729a 883f 3b95 003f 120d 3b3f
000001c0: 6d23 a73e 94f8 12bf fa27 8bc0 b669 d8bf
000001d0: 3cb1 15c0 b34b 3c3f 8ea7 ddbf 0f8d d13e
000001e0: b148 6dbe e8c7 f6bf a654 15c0 9041 7bbe
000001f0: 7bc1 09c0 3842 cc3f 0d0d 50bf 341f 633f
00000200: 342b 063f 1b19 113f 29c2 35c0 830a adc0
00000210: e373 bb3e 4444 cb3f 0847 07c0 b449 97bf
00000220: 15b6 75c0 376f 83be 56d8 9cc0 6579 67bf
00000230: f5ad 23bf de17 84c0 a4c5 a13e 0ebe f7be
00000240: c345 b2c0 6d40 95c0 e29d 29c0 c093 c4c0
00000250: fa76 613f 3c02 803f aefd 5fc0 57ce 503f
00000260: 685d 2740 754a 843d f5ca d33e d2ea 563e
00000270: 3717 f83e 0ea8 cdbf ec13 b03f 56f7 72bf
00000280: da44 1340 b422 fc3e a900 9e3f 54ae 7b40
00000290: 6dfd a4c0 cfa7 9fbf 9142 98c0 976b 16c0
000002a0: b76a b3be 2f80 6d3f d8dd bebd 06a3 90c0
000002b0: 5fc9 3ac0 a719 9fbf 5218 4dbe ea4d ac3f
000002c0: 453e 9440 c044 85c0 3f10 04c0 369d aa3f
000002d0: 8d78 2bc0 2d08 483f e176 133f 9e20 44c0
000002e0: 9d95 7abe a8eb 85c0 9a89 f2bf ccca c0bf
000002f0: b5d9 fe3d 3490 f53f a4f6 a0c0 67d8 8a40
00000300: bbbc 863e 8d5a 21c0 297f 78bf 608a 4a3f
00000310: 6282 fb3e 1c11 0f3f 2bd0 0840 d7dc 04c0
00000320: d5ec 3bc0 d9ec 923e 0e7a 29c0 73c6 8d3e
00000330: e3c2 72be 51c0 133f c224 93c0 6a7d 9bbf
00000340: b289 e8be f3a6 01c0 573b 0140 8689 03c0
00000350: 71ca ffbe 0553 823e 7bd2 c33f 3776 d3bf
00000360: 5a54 e43f d8cc bbbc 2501 8b3f 06ba b8bf
00000370: abae 0c40 ba7f ac3f d6c9 f2bf 7504 0ac0
00000380: bfd7 a5be 2bb9 3bbf f2d6 c9c0 caa7 69c0
00000390: 318d a63e 8463 f9bf 101f f7bb ffc4 96bf
000003a0: f131 2cbf 27a8 4dbf 0f84 b53f d443 2c3f
000003b0: 2fa7 0dbf d0d8 e83f 4449 523f 76fd 2cbf
000003c0: 76f6 0c40 715e 3bc0 ff77 b83f 4e60 393f
000003d0: d1b0 03c0 4d01 0ec0 06e9 dbbf e85e b6bf
000003e0: 6ba3 c1c0 2c46 d5be 4dd4 b5be e9f1 793f
000003f0: 95e5 eabf 478f 11c0 ba50 ea3f 73c6 7c3f

bias f4 [64]
-6.8550673 1.2871668 3.5256763 -7.4825087 1.922703 -0.045440707 -0.98350513 1.7559619
7.7024055 3.447827 -6.8208632 -5.296503 -6.7913914 -7.2336054 -0.15476544 -4.5006566
-9.043149 8.312446 -8.012999 -7.6928816 -7.6664147 13.970302 2.7977145 -0.5666998
0.7038526 1.7786653 0.7721178 10.923941 -8.855 -7.340817 7.9717054 4.552207
5.169344 -5.21316 1.6847408 5.0664287 2.8479416 6.075254 -5.7917843 0.71776557
9.226948 0.99035466 -5.172258 -8.294881 -7.220476 -6.092518 -8.195336 -0.44648322
6.501543 -6.84073 -4.7831745 -6.491223 -5.848846 -6.5284023 7.7648253 -6.4086947
2.0740213 -0.50912446 -7.651732 -3.012033 6.3212576 -6.1343474 -8.836611 -6.6969957
00000000: b65c dbc0 e2c1 a43f aea4 6140 b670 efc0
00000010: 221b f63f 0920 3abd fec6 7bbf 5cc3 e03f
00000020: 1b7a f640 33a9 5c40 8344 dac0 f47c a9c0
00000030: 1453 d9c0 b279 e7c0 d57a 1ebe 6105 90c0
00000040: bdb0 10c1 c7ff 0441 3e35 00c1 162c f6c0
00000050: 4553 f5c0 5b86 5f41 c10d 3340 3d13 11bf
00000060: af2f 343f 4eab e33f 83a9 453f 76c8 2e41
00000070: 14ae 0dc1 f9e7 eac0 3618 ff40 aeab 9140
00000080: 446b a540 35d2 a6c0 96a5 d73f 2f20 a240
00000090: ad44 3640 7b68 c240 4c56 b9c0 7cbf 373f
000000a0: 94a1 1341 e287 7d3f 2383 a5c0 d5b7 04c1
000000b0: 240e e7c0 e8f5 c2c0 1920 03c1 7399 e4be
000000c0: a40c d040 43e7 dac0 c40f 99c0 19b8 cfc0
000000d0: bf29 bbc0 ace8 d0c0 7379 f840 0714 cdc0
000000e0: c4bc 0440 fb55 02bf fdda f4c0 26c5 40c0
000000f0: be47 ca40 934c c4c0 c262 0dc1 ca4d d6c0

weight f4 [1, 64]
-2.6763122 1.2860159 3.5251145 -1.376679 1.923071 0.37178224 -1.3828831 1.7556871
7.6967196 3.445402 -3.1791472 0.10961014 -2.3949351 -2.1521308 1.7464784 -2.0777981
-2.6435726 8.301156 -1.6076807 -3.2943602 -1.715068 13.959251 2.7950773 1.6229366
0.7027131 1.7784295 0.76992404 10.91145 -2.841764 -3.352117 7.964404 4.54914
5.166594 -3.0617177 1.6845429 5.062209 2.8443367 6.0696707 -1.1773342 0.7171569
9.220645 0.9906841 -2.2915497 -3.3062851 -6.660154 -1.0432961 -2.7550461 0.765765
6.4997106 -1.1782994 -2.0290213 -1.3614923 -3.6004512 -3.374715 7.7558618 -2.6823673
2.075511 -0.21525373 -3.4591827 -3.1442032 6.314003 -1.3197727 -2.9968073 -2.337319
00000000: b348 2bc0 2b9c a43f 7a9b 6140 0437 b0bf
00000010: 3127 f63f 3e5a be3e 5002 b1bf 5bba e03f
00000020: 874b f640 7781 5c40 2677 4bc0 487b e03d
00000030: 9e46 19c0 83bc 09c0 9b8c df3f a5fa 04c0
00000040: 4b30 29c0 89d1 0441 7bc8 cdbf ccd6 52c0
00000050: 5987 dbbf 1859 5f41 8ce2 3240 63bc cf3f
00000060: 01e5 333f 94a3 e33f be19 453f 4d95 2e41
00000070: 76df 35c0 1689 56c0 66dc fe40 8e92 9140
00000080: bd54 a540 2ff3 43c0 1a9f d73f 9efd a140
00000090: 9d09 3640 be3a c240 e3b2 96bf 9897 373f
000000a0: c387 1341 799d 7d3f c0a8 12c0 2d9a 53c0
000000b0: fb1f d5c0 ba8a 85bf ad52 30c0 2d09 443f
000000c0: a1fd cf40 84d2 96bf 7cdb 01c0 6145 aebf
000000d0: cb6d 66c0 55fb 57c0 0530 f840 e8ab 2bc0
000000e0: 2cd5 0440 796b 5cbe 4063 5dc0 a03a 49c0
000000f0: 500c ca40 50ee a8bf b1cb 3fc0 a296 15c0

weight f4 [64, 96]
-1.0818622 1.107314 0.85686845 -4.535175 -5.658143 2.0487196 -6.1121283 -4.398114
-1.4571191 -3.9680548 -1.7573314 -6.53566 -4.064448 8.7518015 -11.889473 -0.35167745
-2.5955262 -1.6570027 -7.955209 -8.92459 2.2090409 -3.7345243 1.9669884 0.5937595
2.5767467 3.3729756 -5.074531 4.4217873 -5.651051 2.1936152 -4.0289645 -10.405334
-6.57975 -2.3290195 -2.8343523 -0.798888 -2.1530044 6.3167696 -6.2215567 -4.682467
-10.116536 3.5445638 -3.539868 6.1026087 -1.7758912 0.58024865 -1.7660426 4.5681453
0.6693472 -3.1353474 -5.152955 0.07491177 -2.4522233 -6.471693 -4.8201814 0.13210712
3.8715 -6.159731 2.5634096 -2.4952862 -1.2503573 -3.902778 -1.9358552 -6.094579
3.634026 -4.07083 1.4463573 -0.06992661 -4.3266544 1.1007562 -3.423177 -3.8181376
-2.1411023 -8.066037 -0.55329615 -1.2579281 -2.2638912 5.290536 -1.439925 0.6400721
1.2043442 -4.217137 -2.2941315 2.150566 -7.4656243 -7.2787366 6.519242 0.7823106
1.5623829 -1.4479522 -0.9878075 0.45366913 -1.8928752 -5.2053595 -0.80003667 -1.4810382
1.4182167 0.4924035 -1.9872489 -7.9561462 -1.4178996 -1.23854 -3.772995 -1.2385566
0.9796122 1.1323735 -9.483571 -2.2832522 -6.1392565 -9.600132 0.86315215 4.767006
-3.7196026 -0.2818548 -0.6941404 -2.4279754 -1.6008112 -4.533327 -4.8142786 7.01446
-0.8585526 0.64242655 -0.85753906 4.846789 -10.194754 -2.4477885 -5.473172 1.827509
-9.954927 -4.606507 -0.27136528 2.5078175 2.2285643 -2.764061 3.4244008 -3.1007946
-10.056378 -6.131222 6.8759174 -7.4684744 -1.871475 -4.5039 -1.6140243 -6.4171376
2.6859274 -5.299195 -6.2631264 -4.8923635 -1.5072185 -5.242082 -4.838516 1.4961934
-2.6635094 0.7724326 -5.7074566 -6.088229 -5.84827 -3.06811 0.54609394 -0.6060059
-0.48214123 -3.4624527 -4.005411 -8.673003 -4.8478894 -0.27880234 2.4544342 -6.763726
-0.098084696 -6.6992245 -2.761234 -3.7298732 -4.596231 -2.7316086 -3.0532107 -2.6325376
3.8372626 1.2303818 1.6785759 -1.6229216 -3.407305 -1.0268975 -1.1799103 -4.885903
4.529821 -2.9557114 -3.837829 1.4471369 -7.3766813 6.6649 -1.449867 -8.964773
-4.984987 0.7667135 -3.7912517 -2.7266867 -5.151636 -3.3074005 -6.9727407 -3.9197752
-5.429688 -6.3643928 -1.6124408 -9.566354 -4.671969 -10.317654 1.6753871 2.36509
-11.54763 -5.4615483 6.991567 -3.1708698 -3.1118531 3.1655333 5.4829893 -0.69315535
-2.9018402 7.54421 -5.6168284 1.8965983 -2.9085739 -0.41756505 -1.218364 -0.07481703
0.63303375 -2.9961898 -1.1509937 1.8402145 -4.597517 0.34558335 -3.50517 0.19311082
0.4428956 -7.7024074 -1.877928 -2.2503815 2.8346515 0.963017 0.94531864 -7.297492
-2.0789936 0.11847618 -7.252457 3.0015202 -6.065356 -7.232999 6.8915815 -0.9084535
-8.627103 0.4040088 2.4321146 -8.388214 -3.5512242 -7.950603 6.3888664 -5.261863
00000000: 767a 8abf 77bc 8d3f bb5b 5b3f 2720 91c0
00000010: 820f b5c0 391e 0340 8e96 c3c0 5abd 8cc0
00000020: e182 babf 9cf4 7dc0 3cf0 e0bf 2024 d1c0
00000030: f50f 82c0 6107 0c41 483b 3ec1 110f b4be
00000040: 1a1d 26c0 aa18 d4bf 1291 fec0 1fcb 0ec1
00000050: ed60 0d40 7202 6fc0 47c6 fb3f 9f00 183f
00000060: 6be9 2440 d5de 5740 8f62 a2c0 487f 8d40
00000070: 69d5 b4c0 3164 0c40 47ed 80c0 407c 26c1
00000080: 508d d2c0 a80e 15c0 0766 35c0 ed83 4cbf
00000090: d3ca 09c0 fa22 ca40 fe16 c7c0 c5d6 95c0
000000a0: 55dd 21c1 22da 6240 338d 62c0 9248 c340
000000b0: 6750 e3bf 2d8b 143f af0d e2bf 3f2e 9240
000000c0: 575a 2b3f 88a9 48c0 02e5 a4c0 586b 993d
000000d0: 3af1 1cc0 1c18 cfc0 ed3e 9ac0 1747 073e
000000e0: a8c6 7740 841c c5c0 e70e 2440 c5b2 1fc0
000000f0: b50b a0bf 1dc7 79c0 1aca f7bf cb06 c3c0
00000100: e293 6840 3d44 82c0 3c22 b93f af35 8fbd
00000110: f473 8ac0 94e5 8c3f 5515 5bc0 5e5c 74c0
00000120: d207 09c0 7d0e 01c1 d1a4 0dbf ca03 a1bf
00000130: 98e3 10c0 124c a940 764f b8bf c4db 233f
00000140: f327 9a3f c9f2 86c0 0dd3 12c0 e0a2 0940
00000150: 65e6 eec0 69eb e8c0 a19d d040 8245 483f
00000160: 2afc c73f 7f56 b9bf f4e0 7cbf 5247 e83e
00000170: bc49 f2bf 4e92 a6c0 34cf 4cbf a992 bdbf
00000180: 2088 b53f 501c fc3e 2c5e febf c098 fec0
00000190: bc7d b5bf 7b88 9ebf c078 71c0 0689 9ebf
000001a0: ddc7 7a3f 9df1 903f b5bc 17c1 ce20 12c0
000001b0: ca74 c4c0 249a 19c1 8af7 5c3f 508b 9840
000001c0: f80d 6ec0 464f 90be 2fb3 31bf f363 1bc0
000001d0: 62e7 ccbf 0411 91c0 920e 9ac0 7576 e040
000001e0: 1aca 5bbf 1176 243f ae87 5bbf e518 9b40
000001f0: b61d 23c1 91a8 1cc0 3a24 afc0 d1eb e93f
00000200: 6247 1fc1 8168 93c0 64f0 8abe 1580 2040
00000210: cca0 0e40 60e6 30c0 6229 5b40 6b73 46c0
00000220: ede6 20c1 f832 c4c0 8407 dc40 befd eec0
00000230: 7e8c efbf f31f 90c0 5998 cebf 3159 cdc0
00000240: 3ce6 2b40 0193 a9c0 886b c8c0 3e8e 9cc0
00000250: 89ec c0bf 23bf a7c0 20d5 9ac0 4483 bf3f
00000260: f076 2ac0 25be 453f 7ca3 b6c0 c6d2 c2c0
00000270: 0725 bbc0 ea5b 44c0 d0cc 0b3f 3423 1bbf
00000280: 37db f6be d398 5dc0 542c 80c0 9fc4 0ac1
00000290: e921 9bc0 2ebf 8ebe 7315 1d40 7270 d8c0
000002a0: a1e0 c8bd 0c60 d6c0 0fb8 30c0 3eb6 6ec0
000002b0: 5314 93c0 add2 2ec0 ce67 43c0 7f7b 28c0
000002c0: b695 7540 277d 9d3f 93db d63f e5bb cfbf
000002d0: 4911 5ac0 6171 83bf 4d07 97bf 5159 9cc0
000002e0: 4bf4 9040 602a 3dc0 fe9e 75c0 c83b b93f
000002f0: c60d ecc0 dc46 d540 3e95 b9bf b66f 0fc1
00000300: 0385 9fc0 5647 443f dea3 72c0 0982 2ec0
00000310: 34da a4c0 73ac 53c0 b120 dfc0 99dd 7ac0
00000320: 01c0 adc0 1ba9 cbc0 7664 cebf c90f 19c1
00000330: c580 95c0 1c15 25c1 1673 d63f a25d 1740
00000340: 18c3 38c1 01c5 aec0 ebba df40 88ef 4ac0
00000350: 9a28 47c0 1998 4a40 a674 af40 a172 31bf
00000360: c0b7 39c0 2b6a f140 0fbd b3c0 bcc3 f23f
00000370: 1326 3ac0 16cb d5be 5af3 9bbf ac39 99bd
00000380: 800e 223f 93c1 3fc0 c353 93bf 268c eb3f
00000390: dc1e 93c0 4df0 b03e b554 60c0 d8be 453e
000003a0: 36c3 e23e 1f7a f6c0 f25f f0bf 4006 10c0
000003b0: ee6a 3540 4888 763f 6700 723f 0e85 e9c0
000003c0: 3b0e 05c0 a4a3 f23d 2114 e8c0 e818 4040
000003d0: 6517 c2c0 ba74 e7c0 d687 dc40 6990 68bf
000003e0: 9d08 0ac1 3eda ce3e c4a7 1b40 2036 06c1
000003f0: 4247 63c0 576b fec0 9871 cc40 2f61 a8c0

bias f4 [64]
-0.19703043 -0.53485227 -2.0148096 0.7619352 -0.7076239 1.4303129 0.07860647 -0.10883979
-0.0934734 -0.35261542 -1.0452551 0.2654541 0.9266099 0.3125407 0.08337626 -2.0254993
-0.60757697 0.48314032 0.3239677 -0.14988703 -1.5135102 -0.044173703 -1.1805463 -1.1121472
-0.65080637 -1.064624 0.7249051 -1.4446261 -1.0609924 -0.06258374 1.2673181 1.2489334
1.7170036 -0.96801674 -0.1086766 1.3168103 0.11683746 -0.4440851 1.9972767 1.5645391
0.69404554 0.1165173 -0.6026119 1.2220737 -0.84645927 0.36274838 -2.2393045 1.506604
-0.9095816 0.4637716 1.874544 3.8013532 3.2423959 -0.51892567 0.20778808 -1.1350694
0.2659689 -0.6398806 0.014643293 0.14525278 -0.4153656 0.87110174 0.6668405 0.14222367
00000000: 58c2 49be 14ec 08bf a4f2 00c0 2f0e 433f
00000010: d726 35bf 7e14 b73f 6efc a03d 65e7 debd
00000020: fb6e bfbd 028a b4be ebca 85bf 9ae9 873e
00000030: 4e36 6d3f 5605 a03e 2cc1 aa3d c8a1 01c0
00000040: 2a8a 1bbf 2b5e f73e 18df a53e fc7b 19be
00000050: b4ba c1bf 7cef 34bd 241c 97bf d75a 8ebf
00000060: 3f9b 26bf 9945 88bf 6193 393f 82e9 b8bf
00000070: 99ce 87bf e72b 80bd 7b37 a23f 0ddd 9f3f
00000080: c6c6 db3f f2cf 77bf d691 debd 3d8d a83f
00000090: 7a48 ef3d 1f5f e3be c3a6 ff3f d142 c83f
000000a0: f8ac 313f 9fa0 ee3d c644 1abf e96c 9c3f
000000b0: 8eb1 58bf 28ba b93e c450 0fc0 66d8 c03f
000000c0: 57da 68bf 7973 ed3e 0ff1 ef3f 5f49 7340
000000d0: 6a83 4f40 50d8 04bf 66c6 543e f449 91bf
000000e0: 132d 883e 37cf 23bf 6cea 6f3c 25bd 143e
000000f0: cdaa d4be 8600 5f3f 0fb6 2a3f 15a3 113e

weight f4 [128, 64]
0.75012916 2.537403 2.1330578 0.94996524 -0.50473034 0.5320739 -0.3691459 0.7665897
1.0517906 0.0774735 1.4620441 1.0021731 2.0965617 1.7541232 1.53224 1.9436803
-1.2858183 0.5994276 0.9505776 0.11655778 0.49426693 -0.9334652 2.0310533 2.297597
1.6208509 2.0624824 2.4274023 -0.0394961 2.4251904 -0.4777509 -2.334482 0.2806878
0.8657428 -0.43616495 -2.8992195 2.6205182 -2.5301282 1.7860881 0.5590977 2.4264932
0.5573738 2.1905167 -0.27811366 1.155244 0.96585876 -3.4206982 -2.9368558 -2.7664454
0.36343092 -7.4601493 0.45994154 3.518256 1.8657976 -4.935977 -3.6365376 2.0374663
-2.4580455 0.7992677 0.35873634 1.6259689 2.5090466 0.1949064 2.5988002 1.4812564
-0.055486854 -3.469457 0.53578746 1.3208745 0.21643695 -0.9973778 0.12795827 -0.05201134
0.16256572 0.26090103 0.50229114 1.9544396 2.4462218 2.3876307 0.49924818 0.54019886
2.20474 -0.7294385 -1.9012263 -1.6870369 2.45118 1.2907299 0.7529242 -1.0669345
1.6763158 -4.5533104 0.16265793 1.744722 1.8305231 1.7319945 1.2632953 0.73040617
2.1916635 0.59529763 1.6527627 1.0708914 0.2700611 -4.8659844 -0.6005453 2.373602
1.1611826 -0.43258595 0.1402232 0.8560664 2.462973 0.16917905 2.429886 0.39012232
0.7030742 1.1501565 1.4939734 1.1923547 -5.80366 3.2655509 0.5902397 -0.06961486
-6.694107 1.0738885 -0.7498909 0.6026346 2.937913 0.29743084 -5.3814626 -1.5655855
-0.6511697 1.7288525 1.3094733 3.6319823 1.5234394 0.6395058 0.36050776 0.36368915
0.08825743 2.611737 0.5787163 1.8076694 2.0167851 -2.8478553 2.799133 -2.0837789
-1.2835685 0.8731829 1.6907544 0.40957326 2.2768192 0.3330903 0.7855309 -1.0648185
-3.4452047 -4.4668646 0.86484444 -4.7108097 1.6805139 1.8920548 1.357138 -0.28683645
-0.14210336 2.1154106 0.7776526 0.51775813 1.2308787 -0.6181646 1.7960937 -6.169035
0.4121995 2.3650782 -0.20741034 0.32983914 -1.7589518 -1.7779872 -1.0765147 0.38666603
0.85442805 2.8770216 1.472987 3.2890503 1.036541 -5.7303877 1.2309763 1.4039618
1.32532 1.4487059 1.8744814 -1.2985435 -5.562492 -0.32635137 -2.5845559 -5.160298
2.4064944 1.9448016 1.6697347 -3.3604937 -0.6124437 -0.8850058 3.8299701 3.6433768
1.6641976 2.1468282 1.97784 0.25838804 -2.6077785 -5.3788214 0.11850725 -4.1910253
1.2646159 1.3128749 -2.6939619 1.5019454 1.7376117 -4.8724303 -4.5496836 0.7150262
1.2362106 3.1281033 -1.0127921 0.2788544 2.3099067 -0.57244134 0.40038672 -0.16996662
1.0801944 0.037729606 -5.2443438 1.9015697 1.1845382 1.7365702 1.1030338 0.6832667
-1.3531703 0.77686524 0.85375136 2.3575811 0.72547966 -0.14826134 2.2918942 2.4918318
-1.4365754 -2.066957 -2.7203848 -3.948794 -1.8821691 0.4943018 0.71156925 2.2987957
2.0367424 -2.4779165 -0.35554042 -0.9822601 1.991155 0.6529914 1.7766857 -1.7082441
00000000: 7708 403f d064 2240 0584 0840 ec30 733f
00000010: 0236 01bf ff35 083f b100 bdbe 393f 443f
00000020: 13a1 863f 6daa 9e3d 4324 bb3f 3547 803f
00000030: 112e 0640 1c87 e03f 7120 c43f 84ca f83f
00000040: b295 a4bf 1674 193f 0e59 733f d8b5 ee3d
00000050: 8e10 fd3e 93f7 6ebf c7fc 0140 d40b 1340
00000060: 0b78 cf3f b6ff 0340 8f5a 1b40 aac6 21bd
00000070: 5236 1b40 c49b f4be 2768 15c0 50b6 8f3e
00000080: 52a1 5d3f 0351 dfbe d08c 39c0 92b6 2740
00000090: 9fed 21c0 899e e43f 0721 0f3f aa4b 1b40
000000a0: 0db0 0e3f 6d31 0c40 ea64 8ebe 09df 933f
000000b0: 8542 773f b8ec 5ac0 72f5 3bc0 710d 31c0
000000c0: 9e13 ba3e 8bb9 eec0 757d eb3e 1b2b 6140
000000d0: 75d2 ee3f 86f3 9dc0 08bd 68c0 d965 0240
000000e0: 9e50 1dc0 cf9c 4c3f 4aac b73e c01f d03f
000000f0: 3894 2040 8b95 473e be52 2640 cf99 bd3f
00000100: 2f46 63bd 950b 5ec0 5e29 093f 6a12 a93f
00000110: a6a1 5d3e 2754 7fbf 7e07 033e d809 55bd
00000120: a177 263e d294 853e 2796 003f 142b fa3f
00000130: e68e 1c40 f1ce 1840 759d ff3e 794a 0a3f
00000140: 761a 0d40 7bbc 3abf 625b f3bf d3f0 d7bf
00000150: 22e0 1c40 a336 a53f a4bf 403f 4f91 88bf
00000160: 8491 d63f b8b4 91c0 cd8f 263e 0d53 df3f
00000170: 954e ea3f ffb1 dd3f a9b3 a13f e6fb 3a3f
00000180: 3744 0c40 6d65 183f ba8d d33f f812 893f
00000190: 7345 8a3e 25b6 9bc0 56bd 19bf 18e9 1740
000001a0: a2a1 943f e87b ddbe ac96 0f3e 2b27 5b3f
000001b0: 5aa1 1d40 463d 2d3e 4183 1b40 1dbe c73e
000001c0: acfc 333f 5438 933f 853a bf3f 149f 983f
000001d0: 95b7 b9c0 c9fe 5040 f319 173f 3c92 8ebd
000001e0: 2036 d6c0 2e75 893f daf8 3fbf 4346 1a3f
000001f0: c406 3c40 db48 983e f134 acc0 1b65 c8bf
00000200: 0fb3 26bf 0a4b dd3f d29c a73f 6672 6840
00000210: 1000 c33f a7b6 233f 7994 b83e 7735 ba3e
00000220: 50c0 b43d b326 2740 c026 143f b661 e73f
00000230: 0213 0140 4343 36c0 ff24 3340 a25c 05c0
00000240: f94b a4bf ea88 5f3f a46a d83f 96b3 d13e
00000250: 68b7 1140 d08a aa3e 8e18 493f f94b 88bf
00000260: 3c7e 5cc0 8ef0 8ec0 7266 5d3f f4be 96c0
00000270: 141b d73f da2e f23f b3b6 ad3f 3adc 92be
00000280: 8b83 11be e362 0740 3e14 473f cc8b 043f
00000290: 6f8d 9d3f 0940 1ebf 66e6 e53f bc68 c5c0
000002a0: d00b d33e 715d 1740 6063 54be ade0 a83e
000002b0: 5525 e1bf 1695 e3bf 3ccb 89bf 17f9 c53e
000002c0: ccbb 5a3f 1f21 3840 d78a bc3f cd7f 5240
000002d0: 60ad 843f 565f b7c0 a290 9d3f 05b5 b33f
000002e0: 16a4 a93f 326f b93f 02ef ef3f ac36 a6bf
000002f0: efff b1c0 8717 a7be 5d69 25c0 2921 a5c0
00000300: 0104 1a40 42ef f83f deb9 d53f 5412 57c0
00000310: 1cc9 1cbf bd8f 62bf 3b1e 7540 162d 6940
00000320: 6d04 d53f a265 0940 dc29 fd3f 704b 843e
00000330: d8e5 26c0 4e1f acc0 eeb3 f23d e11c 86c0
00000340: efde a13f 490c a83f df69 2cc0 bf3f c03f
00000350: 0f6a de3f f3ea 9bc0 0297 91c0 f50b 373f
00000360: 263c 9e3f d832 4840 2ca3 81bf 01c6 8e3e
00000370: 83d5 1340 848b 12bf 7dff cc3e bb0b 2ebe
00000380: cf43 8a3f 5c8a 1a3d aad1 a7c0 a366 f33f
00000390: f39e 973f ef47 de3f 3630 8d3f 91ea 2e3f
000003a0: af34 adbf a4e0 463f 738f 5a3f 9ce2 1640
000003b0: 09b9 393f d2d1 17be 65ae 1240 2c7a 1f40
000003c0: b4e1 b7bf 0649 04c0 c91a 2ec0 0ab9 7cc0
000003d0: ebea f0bf 2015 fd3e 6729 363f 781f 1340
000003e0: fd59 0240 2f96 1ec0 6509 b6be 6675 7bbf
000003f0: 2bde fe3f 722a 273f 706a e33f bea7 dabf

bias f4 [128]
-2.2036622 -0.011093442 -0.67406374 -1.1471188 -1.3059716 -1.3073891 -1.0609112 -1.2331884
6.009504 0.50698394 5.774634 3.643539 -2.3668654 -0.5436386 -0.5082018 -1.0384263
-1.4185948 -0.99795806 -1.3213407 -1.3739638 -1.6125209 -1.243516 -1.7352104 -1.5388522
3.161151 -1.692316 0.8269904 4.655371 -1.3136786 -1.3081532 -1.5690035 -0.45520845
-1.4517416 -1.3495122 1.3569782 -0.23564878 -0.97539055 -1.0297856 -0.85786796 -0.8547984
10.22004 3.031721 7.640709 7.1851 0.16908203 -0.84671247 1.3531313 -0.89691865
-0.48649806 -1.0355445 0.3461466 -1.5752916 -1.4236642 -1.0340086 -1.0708216 -1.3158804
4.416519 1.0635794 1.0786035 1.4382432 -1.3533859 -0.15074092 -0.072119966 -0.9234445
-1.1287708 -1.0933641 0.31952947 -1.5683641 -1.3361683 -1.2335701 -0.66868377 -1.0533175
0.59142125 4.6676354 0.09813302 0.8425672 -0.57992125 -0.61529887 -0.9423591 -0.8137442
-0.9572954 0.074620984 -0.38607496 -1.8164835 -0.9439002 -1.636972 -2.1386147 -0.85552394
5.130572 0.65200526 -1.2430961 0.98368454 -0.119459234 -0.4552886 -1.2487088 -0.79975444
0.1307997 -0.68698376 -0.29025096 -0.455135 -1.5183656 -0.6912408 -0.45820177 -1.8286034
9.90557 1.9771374 1.592743 5.387104 -2.2237782 -1.1424016 -0.14720847 0.011995614
-1.4292014 -1.7354763 -0.2831236 -2.271045 -0.7986347 -1.2952222 -1.9955031 -1.930016
0.50032794 0.79412925 0.018147005 1.4943576 -0.76581216 -0.5408078 -1.3021733 -0.99585336
00000000: cd08 0dc0 45c1 35bc 718f 2cbf cad4 92bf
00000010: 142a a7bf 8758 a7bf f0cb 87bf 1ed9 9dbf
00000020: db4d c040 b3c9 013f cdc9 b840 be2f 6940
00000030: b97a 17c0 e62b 0bbf 8319 02bf 27eb 84bf
00000040: 8494 b5bf 2e7a 7fbf b121 a9bf 0cde afbf
00000050: 1667 cebf 882b 9fbf 601b debf 1cf9 c4bf
00000060: 4c50 4a40 d09d d8bf a5b5 533f cdf8 9440
00000070: 9f26 a8bf 9071 a7bf 1bd5 c8bf 1511 e9be
00000080: abd2 b9bf d1bc acbf 76b1 ad3f ea4d 71be
00000090: 32b3 79bf 04d0 83bf 3c9d 5bbf 11d4 5abf
000000a0: 4985 2341 b807 4240 b080 f440 57ec e540
000000b0: d723 2d3e 26c2 58bf 6833 ad3f 769c 65bf
000000c0: 4616 f9be b98c 84bf 213a b13e 28a3 c9bf
000000d0: a13a b6bf 655a 84bf af10 89bf c56e a8bf
000000e0: 2054 8d40 5f23 883f ae0f 8a3f 5a18 b83f
000000f0: c03b adbf d45b 1abe a2b3 93bd dc66 6cbf
00000100: 907b 90bf 5bf3 8bbf 5e99 a33e 28c0 c8bf
00000110: 9007 abbf a0e5 9dbf dc2e 2bbf 1cd3 86bf
00000120: 6267 173f 455d 9540 f7f9 c83d 7cb2 573f
00000130: b875 14bf 3a84 1dbf 723e 71bf 8a51 50bf
00000140: 5011 75bf e3d2 983d 9eab c5be 8882 e8bf
00000150: 72a3 71bf 4c88 d1bf 10df 08c0 9e03 5bbf
00000160: a52d a440 d1e9 263f c61d 9fbf c0d2 7b3f
00000170: 0ba7 f4bd 961b e9be b1d5 9fbf b5bc 4cbf
00000180: 5bf0 053e 2bde 2fbf c69b 94be 7407 e9be
00000190: ce59 c2bf 28f5 30bf 6c99 eabe ad0f eabf
000001a0: 377d 1e41 d712 fd3f 01df cb3f 2863 ac40
000001b0: 6252 0ec0 373a 92bf d1bd 16be 4089 443c
000001c0: 12f0 b6bf 1624 debf 94f5 90be cd58 11c0
000001d0: 5373 4cbf d7c9 a5bf a56c ffbf c40a f7bf
000001e0: 7e15 003f 0e4c 4b3f 07a9 943c 1c47 bf3f
000001f0: 440c 44bf 6172 0abf 9dad a6bf 3ff0 7ebf
