flask/trained_models/5/doom-model.pth (torch, 75461 bytes, 27 tensors)

weight f4 [8, 1, 3, 3]
-0.49771065 -0.4620491 -0.24167378 0.080423355 -0.17140567 -0.40581235 0.45115718 0.15744093
0.21473552 0.5167328 -0.94851613 0.019053373 0.613801 -0.18208613 -0.043054197 -0.41358003
-0.9116884 0.060050674 -0.3897019 1.1204535 -0.26603583 -0.19815162 0.6292953 -0.7298061
0.5532483 1.1236326 -1.0556012 0.05736272 -0.006838931 -0.5362694 0.8141747 0.5472398
-0.045714483 -0.10763029 -1.0221102 -0.6576102 -0.20520006 0.24020648 -0.09893795 -0.2152877
-0.49654728 -0.6355924 0.15823318 -0.17512701 -0.1580305 -0.081583954 -1.2239379 0.77666575
0.13152394 -0.48733675 0.702591 0.17109832 -0.27659836 -0.79104555 -0.25839356 0.5187141
-0.12248227 0.04253164 0.19337632 -0.3730903 0.21398209 0.38313606 0.45469534 -0.25919846
0.36889985 0.63369596 0.447788 0.0111132 0.67326224 0.09452539 -0.33676222 -0.13074347
00000000: eed3 febe b391 ecbe 5579 77be 00b5 a43d
00000010: f884 2fbe a3c6 cfbe 13fe e63e 3238 213e
00000020: a1e3 5b3e 9a48 043f f4d1 72bf d215 9c3c
00000030: 1022 1d3f c974 3abe 9959 30bd c3c0 d3be
00000040: 6964 69bf b2f7 753d 0287 c7be 056b 8f3f
00000050: d935 88be 42e8 4abe 7f19 213f 93d4 3abf
00000060: aea1 0d3f 31d3 8f3f f11d 87bf 2cf5 6a3d
00000070: 1c19 e0bb f448 09bf c16d 503f e817 0c3f
00000080: 1c3f 3bbd 456d dcbd 82d4 82bf 2459 28bf
00000090: f71f 52be b0f8 753e fb9f cabd 6174 5cbe
000000a0: 723b febe 2fb6 22bf e107 223e 7f54 33be
000000b0: bfd2 21be 7d15 a7bd ffa9 9cbf 91d3 463f
000000c0: 36ae 063e 3484 f9be 01dd 333f 6634 2f3e
000000d0: 4d9e 8dbe f681 4abf 294c 84be 72ca 043f
000000e0: fcd7 fabd a835 2e3d 7104 463e b105 bfbe
000000f0: 1f1e 5b3e 692a c43e d4cd e83e a9b5 84be
00000100: 71e0 bc3e e639 223f 7844 e53e 2414 363c
00000110: ea5a 2c3f 8796 c13d 196c acbe 9ee1 05be

weight f4 [8]
1.054718 1.2502064 1.1268357 1.0878826 1.3592464 1.0168152 0.7915955 1.1116371
00000000: 0001 873f c306 a03f 273c 903f bd3f 8b3f
00000010: c9fb ad3f 0027 823f 01a6 4a3f 204a 8e3f

bias f4 [8]
-0.16642095 -0.31007057 -0.6021165 -0.06377198 -0.2794099 0.1644165 -0.3641918 -0.23364311
00000000: 416a 2abe 92c1 9ebe 4f24 1abf e29a 82bd
00000010: d00e 8fbe cd5c 283e 5977 babe 2440 6fbe

running_mean f4 [8]
-0.25592816 -0.36438313 0.20279947 -0.3171573 -0.47686628 -0.32473242 0.32361004 0.44928843
00000000: 0409 83be 6d90 babe aaaa 4f3e 7162 a2be
00000010: d127 f4be 5443 a6be 37b0 a53e 2209 e63e

running_var f4 [8]
0.027561162 0.03203085 0.021574417 0.030127354 0.05056441 0.026916103 0.022710593 0.04940204
00000000: f2c7 e13c c832 033d d5bc b03c a4cd f63c
00000010: a01c 4f3d 297f dc3c 910b ba3c cb59 4a3d

weight f4 [8, 8, 3, 3]
0.23649886 0.08815323 -0.12315023 -0.09229357 0.14320566 -0.15296772 -0.2784289 -0.056642484
0.4392831 -0.2029174 -0.2682014 -0.47784653 -0.41293526 0.27000892 -0.001389998 -0.12594399
-0.4864474 0.43886194 0.031195272 -0.39897004 0.040717933 -0.6633589 -0.4845277 0.20929137
-0.12026834 -0.13751948 -0.4077675 0.23775801 -0.40062863 -0.049040772 -0.46923637 0.23415215
0.27381817 -0.32700047 0.04045749 0.10366172 0.34944385 0.321034 -0.12955543 0.13442808
0.2573515 -0.03377673 -0.3874315 -0.12420633 0.22753482 -0.6586664 -0.29994196 -0.08971679
-0.09344905 0.36956522 -0.092772305 -0.31551063 -0.12393186 -0.20818327 -0.052795567 -0.2614417
-0.28713673 -0.13872878 -0.17958403 -0.21543711 -0.035528548 -0.08040564 -0.07276601 0.580209
0.1346074 -0.037443683 0.16454877 -0.063972406 -0.25935516 -0.13716848 -0.11640058 -0.35430366
-0.1513505 -0.059645817 0.12904014 -0.0035300618 -0.0878064 -0.06334508 0.16755165 -0.28064024
-0.1368079 -0.358593 -0.26214385 0.076652065 0.28015682 -0.5599426 0.01853709 -0.091409385
-0.030896889 0.18392256 -0.4866453 0.29864028 -0.37570193 -0.21929738 -0.051258434 0.09790782
0.19376545 -0.18033718 0.07251591 -0.06734573 -0.39748666 0.03699001 -0.07103822 -0.53715
-0.028570201 0.0061073443 -0.110997416 0.036717813 -0.035976745 -0.18230575 0.0758982 0.026822414
-0.21255673 0.0787818 0.343293 0.19565122 0.4338403 0.036425553 -0.0717227 0.29123878
-0.22360292 0.20736265 0.19762424 0.29355538 -0.04284903 -0.3526161 -0.31452432 0.1362307
0.04992508 -0.035221484 -0.06642244 0.06911604 -0.083655335 -0.07960376 -0.48395246 -0.2488963
0.14361046 0.1274855 -0.46294785 -0.22481248 -0.03478723 -0.038299438 -0.27021024 -0.23498389
0.051369313 0.00029589675 -0.011916402 0.2791075 0.3226218 -0.18211932 0.0023707247 -0.19749074
0.05212322 0.22467755 -0.2722598 -0.31008685 0.059720453 -0.10992078 -0.1473499 -0.29978415
-0.14224112 -0.123513065 0.55154914 0.27052093 -0.01495886 -0.59927124 0.29894465 0.19074424
-0.27234572 0.5721914 -0.40430066 0.5105819 -0.09184158 -0.14202519 -0.014702073 -0.028586078
-0.118024535 -0.36311638 0.26046592 -0.06634669 0.24140497 0.1677475 -0.48754156 -0.038200177
0.23151098 -0.39514506 -0.16765034 -0.23070584 0.120567754 -0.16289394 -0.1592933 -0.061015986
-0.26569778 0.25795132 0.24633458 -0.3013932 -0.062361762 -0.017054513 0.11195009 0.115714185
0.016709298 -0.008232437 -0.31246042 -0.11456853 -0.11543755 -0.23764238 -0.12338793 -0.23356375
0.022509499 0.23858139 -0.20380509 -0.06876659 0.20176493 0.34469685 -0.326104 -0.15733083
-0.4702448 -0.25675958 -0.096980795 0.29820627 0.124459505 -0.032357164 -0.33476156 -0.16024096
0.1463742 -0.29971927 0.40340173 0.20303012 -0.3243106 -0.34068874 0.17332976 -0.07297942
0.08507422 0.31827846 0.40029618 -0.097398564 -0.49825194 0.44385254 -0.095288895 -0.06999054
-0.40966186 -0.22412303 -0.5059536 -0.26736617 -0.12993088 -0.07728729 -0.14572524 -0.39863628
-0.038982566 -0.40204522 0.33115867 0.065535836 -0.19591177 -0.16069646 -0.024507456 0.34472057
00000000: c22c 723e ae89 b43d 3036 fcbd 6904 bdbd
00000010: 81a4 123e 92a3 1cbe 3c8e 8ebe f301 68bd
00000020: b7e9 e03e 94c9 4fbe b251 89be 4da8 f4be
00000030: 406c d3be 9c3e 8a3e 9830 b6ba 76f7 00be
00000040: a20f f9be 83b2 e03e 3a8d ff3c cd45 ccbe
00000050: d9c7 263d e4d1 29bf 0414 f8be 7a50 563e
00000060: 3f4f f6bd e8d1 0cbe e7c6 d0be d676 733e
00000070: 321f cdbe fade 48bd c03f f0be 95c5 6f3e
00000080: e531 8c3e 9b6c a7be c1b6 253d 994c d43d
00000090: 4eea b23e 925e a43e 2eaa 04be 84a7 093e
000000a0: 93c3 833e 7859 0abd 6c5d c6be e35f febd
000000b0: e3fe 683e 5c9e 28bf fe91 99be 70bd b7bd
000000c0: 3762 bfbd a737 bd3e 68ff bdbd 9c8a a1be
000000d0: fdcf fdbd ff2d 55be 2a40 58bd b0db 85be
000000e0: 9603 93be eb0e 0ebe e0e4 37be 8c9b 5cbe
000000f0: 6286 11bd b6ab a4bd 5906 95bd 9488 143f
00000100: 86d6 093e 8c5e 19bd 797f 283e f703 83bd
00000110: 33ca 84be e575 0cbe 6d63 eebd 4a67 b5be
00000120: a0fb 1abe 2c4f 74bd 1923 043e 9c58 67bb
00000130: d8d3 b3bd 11bb 81bd a992 2b3e 14b0 8fbe
00000140: 5f17 0cbe 8099 b7be b837 86be c2fb 9c3d
00000150: b770 8f3e 6658 0fbf 18db 973c d834 bbbd
00000160: 791b fdbc 3256 3c3e 9329 f9be 61e7 983e
00000170: 015c c0be 7e8f 60be 5df4 51bd e583 c83d
00000180: 736a 463e 4faa 38be 3983 943d 8fec 89bd
00000190: 5f83 cbbe d682 173d 7c7c 91bd aa82 09bf
000001a0: 0e0c eabc 1e20 c83b 9d52 e3bd 6b65 163d
000001b0: 5a5c 13bd 5cae 3abe 8470 9b3d aeba db3c
000001c0: 79a8 59be 5a58 a13d 1ac4 af3e cb58 483e
000001d0: 5120 de3e f632 153d 5ae3 92bd 401d 953e
000001e0: 2af8 64be e056 543e 025e 4a3e e44c 963e
000001f0: 7782 2fbd 198a b4be 5509 a1be 1080 0b3e
00000200: 3e7e 4c3d 6744 10bd 7d08 88bd b68c 8d3d
00000210: 7d53 abbd 4c07 a3bd 9ec8 f7be acde 7ebe
00000220: 9f0e 133e 8f8b 023e 8007 edbe 3e35 66be
00000230: 0e7d 0ebd dfdf 1cbd ff58 8abe 9e9f 70be
00000240: a168 523d 9722 9b39 033d 43bc 2ee7 8e3e
00000250: af2e a53e 7d7d 3abe 295e 1b3b 033b 4abe
00000260: 287f 553d df11 663e a365 8bbe b4c3 9ebe
00000270: 6f9d 743d 251e e1bd e4e2 16be 4f7d 99be
00000280: a8a7 11be 6bf4 fcbd 5332 0d3f b881 8a3e
00000290: 0216 75bc d769 19bf 460f 993e 7552 433e
000002a0: e670 8bbe 237b 123f 7f00 cfbe 7fb5 023f
000002b0: 7017 bcbd 0d6f 11be f7e0 70bc 5a2d eabc
000002c0: d9b6 f1bd 64ea b9be ca5b 853e c6e0 87bd
000002d0: dd32 773e 00c6 2b3e 0c9f f9be ca77 1cbd
000002e0: 3711 6d3e 7450 cabe 88ac 2bbe 273e 6cbe
000002f0: 3aec f63d abcd 26be c81d 23be e6eb 79bd
00000300: 8a09 88be 3212 843e 223f 7c3e 3650 9abe
00000310: 0c6f 7fbd e8b5 8bbc 1746 e53d 8ffb ec3d
00000320: f0e1 883c 58e1 06bc d0fa 9fbe e8a2 eabd
00000330: 866a ecbd 8658 73be d0b2 fcbd 562b 6fbe
00000340: d765 b83c ae4e 743e 48b2 50be 7fd5 8cbd
00000350: 779b 4e3e 1b7c b03e 1af7 a6be 551b 21be
00000360: edc3 f0be fe75 83be de9d c6bd 7eae 983e
00000370: a0e4 fe3d f288 04bd de65 abbe 3516 24be
00000380: 1ee3 153e ce74 99be ac8a ce3e 21e7 4f3e
00000390: 0a0c a6be c16e aebe 5b7d 313e 3c76 95bd
000003a0: 653b ae3d 65f5 a23e 9ff3 cc3e e678 c7bd
000003b0: e11a ffbe a440 e33e d326 c3bd 3357 8fbd
000003c0: 33bf d1be 8280 65be 2d86 01bf 38e4 88be
000003d0: 9a0c 05be cc48 9ebd ff38 15be 0e1a ccbe
000003e0: 2fac 1fbd dfd8 cdbe a18d a93e a737 863d
000003f0: 189d 48be 9d8d 24be dcc3 c8bc 377f b03e

weight f4 [8]
1.2017812 1.241809 0.8823895 1.0897056 1.1828011 1.1258757 0.86786735 1.177277
00000000: f7d3 993f 99f3 9e3f 47e4 613f 797b 8b3f
00000010: 0766 973f b21c 903f 8e2c 5e3f 03b1 963f

bias f4 [8]
0.010113172 -0.21350801 -0.046800092 -0.17104806 0.11828645 -0.029692184 0.10188401 -0.23924172
00000000: b8b1 253c d8a1 5abe 74b1 3fbd 3927 2fbe
00000010: 2b40 f23d 063d f3bc 90a8 d03d c8fb 74be

running_mean f4 [8]
-1.7436736 -1.2430227 -0.8056454 -1.5298166 0.8763604 -0.17658474 0.058726907 -0.8125356
00000000: b230 dfbf 5e1b 9fbf c73e 4ebf 08d1 c3bf
00000010: 2859 603f a1d2 34be a08b 703d 5502 50bf

running_var f4 [8]
1.7236779 1.4359452 1.4464971 2.1456454 4.9850464 2.7605984 1.6012533 1.5083069
00000000: 7aa1 dc3f 0dcd b73f d126 b93f 4152 0940
00000010: 8085 9f40 a5ad 3040 def5 cc3f 3310 c13f

weight f4 [8, 8, 3, 3]
-0.50515974 -0.09557334 0.33856553 0.23450218 -0.19965896 -0.019758385 -0.33186266 -0.03198912
-0.16753982 0.20766817 -0.07049753 -0.31528568 0.10006764 -0.09643885 0.12837611 0.11099977
-0.12565623 0.26372063 -0.47031987 0.1249278 -0.38477743 -0.24351549 0.19408223 -0.3461484
0.00556226 -0.058718164 0.180888 -0.14989191 0.16154847 0.03856292 -0.14432938 0.08047691
-0.013405442 -0.021834752 0.18917812 -0.25737992 0.010825405 -0.08093651 -0.0035896462 -0.18923576
-0.19515464 -0.20313936 -0.011664213 -0.015077215 -0.34780902 0.20915084 0.14053284 -0.046536043
-0.37706497 -0.17232329 -0.21644118 -0.20787838 -0.076660424 -0.009237253 0.026913512 0.056967944
-0.09548756 -0.15551732 0.010676705 -0.31401783 0.31134507 -0.28562766 0.085826114 0.07568918
0.08344813 -0.05785802 0.103484854 -0.31651276 0.14062634 -0.2529311 -0.17803904 0.34794644
0.07917603 0.01605722 -0.121613175 -0.28980264 0.26004198 0.43837377 -0.032160692 -0.25290212
-0.39240208 0.09069199 0.16756666 -0.0049349205 -0.14004551 -0.14345698 0.08842352 0.14576575
-0.34774888 -0.09571568 -0.009252966 0.13638102 -0.1269517 -0.09873237 0.5007635 -0.5654399
0.5436272 -0.38704678 0.06708036 0.34526816 0.12412761 -0.11346917 -0.18761878 -0.50781214
0.016559394 -0.027542042 0.112265565 0.17400616 -0.43578583 0.37259415 0.45764002 -0.0717642
-0.13515441 -0.3665244 0.2745726 0.18393902 0.51799786 -0.23507869 0.19574569 -0.03259782
0.035417978 -0.1726494 -0.46383333 0.19982119 -0.27527058 -0.05199377 0.18471308 0.16980144
0.2329871 -0.5248674 0.35279313 -0.2751307 -0.09569954 0.252213 0.1764301 -0.032122243
-0.3015813 0.21121582 -0.18454173 -0.60862404 0.19803643 -0.14274642 -0.06421684 -0.15779802
0.08906191 0.2946566 0.070832044 -0.22446616 0.108006954 0.16119896 0.2308335 -0.3483852
-0.36239713 0.26196983 -0.14890862 -0.3596119 0.1381241 -0.007442977 -0.4135014 0.3174284
-0.2580033 0.1520658 -0.18045087 0.3248154 -0.011847791 -0.16610178 0.078974485 -0.13081618
-0.16998471 -0.027835956 0.065633714 -0.041073497 0.3674066 -0.42029953 0.07164001 0.050395757
0.3679588 0.50193614 -0.21561214 0.40743202 0.30923393 0.29167753 -0.30534625 -0.16593033
0.45298105 0.3410805 0.07316092 0.07633118 -0.10411981 -0.20790392 0.14794631 -0.2889945
0.22286676 0.33096108 -0.39970046 -0.15793872 -0.16888426 0.2643187 -0.063546106 0.061813924
-0.15529172 -0.36010334 -0.26111102 -0.053869385 -0.14584315 -0.112978674 -0.38166386 -0.15493457
-0.22483598 0.08685298 -0.10042253 -0.3532032 -0.27336922 0.014621013 -0.20994759 -0.17021108
0.020910991 0.28083742 0.23358056 -0.3130081 0.13847841 -0.09597129 -0.060718574 -0.00863198
0.662113 0.26967433 -0.43832558 -0.20609897 0.011923232 -0.0051744604 0.41337216 0.10715528
-0.41099286 0.5372217 -0.3401223 0.3773626 -0.19512926 0.10647515 0.0022011788 -0.115505524
-0.10889945 -0.22277617 -0.38658932 -0.28039956 -0.0409859 -0.030735407 -0.2412779 -0.28839397
0.19105001 -0.012022606 -0.55755097 -0.13001662 0.14881405 0.5190349 0.15782447 -0.10908862
00000000: 2652 01bf f5bb c3bd 7658 ad3e 5721 703e
00000010: 6673 4cbe 56dc a1bc e7e9 a9be 0607 03bd
00000020: 8f8f 2bbe f7a6 543e 0261 90bd 206d a1be
00000030: 43f0 cc3d bb81 c5bd 0775 033e d953 e33d
00000040: 07ac 00be 6406 873e c4cd f0be 25da ff3d
00000050: 8c01 c5be 205c 79be 7ebd 463e 5d3a b1be
00000060: 9e43 b63b 7582 70bd b43a 393e 447d 19be
00000070: f66c 253e 27f4 1d3d 15cb 13be 14d1 a43d
00000080: 80a2 5bbc cbde b2bc e9b7 413e 4dc7 83be
00000090: 0a5d 313c 0ac2 a5bd 4540 6bbb 05c7 41be
000000a0: 9ed6 47be c403 50be 411b 3fbc 6c06 77bc
000000b0: 0614 b2be a32b 563e d7e7 0f3e 949c 3ebd
000000c0: a90e c1be 8475 30be c2a2 5dbe 12de 54be
000000d0: 2400 9dbd d957 17bc ba79 dc3c 3857 693d
000000e0: fb8e c3bd ef3f 1fbe 59ed 2e3c f2c6 a0be
000000f0: 9f68 9f3e ca3d 92be 9ac5 af3d ee02 9b3d
00000100: dae6 aa3d 88fc 6cbd deef d33d f60d a2be
00000110: 5a00 103e 2f80 81be de4f 36be 0926 b23e
00000120: 0b27 a23d 6e8a 833c 5410 f9bd 0361 94be
00000130: 3924 853e 8772 e03e eeba 03bd 637c 81be
00000140: ede8 c8be b9bc b93d 9896 2b3e 1db5 a1bb
00000150: 1768 0fbe 63e6 12be 6417 b53d 9e43 153e
00000160: 240c b2be 9506 c4bd c199 17bc 77a7 0b3e
00000170: a0ff 01be 3234 cabd 0932 003f abc0 10bf
00000180: 272b 0b3f ff2a c6be 6e61 893d fdc6 b03e
00000190: 9e36 fe3d 8662 e8bd 231f 40be faff 01bf
000001a0: 91a7 873c d99f e1bc 7deb e53d ac2e 323e
000001b0: 521f dfbe a9c4 be3e cb4f ea3e 1cf9 92bd
000001c0: eb65 0abe 16a9 bbbe c894 8c3e 835a 3c3e
000001d0: 829b 043f 78b8 70be 8f71 483e 4b85 05bd
000001e0: 7112 113d 01cb 30be 907b edbe ed9d 4c3e
000001f0: 44f0 8cbe 6bf7 54bd 6d25 3d3e 6ee0 2d3e
00000200: 2c94 6e3e b65d 06bf 4da1 b43e eedd 8cbe
00000210: 1ffe c3bd 1022 813e 18aa 343e 9d92 03bd
00000220: dd68 9abe f648 583e 82f8 3cbe c9ce 1bbf
00000230: 10ca 4a3e 1e2c 12be 1e84 83bd ce95 21be
00000240: 1766 b63d 3bdd 963e 6410 913d 75da 65be
00000250: c032 dd3d 5711 253e 9e5f 6c3e 8c5f b2be
00000260: 1e8c b9be e920 863e 807b 18be 0d1f b8be
00000270: 6770 0d3e 37e4 f3bb 75b6 d3be fa85 a23e
00000280: 0219 84be 23b7 1b3e 1dc8 38be 344e a63e
00000290: 3d1d 42bc 9616 2abe 60bd a13d adf4 05be
000002a0: 7910 2ebe 3b08 e4bc f86a 863d af3c 28bd
000002b0: b81c bc3e 8031 d7be ffb7 923d c86b 4e3d
000002c0: 1965 bc3e e37e 003f 6ec9 5cbe ee9a d03e
000002d0: e953 9e3e c256 953e 5856 9cbe a4e9 29be
000002e0: 22ed e73e 1aa2 ae3e 64d5 953d 8653 9c3d
000002f0: c43c d5bd c4e4 54be 3d7f 173e 16f7 93be
00000300: 2f37 643e bb73 a93e 8aa5 ccbe b0ba 21be
00000310: ffef 2cbe c854 873e 7624 82bd 9930 7d3d
00000320: cb04 1fbe 775f b8be 58b0 85be 25a6 5cbd
00000330: e857 15be 5d61 e7bd 7269 c3be 2ba7 1ebe
00000340: 673b 66be fadf b13d 54aa cdbd 0dd7 b4be
00000350: 0df7 8bbe f98c 6f3c 80fc 56be d04b 2ebe
00000360: 874d ab3c ecc9 8f3e be2f 6f3e 9942 a0be
00000370: 49cd 0d3e 988c c4bd 0ab4 78bd 266d 0dbc
00000380: 3d80 293f c112 8a3e 366c e0be 9c0b 53be
00000390: a959 433c 858e a9bb 84a5 d33e 3a74 db3d
000003a0: a86d d2be 5d87 093f 8324 aebe ac35 c13e
000003b0: f7cf 47be a50f da3d a741 103b 298e ecbd
000003c0: ad06 dfbd 701f 64be 09ef c5be 8890 8fbe
000003d0: d5e0 27bd d2c8 fbbc 8e11 77be 60a8 93be
000003e0: 9da2 433e 77fa 44bc a9bb 0ebf 1423 05be
000003f0: b662 183e 79df 043f bd9c 213e db69 dfbd

weight f4 [8]
1.0066584 0.9903426 1.0873982 1.0772603 1.0381365 1.0077289 0.940487 0.9125614
00000000: 2fda 803f 1887 7d3f dd2f 8b3f aae3 893f
00000010: a8e1 843f 43fd 803f c2c3 703f a09d 693f

bias f4 [8]
-0.2545205 -0.56900704 -0.61700344 -0.45777246 -0.48729563 -0.32094234 -0.46410465 -0.01768258
00000000: 8350 82be 72aa 11bf f0f3 1dbf 2761 eabe
00000010: d07e f9be 8e52 a4be 209f edbe 0fdb 90bc

running_mean f4 [8]
-1.5740368 -0.7331551 -0.52290416 -0.41253918 -0.45111686 -0.52090955 -0.4172089 -1.0418692
00000000: 0a7a c9bf 0db0 3bbf 0cdd 05bf 5638 d3be
00000010: caf8 e6be 545a 05bf 689c d5be f85b 85bf

running_var f4 [8]
1.0871164 2.16175 1.0279031 1.0359429 2.6973398 1.179525 1.6903231 1.1360594
00000000: a126 8b3f 1d5a 0a40 5492 833f c799 843f
00000010: 37a1 2c40 adfa 963f 825c d83f 656a 913f

weight f4 [16, 8, 3, 3]
-0.06376209 -0.057092827 -0.0055363495 -0.24685514 -0.14565685 0.26223916 -0.22716865 -0.18609622
0.20147589 0.13679558 -0.04901683 0.20446676 0.09931086 0.07878093 0.06253032 -0.018628305
0.007619567 0.10005032 -0.012739118 -0.11170579 -0.2151794 -0.430372 -0.032530904 0.062414546
0.17007688 -0.08285064 -0.1180306 -0.092700884 0.17353575 -0.010267853 -0.13334593 -0.27682486
-0.31464425 -0.29051715 -0.11383233 -0.16927812 0.09867052 0.10913117 0.26463205 0.35082585
0.16623423 0.23991138 0.28539413 0.22854014 0.13961875 -0.08007871 0.031666774 -0.26025477
-0.07711305 0.078334495 -0.29541534 0.038064297 0.019694235 -0.20561713 -0.26997495 -0.17177555
-0.253806 0.02487596 -0.2507613 -0.31727004 0.034768894 -0.093091644 0.09453511 0.4064598
0.074411154 0.060775064 0.3467545 0.005627265 -0.2951754 0.0886951 -0.041458122 -0.2869905
0.053717457 -0.050399244 -0.422186 0.044910267 0.2035574 0.0063054683 -0.032365132 -0.016696416
0.028408995 -0.4028981 0.17259783 -0.06206046 -0.12779567 0.013055157 0.31497073 -0.30024508
0.05512707 -0.056010354 -0.114221886 0.35693386 0.34578496 -0.05546214 -0.043013282 -0.042172663
0.017014384 -0.16384797 0.40195075 0.01652756 -0.4023389 -0.20237789 -0.13732204 -0.06287553
0.024746018 0.003622191 -0.22397996 -0.26670375 -0.12801535 0.43046203 0.28750998 -0.013172251
-0.1782791 0.03209015 -0.0722088 0.29198247 0.16758806 0.032846272 -0.14579405 -0.010433042
-0.32298696 -0.28109667 -0.035850726 -0.27128723 0.3329214 0.22516035 0.3382951 -0.08663769
-0.15186156 -0.46192273 -0.082329884 0.22871327 0.1249029 0.13629699 0.25529423 -0.08753772
-0.10424739 0.13111517 0.36470324 -0.1041284 -0.10403924 -0.281791 -0.30934283 0.047359888
-0.021172665 -0.073148675 -0.15551978 0.30934346 -0.027282976 -0.14499503 -0.09172066 -0.012935706
0.11346982 -0.16795234 -0.2513684 0.088193715 -0.19973466 -0.027193448 -0.046543688 0.09847441
-0.2138043 0.09208038 0.12717569 0.05644266 0.047374237 0.034201447 0.0052158423 0.09616463
0.14377525 0.10983835 0.22442943 0.09671452 0.1826038 0.09116769 -0.187474 -0.051608052
-0.18397897 0.103107445 0.22454998 -0.029607555 -0.19988388 -0.20705023 0.10196128 0.019814372
-0.11492825 -0.14852855 0.040424824 -0.12526396 0.2833058 0.09406992 0.048372723 -0.1887861
-0.106023975 0.1559215 -0.4343454 -0.06742106 -0.17397851 0.24552026 0.16524422 -0.1093309
0.08436234 -0.08715992 -0.031024594 0.0026322927 -0.05912967 -0.07625638 0.08763413 -0.17055722
0.087805584 0.016368162 -0.3430163 -0.093251005 -0.11105161 0.15237892 -0.107324734 -0.19981332
0.30792996 0.1196595 0.038532317 -0.058457803 0.047284693 -0.027274312 0.031205809 0.16412997
0.10002199 0.10579982 -0.020281026 -0.28756464 0.07361295 0.070466295 0.010321033 0.084023885
-0.15568163 -0.038520083 0.010389388 -0.21657237 -0.23858543 -0.044626616 -0.23190857 -0.032345615
0.24386588 -0.14772907 -0.17148052 0.01491695 -0.13124779 0.030605173 -0.16822433 -0.2477017
-0.066070706 -0.23096679 0.009387242 0.037605867 0.18314207 -0.06527135 -0.011475921 0.124200806
00000000: b395 82bd 2bda 69bd 446a b5bb 98c7 7cbe
00000010: 1227 15be 3644 863e e69e 68be 0290 3ebe
00000020: b24f 4e3e 2414 0c3e dfc5 48bd bc5f 513e
00000030: 7e63 cb3d e557 a13d e50f 803d 639a 98bc
00000040: 90ad f93b 2fe7 cc3d bcb7 50bc 01c6 e4bd
00000050: fd57 5cbe b859 dcbe 203f 05bd 65a6 7f3d
00000060: a228 2e3e 99ad a9bd 07ba f1bd f6d9 bdbd
00000070: 5bb3 313e 7f3a 28bc d68b 08be fdbb 8dbe
00000080: 0d19 a1be aabe 94be ed20 e9bd 3e57 2dbe
00000090: c513 ca3d 2a80 df3d da7d 873e 729f b33e
000000a0: 4e39 2a3e 54ab 753e 2e1f 923e 6d06 6a3e
000000b0: 38f8 0e3e 4f00 a4bd 05b5 013d 1d40 85be
000000c0: 72ed 9dbd d66d a03d ae40 97be 4fe9 1b3d
000000d0: ce55 a13c 4c8d 52be 283a 8abe eee5 2fbe
000000e0: dcf2 81be abc8 cb3c c963 80be 3871 a2be
000000f0: d469 0e3d d5a6 bebd a09b c13d 801b d03e
00000100: e064 983d 46ef 783d ce89 b13e ec64 b83b
00000110: 3b21 97be c7a5 b53d fecf 29bd 6bf0 92be
00000120: d606 5c3d 706f 4ebd c328 d8be d4f3 373d
00000130: 5a71 503e 1a9e ce3b 4d91 04bd ecc6 88bc
00000140: fbb9 e83c a948 cebe 7cbd 303e 1c33 7ebd
00000150: dedc 02be 4ce5 553c d843 a13e b9b9 99be
00000160: eccc 613d 1d6b 65bd 2aed e9bd 09c0 b63e
00000170: ba0a b13e 452c 63bd b22e 30bd 3ebd 2cbd
00000180: c061 8b3c c3c7 27be 7dcc cd3e ce64 873c
00000190: 5dff cdbe 263c 4fbe 269e 0cbe e3c4 80bd
000001a0: 29b8 ca3c 4862 6d3b 015b 65be 658d 88be
000001b0: 7516 03be 8565 dc3e 8234 933e 6dd0 57bc
000001c0: cc8e 36be f670 033d 35e2 93bd ba7e 953e
000001d0: 349c 2b3e d089 063d 094b 15be 5aef 2abc
000001e0: 8c5e a5be e7eb 8fbe 36d8 12bd 29e6 8abe
000001f0: ac74 aa3e 6f90 663e 0435 ad3e 1a6f b1bd
00000200: 9981 1bbe 2381 ecbe 929c a8bd d033 6a3e
00000210: 17cd ff3d 7091 0b3e edb5 823e fa46 b3bd
00000220: a87f d5bd 0e43 063e 62ba ba3e 4541 d5bd
00000230: 8612 d5bd e946 90be 2f62 9ebe 71fc 413d
00000240: 4c72 adbc f9ce 95bd 9440 1fbe 4462 9e3e
00000250: 8c80 dfbc 9479 14be 0bd8 bbbd 49f0 53bc
00000260: dd62 e83d b3fb 2bbe 5cb3 80be e89e b43d
00000270: 3e87 4cbe cbc4 debc 98a4 3ebd f4ac c93d
00000280: 84ef 5abe a394 bc3d 583a 023e 6b30 673d
00000290: 7d0b 423d d116 0c3d a8e9 aa3b f6f1 c43d
000002a0: d239 133e eef2 e03d d4d0 653e 4312 c63d
000002b0: 7efc 3a3e 20b6 ba3d 2ff9 3fbe f762 53bd
000002c0: fc64 3cbe ff29 d33d 6ef0 653e 8b8b f2bc
000002d0: 5cae 4cbe fa04 54be 13d1 d03d c051 a23c
000002e0: 815f ebbd de17 18be 8094 253d 3245 00be
000002f0: 750d 913e bba7 c03d 7a22 463d 2551 41be
00000300: 1923 d9bd e3a9 1f3e 8562 debe 0d14 8abd
00000310: 6c27 32be aa69 7b3e c835 293e e1e8 dfbd
00000320: 2ac6 ac3d e680 b2bd 4a27 febc 8b82 2c3b
00000330: f431 72bd 4e2c 9cbd 8679 b33d 8da6 2ebe
00000340: 6ad3 b33d 8616 863c d59f afbe 62fa bebd
00000350: 076f e3bd 3809 1c3e 12cd dbbd dd9b 4cbe
00000360: ffa8 9d3e 0a10 f53d 10d4 1d3d 7371 6fbd
00000370: 98ad 413d 616e dfbc 53a3 ff3c b011 283e
00000380: 54d8 cc3d 93ad d83d 6524 a6bc ac3b 93be
00000390: 63c2 963d a250 903d 8d19 293c b714 ac3d
000003a0: 016b 1fbe 3cc7 1dbd 4038 2a3c 26c5 5dbe
000003b0: bd4f 74be 66ca 36bd 7179 6dbe d67c 04bd
000003c0: fab7 793e 4a46 17be 9798 2fbe 3966 743c
000003d0: d265 06be b3b7 fa3c 0043 2cbe 84a5 7dbe
000003e0: 1450 87bd 8f82 6cbe f2cc 193c 9c08 1a3d
000003f0: 9889 3b3e fcac 85bd 8005 3cbc fe5c fe3d

weight f4 [16]
1.8052366 1.9183229 1.6826499 1.5313938 1.5979168 1.4197897 1.5162148 1.4903903
2.2285626 2.0540938 1.6272786 1.9079183 2.4354975 2.2117944 1.8286673 2.097773
00000000: fe11 e73f 9b8b f53f 1261 d73f b604 c43f
00000010: 8a88 cc3f abbb b53f 5413 c23f 1cc5 be3f
00000020: c5a0 0e40 4676 0340 aa4a d03f ab36 f43f
00000030: 31df 1b40 0a8e 0d40 c511 ea3f ea41 0640

bias f4 [16]
-0.1874277 0.045176104 0.207819 0.18614857 0.14815937 0.1788746 0.39574662 0.27981448
0.26088974 0.17607836 0.21182925 0.27059305 0.37008244 0.24738444 0.28321183 0.39515206
00000000: 0ced 3fbe 940a 393d 81ce 543e bb9d 3e3e
00000010: 17b7 173e e72a 373e 4d9f ca3e d843 8f3e
00000020: 5793 853e e34d 343e c4e9 583e 2c8b 8a3e
00000030: 727b bd3e 5952 7d3e 2401 913e 5f51 ca3e

running_mean f4 [16]
-0.4332743 -0.37663954 -0.3266174 -0.017894171 -0.06499653 -0.5450888 -0.5055106 -0.61312985
0.08832863 0.050182823 -0.2363601 -0.26406634 -0.49769756 -0.06741991 -0.63760936 0.3862087
00000000: 21d6 ddbe e6d6 c0be 653a a7be cc96 92bc
00000010: e71c 85bd f18a 0bbf 2569 01bf 14f6 1cbf
00000020: a4e5 b43d 818c 4d3d 6208 72be b433 87be
00000030: 37d2 febe 7313 8abd 5e3a 23bf 26bd c53e

running_var f4 [16]
0.6395841 0.6409595 0.34784395 0.39117473 0.35687503 0.22340739 0.4107835 0.36393142
0.22891538 0.59369934 0.17936559 0.14148195 0.4163225 0.27508774 0.24982026 0.2085417
00000000: c9bb 233f ec15 243f 9a18 b23e 0e48 c83e
00000010: 53b8 b63e e8c4 643e 3752 d23e 3855 ba3e
00000020: cb68 6a3e aefc 173f 9dab 373e a5e0 103e
00000030: 3928 d53e 4dd8 8c3e e2d0 7f3e f58b 553e

weight f4 [64, 96]
0.098013006 -0.11030275 0.011021779 0.12145708 -0.15501389 -0.007984384 0.010745612 -0.021641687
-0.099219784 -0.021115428 -0.12690477 0.022754172 0.09153165 -0.006525311 0.029314471 -0.06887225
0.044355195 0.09749002 -0.0500858 -0.102173746 -0.011723411 0.20573007 0.0597148 -0.021151392
0.06819718 0.1037352 0.019067133 -0.00012445089 0.14370954 0.15615644 -0.0059425784 -0.19490568
0.11111935 0.0598111 0.09428172 0.053513523 0.15568763 0.07618481 -0.011728866 0.008157364
0.002846685 -0.045323882 0.022435725 0.14085041 0.16652994 -0.048588265 -0.014760146 0.099004336
0.016375752 0.013293543 -0.043613166 -0.08042758 -0.0013476156 0.0015447438 0.08064245 -0.05268711
-0.026635986 -0.05626504 0.058753565 0.1100503 0.063284226 -0.009475744 0.024355032 -0.060822845
-0.049719308 0.12097827 0.09790523 -0.05083364 0.07643018 0.09400913 -0.036796056 -0.008981824
0.048636843 0.12547383 0.1409755 0.15424475 -0.05074942 0.08542792 0.062160313 -0.035900667
0.043851577 0.005559163 -0.004064832 0.03874677 -0.03505906 0.113116875 0.08313219 0.06007939
-0.06382042 0.09401448 -0.03239029 0.100796804 0.0757651 -0.050426584 0.08796784 -0.021164954
0.07064483 -0.10372559 0.0880866 0.09427665 -0.04358671 -0.06204159 -0.004562167 -0.06013194
0.031012986 -0.0121762175 0.08688653 -0.042452175 -0.021641236 0.06888475 0.01003146 -0.07357903
-0.069160126 -0.071043886 0.010906408 0.04825655 0.06386686 0.001084585 0.039381646 0.06917441
0.014138879 0.016979935 -0.09290951 -0.06263247 0.010051168 0.009759816 0.022061842 -0.07750488
0.09566829 -0.04491209 -0.06391224 -0.02942678 0.08135086 0.013201967 -0.07886825 -0.016407313
0.05840176 0.03926631 0.06679317 0.049003277 -0.0763275 0.0175917 0.08433313 -0.07954887
0.058697853 -0.064513244 -0.044065 -0.08781498 -0.06688655 -0.03413518 -0.035822414 -0.02377778
-0.027481759 -0.05948969 -0.050284218 0.024694368 -0.09649921 0.039292526 0.032137867 0.022067223
0.03884728 0.025448857 0.029457923 0.08584617 -0.04257822 0.04116072 0.008766974 0.0014122628
0.07705477 -0.034961253 -0.010021294 0.059963644 -0.0023994627 -0.03212728 0.10175601 -0.00155658
0.07782779 -0.026058327 0.0075094905 -0.0566539 0.0044633336 -0.0658668 -0.06782778 0.086934134
0.06796913 -0.07958104 -0.06484996 0.031808678 0.034400217 -0.07447129 0.055276956 -0.06529957
0.027040157 0.12000249 -0.023565235 0.013895523 -0.018372739 -0.0029089996 -0.033711508 -0.010570732
-0.059286144 0.078270786 0.11347198 -0.068521805 -0.095994055 -0.091536306 -0.010115505 0.034456503
0.056285877 0.001416361 -0.039647043 0.05049945 0.14224483 -0.04186994 -0.02193244 -0.008854399
-0.107079834 0.07300135 0.114340164 -0.0579943 -0.009629587 0.073436156 0.098890536 0.16755344
0.01908801 0.0040911767 0.04909535 -0.047544923 -0.040974397 0.017148063 0.027814865 0.039725658
-0.094547994 0.08706845 -0.056711078 -0.07845641 -0.05369753 0.1294673 0.06471264 -0.04268619
0.0018205182 0.036596157 -0.011025238 0.07439467 0.019817611 0.025446758 -0.05414095 -0.01899034
-0.011679306 -0.112963006 -0.05690856 -0.080224566 0.01938187 -0.04199754 -0.08162267 -0.038514055
00000000: 0bbb c83d 68e6 e1bd b194 343c 7dbe f83d
00000010: f6bb 1ebe efd0 02bc 5d0e 303c e849 b1bc
00000020: be33 cbbd 43fa acbc 53f3 01be f566 ba3c
00000030: f274 bb3d 47d2 d5bb e724 f03c e50c 8dbd
00000040: cbad 353d d9a8 c73d c526 4dbd 7840 d1bd
00000050: 8d13 40bc e7aa 523e 8297 743d af45 adbc
00000060: f7aa 8b3d 1f73 d43d ad32 9c3c 087f 02b9
00000070: 9828 133e 79e7 1f3e f6b9 c2bb 5b95 47be
00000080: 8b92 e33d 7cfc 743d c616 c13d ff30 5b3d
00000090: 946c 1f3e c806 9c3d 6e2a 40bc 77a6 053c
000000a0: 738f 3a3b 89a5 39bd 20cb b73c 173b 103e
000000b0: d386 2a3e 7d04 47bd 8ad4 71bc c9c2 ca3d
000000c0: 7126 863c 29cd 593c b8a3 32bd 37b7 a4bd
000000d0: 7aa2 b0ba 0079 ca3a de27 a53d 70ce 57bd
000000e0: b633 dabc 2c76 66bd 94a7 703d 0d62 e13d
000000f0: 299b 813d 2740 1bbc 3484 c73c 6021 79bd
00000100: 79a6 4bbd 75c3 f73d 8a82 c83d ef36 50bd
00000110: 6d87 9c3d dc87 c03d 76b7 16bd 8028 13bc
00000120: 6d37 473d 367c 003e e25b 103e 56f2 1d3e
00000130: a0de 4fbd d5f4 ae3d d09b 7e3d 940c 13bd
00000140: b69d 333d a429 b63b 4832 85bb efb4 1e3d
00000150: 179a 0fbd d2a9 e73d 3641 aa3d ce15 763d
00000160: 48b4 82bd aa8a c03d aeab 04bd 8e6e ce3d
00000170: bc2a 9b3d 1b8c 4ebd 7c28 b43d 2062 adbc
00000180: 3dae 903d 156e d4bd bf66 b43d 1e14 c13d
00000190: fa87 32bd 531f 7ebd 3b7e 95bb e94c 76bd
000001a0: f20e fe3c c27e 47bc 91f1 b13d 55e2 2dbd
000001b0: f648 b1bc 7313 8d3d fe5a 243c 9ab0 96bd
000001c0: d3a3 8dbd 757f 91bd cab0 323c a9a8 453d
000001d0: a1cc 823d a228 8e3a a64e 213d 50ab 8d3d
000001e0: c2a6 673c 8119 8b3c 5747 bebd 7445 80bd
000001f0: a7ad 243c a3e7 1f3c 09bb b43c e1ba 9ebd
00000200: bded c33d bdf5 37bd 6ce4 82bd 6e10 f1bc
00000210: 489b a63d 104d 583c ad85 a1bd a168 86bc
00000220: af36 6f3d b6d5 203d dcca 883d a9b7 483d
00000230: 9851 9cbd 781c 903c d9b6 ac3d 85ea a2bd
00000240: 296d 703d 851f 84bd 807d 34bd 57d8 b3bd
00000250: d1fb 88bd 55d1 0bbd 86ba 12bd 9ec9 c2bc
00000260: 6d21 e1bc 76ab 73bd d3f6 4dbd d84b ca3c
00000270: 61a1 c5bd 33f1 203d ffa2 033d 52c6 b43c
00000280: 531e 1f3d 1f7a d03c be51 f13c 1ed0 af3d
00000290: 8066 2ebd 2598 283d 5ba3 0f3c ad1b b93a
000002a0: e4ce 9d3d 8833 0fbd 5a30 24bc 709c 753d
000002b0: 4e40 1dbb e597 03bd 7465 d03d 2806 ccba
000002c0: 2d64 9f3d 4678 d5bc 2c12 f63b eb0d 68bd
000002d0: 2841 923b 2ce5 86bd 4be9 8abd 860a b23d
000002e0: 6633 8b3d 62fb a2bd 0ed0 84bd d149 023d
000002f0: 3ee7 0c3d 6784 98bd 176a 623d c8bb 85bd
00000300: 5283 dd3c dec3 f53d e10b c1bc 0caa 633c
00000310: 6d82 96bc eaa4 3ebb 1415 0abd dd30 2dbc
00000320: 07d6 72bd 6f4c a03d ff63 e83d 2955 8cbd
00000330: 8898 c4bd 6377 bbbd 81bb 25bc 4322 0d3d
00000340: 058c 663d 30a5 b93a f064 22bd 83d8 4e3d
00000350: a1a8 113e d07f 2bbd a9ab b3bc 0b12 11bc
00000360: ac4c dbbd bb81 953d 2d2b ea3d 6e8b 6dbd
00000370: 6ac5 1dbc b265 963d 1f87 ca3d 2193 2b3e
00000380: 755e 9c3c 470f 863b 3518 493d 77be 42bd
00000390: c5d4 27bd 187a 8c3c 00dc e33c 5fb7 223d
000003a0: 61a2 c1bd f250 b23d e049 68bd c1ad a0bd
000003b0: f1f1 5bbd 1393 043e 1088 843d b7d7 2ebd
000003c0: 749e ee3a dae5 153d 33a3 34bc 3c5c 983d
000003d0: 8b58 a23c b875 d03c e7c2 5dbd a191 9bbc
000003e0: 8f5a 3fbc 2659 e7bd f318 69bd c74c a4bd
000003f0: bac6 9e3c 9d05 2cbd c929 a7bd eac0 1dbd

bias f4 [64]
0.09721698 0.038324993 0.010191343 0.10851845 -0.009015764 0.12676618 0.03802508 -0.06240934
0.0903324 0.028805006 0.018325664 -0.06624592 0.055400908 0.01347911 0.0638144 0.108714804
0.08399668 -0.0009965341 0.09321016 -0.026247112 -0.057115193 0.008151231 -0.0027838503 -0.05389265
-0.006670538 -0.0017211419 0.17086819 0.061771985 0.20624238 -0.054790564 -0.004795043 0.07447424
0.0012575134 -0.046536796 0.04803995 -0.060069703 0.04657111 -0.0135909775 0.14928283 0.04683443
0.041304365 0.012851077 0.027592605 0.1076491 0.063137576 0.03886149 -0.02491055 0.033611853
0.1067229 0.08991572 -0.05236825 0.0032748342 0.07268704 -0.04246759 0.00034586166 0.04419991
0.10016046 0.08152461 0.030127019 0.20941222 -0.081801206 0.013300243 -0.08063525 0.0390769
00000000: b219 c73d abfa 1c3d 97f9 263c ec3e de3d
00000010: dbb6 13bc fece 013e 30c0 1b3d f0a0 7fbd
00000020: 3100 b93d 7af8 eb3c b41f 963c f1ab 87bd
00000030: 10ec 623d 7cd7 5c3c 20b1 823d dea5 de3d
00000040: 7406 ac3d 239e 82ba f8e4 be3d 2f04 d7bc
00000050: 9ff1 69bd be8c 053c 4271 36bb 8abe 5cbd
00000060: 8794 dabb f097 e1ba 12f8 2e3e 9f04 7d3d
00000070: 3431 533e 126c 60bd bc1f 9dbb f385 983d
00000080: 26d3 a43a 5e9d 3ebd 8ac5 443d a60b 76bd
00000090: 59c1 3e3d b1ac 5ebc 99dd 183e 76d5 3f3d
000000a0: c42e 293d 538d 523c e309 e23c 2277 dc3d
000000b0: 464e 813d 3a2d 1f3d 3611 ccbc 95ac 093d
000000c0: 8991 da3d bc25 b83d 1780 56bd 9a9e 563b
000000d0: f1dc 943d 7ff2 2dbd c454 b539 f70a 353d
000000e0: ed20 cd3d 60f6 a63d f0cc f63c 2870 563e
000000f0: 6487 a7bd 43e9 593c 1824 a5bd 190f 203d

weight f4 [1, 64]
-0.48978487 -0.0693184 0.25524592 -0.12022251 0.18065189 -0.33862102 -0.08365751 0.09881751
-0.30713728 1.534634 -0.11839277 0.09791188 0.64805186 -0.124182835 -0.035050023 -0.12860695
0.43983355 0.42135134 -0.60525656 -0.050097167 0.20085698 -0.22519752 0.38140428 0.32228512
0.59644556 -0.599401 -0.501288 -0.34439516 -0.9357359 0.501651 -0.04305236 1.1127217
0.06025023 0.24506898 0.18836096 0.61517614 -0.28681648 -0.04847726 -0.68127173 0.37456128
-0.00050504046 -0.07107678 0.7102717 -0.6039076 -0.052649185 -0.04891455 -0.048633743 -0.039065186
-0.41473582 0.81532216 0.24903668 0.01011414 0.011460731 -0.02797227 0.21934453 0.31438315
-0.25550327 1.3745209 -0.5144955 -0.8143646 0.12733655 -0.31522238 0.09989561 -0.032559317
00000000: 15c5 fabe cef6 8dbd 98af 823e 3837 f6bd
00000010: cffc 383e bc5f adbe a154 abbd d660 ca3d
00000020: 1941 9dbe e36e c43f e977 f2bd 0686 c83d
00000030: bae6 253f 9253 febd 9d90 0fbd 8ab1 03be
00000040: dd31 e13e 5dbb d73e 18f2 1abf b032 4dbd
00000050: 74ad 4d3e 2e9a 66be 6c47 c33e 8e02 a53e
00000060: a8b0 183f 5872 19bf 6954 00bf 9054 b0be
00000070: 638c 6fbf 336c 003f ac57 30bd aa6d 8e3f
00000080: f2c8 763d 5df3 7a3e b2e1 403e 2f7c 1d3f
00000090: 9cd9 92be 1790 46bd d367 2ebf 7fc6 bf3e
000000a0: b164 04ba b490 91bd 5ed4 353f b099 1abf
000000b0: aca6 57bd a05a 48bd 2d34 47bd d102 20bd
000000c0: 4158 d4be f4b8 503f 7903 7f3e c7b5 253c
000000d0: cac5 3b3c 1a26 e5bc da9b 603e d4f6 a03e
000000e0: 53d1 82be 4df0 af3f fab5 03bf 337a 50bf
000000f0: 8364 023e d464 a1be 1296 cc3d eb5c 05bd

weight f4 [64, 96]
-0.019899905 0.0513904 0.11539228 0.07630107 0.089490436 -0.019782476 -0.108552955 0.011923775
-0.038714398 0.16090038 0.09741507 0.22229227 -0.057936855 -0.09880707 0.12827784 0.11239597
0.048801817 0.00621042 0.13608243 -0.051721998 0.11314968 0.18031688 -0.086649895 0.064412996
-0.004473633 -0.06917072 -0.012269024 -0.09352139 -0.10747161 0.07402485 0.071768045 -0.045482524
-0.013158449 0.11479588 0.0788582 0.011373298 -0.0057882736 -0.04494354 -0.07865654 0.013459183
0.081918426 0.07755813 0.047728475 0.0012263444 0.08802342 0.02841304 -0.024227343 0.045759514
-0.12967421 -0.109641016 0.03994116 0.11079563 0.10574435 -0.104007825 0.124484986 -0.022202075
-0.04964893 0.10665089 0.06664212 -0.091458425 -0.0210646 0.07901807 0.05762574 0.015659168
-0.0038374742 -0.07338119 -0.04098039 0.0377723 0.06644225 0.055321988 -0.09052314 -0.0034364532
-0.103363104 -0.124249585 0.021293597 -0.043603398 -0.052321523 -0.094816506 0.113700636 -0.07010774
0.001463759 0.23267403 0.059834626 0.042364888 0.08304357 0.0303608 0.020602493 0.12892157
-0.07848175 -0.0242133 -0.046276856 0.050190225 -0.06743484 0.019626949 0.005623295 -0.18297796
0.12422248 0.06973766 -0.037507243 -0.13470595 -0.12314894 -0.0038519453 -0.013588345 -0.11871471
-0.07084483 0.035043392 0.18479145 -0.09811495 -0.053464282 0.060485903 0.04587858 -0.07678597
-0.08156112 -0.03581389 0.09215406 0.22975501 0.075651094 -0.103719026 0.18105474 0.11231396
-0.006389179 0.18596242 0.0024969217 0.1723962 -0.009084298 -0.09505382 -0.015768168 0.1323441
-0.057240855 -0.20672116 -0.044781104 0.056868237 0.016087025 0.16682951 0.14870395 0.06018463
-0.05848942 -0.021807902 0.13758096 -0.21501629 -0.06315205 -0.00911793 -0.016208483 -0.034541707
-0.089200884 0.10104645 -0.038519893 -0.014317258 -0.072491325 -0.06624844 -0.043576423 0.37715206
0.38216385 0.07438979 -0.06731332 0.018629506 0.03684279 0.2000547 0.1307458 0.0464976
0.0338059 -0.0747038 -0.005525248 0.09958248 -0.11734737 -0.05928528 -0.0061199944 -0.07351173
0.083656654 0.14944951 0.15956695 0.043186996 -0.053831518 -0.11238947 -0.17826414 0.123939134
0.085825734 -0.12808515 0.06406254 -0.009792082 -0.12094968 -0.02989408 -0.0021329245 -0.0655128
0.05199369 0.119867206 -0.14476345 -0.100390576 0.24512781 -0.016080245 -0.19355623 -0.044043865
0.02676224 0.019344077 0.07698458 0.08589049 -0.069016755 -0.07292254 0.031142343 0.039538294
0.03279938 0.0045422288 -0.008949271 0.014152363 0.06338528 -0.060196135 0.12888709 0.035889562
-0.07240615 0.019644579 0.04265253 0.03544641 -0.037773654 -0.0032694046 -0.06456228 0.06398336
-0.008389467 -0.084720224 0.06701974 0.031563085 -0.06595536 0.07186519 0.059699412 -0.06747885
-0.03416658 -0.06503512 -0.030360188 0.039771352 -0.017323619 0.024693916 0.09794984 0.04052857
-0.04371504 0.012472547 0.008491925 -0.056174982 -0.031025248 0.028634902 -0.0681885 0.103222005
-0.10999662 0.04744648 -0.043560464 0.09005547 0.05945249 -0.0978818 0.04370582 -0.06345918
-0.077423126 -0.07411365 -0.02266003 0.050199196 0.01887279 0.08613187 -0.024528058 0.046725858
00000000: 2005 a3bc bd7e 523d ca52 ec3d bc43 9c3d
00000010: c346 b73d dc0e a2bc 0351 debd f05b 433c
00000020: fd92 1ebd 12c3 243e 8d81 c73d 96a0 633e
00000030: 324f 6dbd 5c5b cabd 445b 033e dc2f e63d
00000040: 6ae4 473d c780 cb3b 3159 0b3e 72da 53bd
00000050: 05bb e73d fda4 383e 8075 b1bd f6ea 833d
00000060: 8e97 92bb 61a9 8dbd 0404 49bc 2488 bfbd
00000070: 131a dcbd 579a 973d 20fb 923d e24b 3abd
00000080: 8996 57bc 1a1a eb3d 6880 a13d 1257 3a3c
00000090: 8fab bdbb b816 38bd ae16 a1bd e883 5c3c
000000a0: d9c4 a73d ccd6 9e3d ef7e 433d 4abd a03a
000000b0: 9f45 b43d 77c2 e83c 6c78 c6bc 546e 3b3d
000000c0: 51c9 04be 788b e0bd 5799 233d d2e8 e23d
000000d0: 7e90 d83d 0e02 d5bd fcf1 fe3d 20e1 b5bc
000000e0: ad5c 4bbd c86b da3d aa7b 883d 8e4e bbbd
000000f0: ab8f acbc 3ad4 a13d f808 6c3d a847 803c
00000100: 227e 7bbb e148 96bd 0edb 27bd 21b7 1a3d
00000110: e012 883d 4f99 623d 3264 b9bd 1e36 61bb
00000120: 09b0 d3bd 9176 febd e96f ae3c 7a99 32bd
00000130: 184f 56bd 282f c2bd e1db e83d a694 8fbd
00000140: 9adb bf3a 1a42 6e3e 2715 753d ce86 2d3d
00000150: bf12 aa3d 36b7 f83c 8fc6 a83c 0404 043e
00000160: 0abb a0bd f85a c6bc cd8c 3dbd 4494 4d3d
00000170: 471b 8abd b2c8 a03c 9e43 b83b 935e 3bbe
00000180: 5b68 fe3d 9ed2 8e3d 32a1 19bd 5bf0 09be
00000190: 8335 fcbd eb70 7cbb a6a1 5ebc b320 f3bd
000001a0: 1817 91bd a989 0f3d f839 3d3e 7ef0 c8bd
000001b0: 5dfd 5abd 11c0 773d 2eeb 3b3d f641 9dbd
000001c0: 8409 a7bd 96b1 12bd 45bb bc3d e644 6b3e
000001d0: f6ee 9a3d a46a d4bd 6a66 393e dd04 e63d
000001e0: 515c d1bb ef6c 3e3e 65a3 233b a188 303e
000001f0: 4fd6 14bc 94ab c2bd 3f2c 81bc 3685 073e
00000200: 6375 6abd b6ae 53be 646c 37bd abee 683d
00000210: f0c8 833c 5bd5 2a3e d945 183e 2984 763d
00000220: 9a92 6fbd 7ca6 b2bc 06e2 0c3e 3b2d 5cbe
00000230: dd55 81bd 5f63 15bc a7c7 84bc 9b7b 0dbd
00000240: f4ae b6bd 71f1 ce3d 09c7 1dbd ef92 6abc
00000250: 5576 94bd 43ad 87bd 317d 32bd 131a c13e
00000260: fbaa c33e ad59 983d 91db 89bd e89c 983c
00000270: 77e8 163d 24db 4c3e 3ae2 053e 4474 3e3d
00000280: 0e78 0a3d 4efe 98bd 240d b5bb e6f1 cb3d
00000290: d153 f0bd 1fd5 72bd 3c8a c8bb 518d 96bd
000002a0: 2e54 ab3d 4b09 193e 8565 233e d9e4 303d
000002b0: 707e 5cbd 732c e6bd e08a 36be cdd3 fd3d
000002c0: 67c5 af3d c128 03be 3933 833d f86e 20bc
000002d0: 77b4 f7bd 6ee4 f4bc 89c8 0bbb 932b 86bd
000002e0: 56f7 543d f07c f53d df3c 14be 9399 cdbd
000002f0: c902 7b3e b8ba 83bc 9b33 46be 5767 34bd
00000300: 7c3c db3c 7877 9e3c 17aa 9d3d 5ae7 af3d
00000310: a858 8dbd 6a58 95bd 3a1e ff3c e8f2 213d
00000320: a558 063d fad6 943b f79f 12bc 50df 673c
00000330: 24d0 813d 3990 76bd fafa 033e ef00 133d
00000340: ad49 94bd abed a03c 6bb4 2e3d 4130 113d
00000350: 8cb8 1abd 8243 56bb 3b39 84bd b509 833d
00000360: fa73 09bc cc81 adbd a541 893d 4b48 013d
00000370: 9b13 87bd 0f2e 933d 5f87 743d 5a32 8abd
00000380: 41f2 0bbd 2231 85bd eeb5 f8bc 49e7 223d
00000390: 43ea 8dbc e54a ca3c ed99 c83d 4901 263d
000003a0: 8b0e 33bd a759 4c3c b721 0b3c bd17 66bd
000003b0: a928 febc be93 ea3c 6aa6 8bbd 0f66 d33d
000003c0: e845 e1bd 3d57 423d 756c 32bd 016f b83d
000003d0: 7484 733d 4176 c8bd e004 333d e3f6 81bd
000003e0: 0490 9ebd e6c8 97bd 87a1 b9bc ac9d 4d3d
000003f0: 1c9b 9a3c e865 b03d 11ef c8bc 9d63 3f3d

bias f4 [64]
0.02003256 -0.09182428 0.00832156 -0.0018343234 -0.073202446 -0.08168463 -0.052872088 0.09754616
-0.031537484 -0.09234823 0.02001756 -0.06878727 0.038301457 0.067881115 0.012637168 0.107303895
0.006340351 -0.025964458 0.11639942 0.05805832 -0.09008933 0.06701326 0.07147545 0.041645877
0.008133701 0.017455757 0.03872409 0.16469331 0.06960665 0.055367637 0.057039153 0.041149933
0.099297754 0.08257962 0.061430402 0.09047142 -0.055247772 -0.06781517 -0.09531146 -0.026608102
-0.048643053 0.010930067 0.08134629 -0.09960641 -0.029763956 0.00068272394 0.059556495 -0.013650881
0.11169978 -0.10825813 0.07809915 -0.0072864317 -0.041541327 -0.018241059 0.057784386 0.045983855
0.16908076 -0.062371172 0.08620365 0.000388794 -0.07090932 0.029059473 -0.028793462 -0.07051231
00000000: 531b a43c 5e0e bcbd 2757 083c ae6d f0ba
00000010: 2aeb 95bd 454a a7bd 6790 58bd 48c6 c73d
00000020: 732d 01bd 1221 bdbd defb a33c 57e0 8cbd
00000030: fde1 1c3d 4105 8b3d 200c 4f3c 25c2 db3d
00000040: b8c2 cf3b 6ab3 d4bc d262 ee3d 90ce 6d3d
00000050: c180 b8bd 403e 893d b961 923d de94 2a3d
00000060: 3743 053c 60ff 8e3c 279d 1e3d 5da5 283e
00000070: ee8d 8e3d 2dc9 623d e3a1 693d d58c 283d
00000080: 9f5c cb3d 811f a93d 729e 7b3d 1449 b93d
00000090: 7d4b 62bd aee2 8abd a832 c3bd 3cf9 d9bc
000000a0: f03d 47bd 0614 333c e298 a63d 72fe cbbd
000000b0: 8ad3 f3bc d4f8 323a 83f1 733d f2a7 5fbc
000000c0: dbc2 e43d 70b6 ddbd 72f2 9f3d 05c3 eebb
000000d0: 3d27 2abd 466e 95bc 52af 6c3d 9159 3c3d
000000e0: 8223 2d3e ea78 7fbd 8a8b b03d 0cd7 cb39
000000f0: e838 91bd 220e ee3c 44e0 ebbc c268 90bd

weight f4 [8, 64]
-0.18582934 -0.16922788 -0.023884336 0.04046943 -0.15577686 -0.08041922 0.062346127 0.060805384
-0.23667519 -0.009572116 0.053921286 -0.10108625 -0.04144867 -0.101323076 0.12940824 -0.042822577
-0.035140555 -0.12915125 -0.09764887 -0.12187777 -0.12176364 0.09441533 0.005948065 0.1862164
-0.26319528 -0.06779011 0.09657552 0.09359337 0.14815608 0.24446951 0.03842589 -0.01165156
0.05871359 -0.0014494966 -0.12072408 0.047975972 0.25000674 -0.051047523 0.018756282 -0.01670104
-0.57698363 0.11867884 0.013620813 -0.19138283 -0.06035742 -0.10366346 -0.042331014 -0.04201544
-0.004478553 -0.1938816 0.24590912 -0.12139953 -0.1028046 0.044030268 -0.14839752 -0.20451061
0.0201596 -0.2331909 0.1755108 -0.19020042 -0.021990605 0.062815234 -0.39719045 0.008741182
-0.20911317 0.42917663 -0.10363005 -0.2498686 -0.2542104 -0.03109556 -0.024771888 0.001740678
-0.17612526 0.45579672 0.0032043774 -0.046369646 0.13726643 0.0394819 0.028421823 -0.066595644
0.06103487 0.3505026 -0.17209147 0.0070966478 -0.06370887 -0.17236479 0.048552733 0.17264989
0.43818268 0.12092215 0.30238628 0.055629905 -0.19950739 0.10295683 -0.11865403 0.4848946
-0.172053 0.02358811 0.08790632 -0.021320203 0.10143907 0.6656304 0.039988536 0.21222341
0.49758694 0.06362101 0.039918907 0.1893884 -0.064882055 -0.028313776 0.06692397 -0.2452947
-0.09561 0.67247236 -0.14268634 0.05277652 0.23097692 0.030401157 -0.41491187 0.33269802
-0.28200692 -0.117568515 -0.10608354 -0.12613483 0.032055996 0.21809846 -0.05857089 -0.084912814
0.31269854 -0.35333154 -0.12570412 -0.12616368 -0.05624611 0.068849824 -0.06659868 -0.30450335
0.30193058 -0.1059418 -0.24368726 0.085239805 -0.34463197 -0.014038866 0.47856656 0.3462888
0.1743013 -0.23334512 0.11543243 -0.04430765 -0.15548407 -0.18230289 0.060318492 -0.123579
-0.4110518 -0.1761508 -0.024306992 0.15665954 0.13543698 -0.029747901 -0.1252842 -0.2375742
0.497899 -0.07173565 -0.23630698 0.35008785 0.02863753 -0.56256413 0.029116157 -0.23813964
-0.5811585 -0.1459501 0.06530075 -0.39867833 0.08977237 0.1349908 -0.087828614 0.040690232
-0.0022496928 -0.5932147 0.4815084 -0.025078917 -0.06879766 -0.023485517 0.44433865 -0.46722496
0.22553603 -0.13161018 0.17948726 -0.18039483 0.20797355 -0.12344549 -0.28641504 0.0963701
0.23501082 -0.24841033 -0.026083637 0.12846383 0.20906821 0.000877833 -0.005220654 -0.26624766
1.1339949 -0.114883944 -0.11085731 -0.110342585 -0.5373988 0.04312816 -0.03920942 0.011322754
0.35136324 0.26795855 -0.029616712 0.25120687 0.13779138 -0.35729808 0.035910666 -0.5017349
0.21573359 -1.0233037 -0.57063854 0.10951602 -0.25447983 -0.41739255 -0.10513036 -0.20984775
0.2307226 0.08987915 -0.78666127 -0.002878881 -0.34346622 -0.47767386 0.12674886 -0.47771472
0.80337316 -0.52809656 0.068111315 0.69199413 0.2310677 0.25716 -0.3425175 0.6412717
-0.08519502 0.102217264 0.28491828 -0.11014254 -0.032955483 0.02311208 0.058264345 0.7504366
0.015438385 0.12038974 -0.18593065 0.047579385 0.048574112 0.036956657 0.7064389 0.04092545
00000000: 0c4a 3ebe 134a 2dbe 15a9 c3bc 46c3 253d
00000010: f883 1fbe d5b2 a4bd a75e 7f3d 110f 793d
00000020: fb5a 72be 5dd4 1cbc 91dc 5c3d 4f06 cfbd
00000030: 15c6 29bd 7982 cfbd 9883 043e ba66 2fbd
00000040: 8bef 0fbd 3a40 04be 21fc c7bd 0d9b f9bd
00000050: 375f f9bd d35c c13d fce7 c23b 83af 3e3e
00000060: 88c1 86be 8bd5 8abd 63c9 c53d e1ad bf3d
00000070: 3ab6 173e 3756 7a3e 7764 1d3d 2fe6 3ebc
00000080: a97d 703d 09fd bdba 303e f7bd 7482 443d
00000090: e200 803e 3517 51bd c6a6 993c 9fd0 88bc
000000a0: 33b5 13bf e40d f33d d529 5f3c dcf9 43be
000000b0: 5839 77bd 824d d4bd 4963 2dbd 6218 2cbd
000000c0: d3c0 92bb e688 46be 9acf 7b3e 51a0 f8bd
000000d0: 388b d2bd 1559 343d 85f5 17be 3b6b 51be
000000e0: bf25 a53c 98c9 6ebe 1ab9 333e e6c3 42be
000000f0: a425 b4bc 46a5 803d 8c5c cbbe 2d37 0f3c
00000100: c321 56be 0abd db3e fe3b d4bd 8edd 7fbe
00000110: de27 82be 1ebc febc 6aee cabc 7627 e43a
00000120: 2e5a 34be 305e e93e 8800 523b 19ee 3dbd
00000130: 928f 0c3e c6b7 213d e2d4 e83c 4c63 88bd
00000140: b3ff 793d 1475 b33e bf38 30be ff8a e83b
00000150: cc79 82bd 6580 30be 3bdf 463d 22cb 303e
00000160: 7b59 e03e 08a6 f73d 60d2 9a3e 2fdc 633d
00000170: aa4b 4cbe 08db d23d e200 f3bd 1b44 f83e
00000180: a92e 30be da3b c13c 3b08 b43d b5a7 aebc
00000190: 4abf cf3d c166 2a3f 05cb 233d 1851 593e
000001a0: b7c3 fe3e bb4b 823d 0282 233d 08ef 413e
000001b0: e2e0 84bd 4bf2 e7bc 6f0f 893d 892e 7bbe
000001c0: 2dcf c3bd 2627 2c3f 5e1c 12be 312c 583d
000001d0: 3785 6c3e d90b f93c 546f d4be 6557 aa3e
000001e0: 3663 90be c3c7 f0bd 5442 d9bd 7d29 01be
000001f0: 264d 033d 3455 5f3e 08e8 6fbd c5e6 adbd
00000200: 061a a03e dfe7 b4be 95b8 00be 0d31 01be
00000210: 5262 66bd 2301 8d3d e464 88bd dde7 9bbe
00000220: a596 9a3e 04f8 d8bd 2789 79be 3592 ae3d
00000230: 9a73 b0be 4603 66bc ad06 f53e c44c b13e
00000240: 0a7c 323e 06f2 6ebe d667 ec3d f07b 35bd
00000250: 3737 1fbe 9cad 3abe 8610 773d fd16 fdbd
00000260: 6275 d2be e060 34be 751f c7bc 5c6b 203e
00000270: feaf 0a3e dfb1 f3bc 804a 00be a746 73be
00000280: 9eec fe3e 24ea 92bd 75fa 71be b73e b33e
00000290: 4199 ea3c 3404 10bf 0285 ee3c e1da 73be
000002a0: cec6 14bf f173 15be 66bc 853d 911f ccbe
000002b0: 94da b73d 073b 0a3e 7ddf b3bd cdaa 263d
000002c0: 956f 13bb ebdc 17bf 4588 f63e 4d72 cdbc
000002d0: cae5 8cbd b364 c0bc 5b80 e33e 1c38 efbe
000002e0: ebf2 663e d2c4 06be 82cb 373e 6cb9 38be
000002f0: 05f7 543e fdd0 fcbd fea4 92be b05d c53d
00000300: ada6 703e 475f 7ebe 5aad d5bc 068c 033e
00000310: fa15 563e 601e 663a 0512 abbb 9d51 88be
00000320: bf26 913f 4648 ebbd 2809 e3bd 4bfb e1bd
00000330: f892 09bf 27a7 303d 0f9a 20bd 1383 393c
00000340: e2e5 b33e dd31 893e bf9e f2bc 309e 803e
00000350: 2f19 0d3e c6ef b6be 1017 133d b371 00bf
00000360: 44e9 5c3e 9efb 82bf 5e15 12bf ef49 e03d
00000370: 2e4b 82be 7ab4 d5be 964e d7bd 54e2 56be
00000380: 8c42 6c3e 8f12 b83d a262 49bf 9cab 3cbb
00000390: ceda afbe ab91 f4be 74ca 013e 0697 f4be
000003a0: dda9 4d3f 5631 07bf f27d 8b3d 8726 313f
000003b0: 039d 6c3e 7aaa 833e 745e afbe 622a 243f
000003c0: ba7a aebd 4957 d13d cfe0 913e 6992 e1bd
000003d0: 54fc 06bd 8b55 bd3c 98a6 6e3d 9d1c 403f
000003e0: 48f1 7c3c e58e f63d 9b64 3ebe 9ae2 423d
000003f0: a6f5 463d dd5f 173d 2ed9 343f 72a1 273d

bias f4 [8]
-0.003553533 -0.06972503 0.020974487 -0.04500354 0.10027679 0.0066150445 0.0772619 0.10586901
00000000: 64e2 68bb ffcb 8ebd b0d2 ab3c a255 38bd
00000010: eb5d cd3d 04c3 d83b 7d3b 9e3d dad1 d83d
