trained_models/10/doom-model.pth (torch, 106629 bytes, 27 tensors)

weight f4 [8, 1, 3, 3]
0	0x3d58d5b0	0.052938163
1	0x3e738bd6	0.23783812
2	0xc054e1a4	-3.326272
3	0x3fbd50ea	1.4790318
4	0x4089393d	4.288237
5	0x3eacc936	0.33747262
6	0x3fbc4c05	1.4710699
7	0x40703b92	3.753636
8	0x40001136	2.0010505
9	0x3f495f52	0.7866107
10	0x40d30096	6.5938215
11	0xc08cdeb7	-4.402187
12	0xc0b61613	-5.6901946
13	0x40c00e56	6.00175
14	0xc129ea97	-10.619773
15	0xc0f5f450	-7.6860733
16	0x40e35841	7.104523
17	0xbe884420	-0.26614475
18	0xc033ceef	-2.8095052
19	0x4060cccd	3.5125
20	0x40461e1e	3.0955882
21	0x3f902485	1.1261145
22	0x408cf808	4.4052773
23	0x4000a0c8	2.0098133
24	0x40cc6634	6.387476
25	0xc0f7b29f	-7.7405543
26	0xc08ae480	-4.340393
27	0x40394b14	2.8952074
28	0x40b16d0d	5.544562
29	0xbea8b303	-0.32949075
30	0xc005f3b2	-2.092999
31	0xbfd092de	-1.629482
32	0xc10f82cb	-8.969432
33	0x3e86a7df	0.2629995
34	0x3e16b6b7	0.14718138
35	0xc0562296	-3.345861
36	0xc094fb3c	-4.6556683
37	0x3d58d3b1	0.05293626
38	0xbe4cfb2f	-0.20017694
39	0xc0f9ec9c	-7.810133
40	0xc1028e26	-8.159704
41	0xc09396dc	-4.6121655
42	0x410d26a5	8.821935
43	0x3f84c6a5	1.0373122
44	0x40922135	4.5665536
45	0x404700bf	3.1094205
46	0xc104951b	-8.286403
47	0xc047c546	-3.1214156
48	0x41238a8a	10.221323
49	0xc043c9ba	-3.0591874
50	0xc0acb066	-5.396533
51	0x3f3e822e	0.7441739
52	0xc07d1fe0	-3.9550705
53	0xbdbfe3ed	-0.09369645
54	0xbf4ff0ce	-0.81226814
55	0xc0d86448	-6.7622414
56	0xbf999007	-1.1997079
57	0x3ff5742b	1.9176077
58	0xc0d5772c	-6.6707973
59	0x405df8e0	3.4683151
60	0x4021a059	2.5254118
61	0xbfa4b2a0	-1.2867012
62	0x3f277f64	0.6542876
63	0x40fcce33	7.900171
64	0xc084d398	-4.1508293
65	0xc0294069	-2.6445563
66	0xc0d34cd3	-6.603128
67	0x4021c3e7	2.527582
68	0x40a407f4	5.125971
69	0xc1046ede	-8.277067
70	0xc10e8e88	-8.909798
71	0x409258d3	4.573343

weight f4 [8]
0	0x40cfcbe5	6.4936395
1	0x410af1c8	8.684029
2	0x40e354ec	7.1041164
3	0x40fe605c	7.9492626
4	0x412fd725	10.9900255
5	0x40fce434	7.902857
6	0x40c68e1e	6.2048483
7	0x4131cf45	11.113103

bias f4 [8]
0	0xbe250114	-0.16113693
1	0x40198dc4	2.3992777
2	0xbe8876d0	-0.26653147
3	0x3ea010ea	0.31262904
4	0xc0667e1e	-3.6014476
5	0x40343546	2.8157516
6	0xbdd29824	-0.10282925
7	0x4030932a	2.7589822

running_mean f4 [8]
0	0x3fc20261	1.5156976
1	0xbfa00ced	-1.2503945
2	0x3f48c12b	0.7841975
3	0xbf8db68f	-1.1071337
4	0xbfc2063f	-1.5158156
5	0xbfae73e7	-1.362912
6	0xbf919b5b	-1.1375536
7	0xbfc16ec8	-1.5111933

running_var f4 [8]
0	0x3f18817c	0.5957258
1	0x3efbedd0	0.49204874
2	0x3e8cd1fe	0.2750396
3	0x3f020c96	0.50800455
4	0x3f496d6e	0.786826
5	0x3f2ea641	0.68222433
6	0x3ebf0a4b	0.3731254
7	0x3f6b9020	0.9201679

weight f4 [8, 8, 3, 3]
0	0xbef8258c	-0.48466146
1	0xbff3c543	-1.9044574
2	0xbfb70929	-1.429967
3	0xbea0b6f7	-0.3138959
4	0x3f150fe3	0.58227366
5	0xbfb83bb5	-1.4393221
6	0xbf6c43ce	-0.9229096
7	0x3e79e50f	0.24403785
8	0xc04d4ca5	-3.207803
9	0x3f4cef32	0.80052483
10	0x3f795a4e	0.9740342
11	0x3fbb6959	1.4641525
12	0x3eea6323	0.4577876
13	0x40becdab	5.962606
14	0x3f07c7ee	0.53039443
15	0xbef03534	-0.4691559
16	0xc0319963	-2.774987
17	0x3ff15f33	1.8857177
18	0xbffd5441	-1.9791337
19	0xbf21c088	-0.63184404
20	0x40760895	3.8442738
21	0xbfaa542d	-1.3306938
22	0xc073149b	-3.7981327
23	0xbfefa361	-1.8721734
24	0xbfc7bc62	-1.5604365
25	0x3f65ad4d	0.8971756
26	0x3f6be335	0.92143565
27	0xbf7b7231	-0.9822112
28	0x40243b6c	2.5661268
29	0x3f0f5a72	0.55997384
30	0x3fdad437	1.7096013
31	0x3fc03640	1.5016556
32	0xbf4ee459	-0.8081718
33	0x405a6f94	3.4130602
34	0xc01de1a7	-2.4668977
35	0x3f1cb0e2	0.612074
36	0xbfd91695	-1.6960016
37	0xc07b472a	-3.9262185
38	0x3f11bff2	0.5693351
39	0x40362fd6	2.8466697
40	0x400d4934	2.207593
41	0x40a15b3c	5.042387
42	0xbf8718c3	-1.0554432
43	0x3da84560	0.08216357
44	0xc0570480	-3.3596497
45	0xc0985e87	-4.761539
46	0xbe9bfe35	-0.30467382
47	0x3f731499	0.94953305
48	0xbf2241da	-0.6338173
49	0xbfadaa4e	-1.3567598
50	0xbfdd8876	-1.730727
51	0xbe418e97	-0.1890205
52	0xc0b3b32f	-5.615623
53	0xbef5881f	-0.47955415
54	0x3db533c4	0.08847764
55	0xbf4fb122	-0.8112966
56	0xbf8ceb9a	-1.10094
57	0x3da5a6ef	0.08088481
58	0xbfa5ab56	-1.2942913
59	0x3ff43c3b	1.9080881
60	0xbf6417d8	-0.8909888
61	0xc0327477	-2.7883584
62	0xbf6376f4	-0.88853383
63	0x404833ac	3.1281538
64	0xc0acba15	-5.397715
65	0x3ed54d7f	0.41660687
66	0x403c9ac3	2.946946
67	0xc0a135ae	-5.0378027
68	0x3ff8e7f4	1.9445786
69	0xbff30c1c	-1.898807
70	0x4066ca1d	3.606086
71	0xc0ad57aa	-5.416951
72	0xbe5d5eef	-0.21618246
73	0xbfd28b99	-1.6448852
74	0xbfbee475	-1.491347
75	0x3f49bb87	0.7880177
76	0x3ed854b7	0.42252132
77	0x3eb5f887	0.35541174
78	0xc0918cfa	-4.548459
79	0xc0ab510f	-5.353645
80	0xc008b887	-2.1362627
81	0xc01cd723	-2.450631
82	0xc0b5588b	-5.6670585
83	0xbc86c6f8	-0.016452298
84	0xbcabcd3b	-0.020971885
85	0xc0933ea1	-4.601395
86	0x3f1f9a58	0.62344885
87	0x3fb61cda	1.4227555
88	0xc0d10780	-6.5321655
89	0xbe9d28d4	-0.30695212
90	0xc02ab407	-2.667238
91	0xbf722228	-0.9458337
92	0xbef3fbcf	-0.47653052
93	0x3f33df07	0.7026219
94	0xbdf9cbbd	-0.12197063
95	0xc08d8a98	-4.423168
96	0x3ec7fc4f	0.39059684
97	0xbe9e164e	-0.30876392
98	0xbeab1dcd	-0.33421174
99	0xbd061d65	-0.032742877
100	0xbff7306f	-1.9311656
101	0x407b37a1	3.9252703
102	0x3eadefee	0.33972114
103	0xc0101318	-2.2511654
104	0xc02475c9	-2.569689
105	0xbfce7dec	-1.6132178
106	0x3ef40522	0.47660166
107	0xbf180ed5	-0.5939763
108	0xc09b9576	-4.8619947
109	0xbf06684a	-0.5250288
110	0xbf87b8f8	-1.0603323
111	0xc014f3b7	-2.3273752
112	0x3fee995a	1.8640549
113	0x4001bbaa	2.027079
114	0x3e6dc5fb	0.23220055
115	0xbff118b0	-1.8835659
116	0xc0401c19	-3.001715
117	0x405cc60b	3.4495876
118	0x3fd80994	1.6877923
119	0x3f84aa0e	1.0364397
120	0xbf799888	-0.9749837
121	0x404a9999	3.1656249
122	0x3eadde54	0.33958685
123	0xc007a399	-2.1193602
124	0x4053edc1	3.3113863
125	0xc0426af2	-3.0377774
126	0xbfa5c772	-1.2951491
127	0x400e5b26	2.2243133
128	0xbf57ae4a	-0.8425032
129	0xbf42a226	-0.7602867
130	0x4031d2cb	2.7784908
131	0x3fee2c5e	1.860729
132	0x3f2d02cd	0.675824
133	0x3f1d4938	0.6143985
134	0xc0072d6d	-2.1121476
135	0xc0906376	-4.512141
136	0x3f936f9a	1.1518433
137	0x3fdb933e	1.715431
138	0x3f97406c	1.1816535
139	0xbf5fe24d	-0.8745468
140	0xbdb6c5e4	-0.089244634
141	0x3fe438ef	1.7829875
142	0xbf988397	-1.1915158
143	0xc0804a77	-4.00909
144	0xbe7df736	-0.24801335
145	0xbdfabcff	-0.122430794
146	0xbeab2ce7	-0.33432695
147	0xbf6a75d1	-0.91586024
148	0x3efc3eb5	0.49266592
149	0xbfffa8b8	-1.9973364
150	0xc01ac802	-2.4184575
151	0x3fa399ac	1.2781272
152	0xbff8cd37	-1.9437627
153	0xc0182c37	-2.3776987
154	0xbfdb3238	-1.71247
155	0x4036b06a	2.8545175
156	0x3f985a37	1.1902531
157	0xbfc30ee0	-1.5238914
158	0x4015262c	2.3304548
159	0xc0069f1f	-2.103462
160	0x406c3edc	3.6913366
161	0xbf810511	-1.0079671
162	0x4016db91	2.3571513
163	0x3e4a01b8	0.19727218
164	0x3e4e8480	0.20167732
165	0xc05436d0	-3.3158455
166	0xbf843781	-1.0329438
167	0xbf7ed175	-0.99538356
168	0x3ff2c110	1.8965168
169	0xbff4cd40	-1.9125137
170	0x3f5c6bbd	0.86101896
171	0x404245c3	3.035508
172	0xbf556764	-0.83360887
173	0x3f4b1d16	0.79341257
174	0xbf58acf4	-0.84638906
175	0xbeb7b28e	-0.35878414
176	0x40620705	3.5316784
177	0x3f2ec329	0.6826654
178	0x3de56e30	0.11202657
179	0x400f25b9	2.2366774
180	0xc0259b62	-2.5876088
181	0xc03a4e51	-2.91103
182	0xbfff89e0	-1.9963951
183	0xc01020ec	-2.2520094
184	0xbe433136	-0.19061741
185	0xbf84d743	-1.0378193
186	0x3fccdf7b	1.6005701
187	0xbe6fec0c	-0.23429888
188	0x409b70e2	4.8575296
189	0xc006c6f9	-2.1058943
190	0xc0299895	-2.6499379
191	0x40310e58	2.7665005
192	0x3f33521d	0.7004717
193	0x3f098a73	0.5372688
194	0x3fa8800b	1.3164076
195	0x3fc77995	1.5583979
196	0x3c925682	0.017863516
197	0x3e8e4aa6	0.27791327
198	0xc00ea3bd	-2.2287438
199	0xc017cad8	-2.3717556
200	0x3f509cf1	0.81489474
201	0xbfc69fd9	-1.5517532
202	0xbe707081	-0.23480417
203	0xbf956fd5	-1.1674753
204	0xbf067814	-0.52526975
205	0x40140b6b	2.313197
206	0x3f650c9e	0.8947238
207	0xc05ff3a4	-3.4992456
208	0x407951e1	3.8956225
209	0xbee32a1e	-0.4436807
210	0x3e619dca	0.22032848
211	0x3f3fff8c	0.7499931
212	0x4048169a	3.1263795
213	0xc094fc40	-4.655792
214	0xc015411e	-2.3320994
215	0xc03d984a	-2.96242
216	0xbeff239a	-0.4983185
217	0xbf707a64	-0.93936753
218	0xc036e186	-2.8575149
219	0xc03e798e	-2.976169
220	0xbf461a03	-0.7738344
221	0xc07f096f	-3.9849508
222	0xbecdab93	-0.40169963
223	0xbf1560e0	-0.58350945
224	0x3f6b4e81	0.9191666
225	0xc028f854	-2.6401567
226	0xbf99790d	-1.1990067
227	0xbf7ccbb6	-0.9874834
228	0x405756bd	3.364669
229	0xbf98821c	-1.1914706
230	0xc0714a64	-3.7701654
231	0x40111b90	2.2673073
232	0xbe092303	-0.13392262
233	0xbfe2fa1d	-1.7732579
234	0xbf5a44f6	-0.85261476
235	0xc066af9d	-3.6044686
236	0xbf57a4db	-0.84235924
237	0xbfccfd0a	-1.6014721
238	0xbee07631	-0.43840173
239	0xbf771ef7	-0.96531624
240	0xbdd65a12	-0.10466398
241	0xc00a9f71	-2.1659815
242	0xc0864566	-4.1959715
243	0xbea268e5	-0.31720653
244	0xc042fa3b	-3.0465229
245	0xbf3c72ef	-0.73612875
246	0x3fc56d02	1.5423892
247	0xbf9c0844	-1.2190022
248	0xbfb7f0f1	-1.4370404
249	0x3e55aa59	0.20865764
250	0xbd4f45c2	-0.050603636
251	0xbfdac5dd	-1.7091633
252	0x407a9051	3.9150584
253	0xbfab10d5	-1.3364512
254	0xc01c91cf	-2.4463995
255	0xbf74a210	-0.9555979

weight f4 [8]
0	0x40ff911d	7.986464
1	0x41045626	8.271032
2	0x40e6dac0	7.214203
3	0x4109820d	8.594251
4	0x410a4cdc	8.6437645
5	0x40fb1948	7.846836
6	0x40fc76db	7.8895087
7	0x411008f4	9.002186

bias f4 [8]
0	0xbe8fa118	-0.28052592
1	0xbd552f96	-0.052047335
2	0xbf7d1815	-0.9886487
3	0x3f883025	1.0639693
4	0xbc2018d4	-0.0097715445
5	0x3fc7ec3b	1.5618967
6	0xc01eb661	-2.4798815
7	0x3daae9da	0.08345385

running_mean f4 [8]
0	0xc286dfca	-67.43709
1	0xc30d6705	-141.40242
2	0xc1c2cb22	-24.349186
3	0x41995fa6	19.171703
4	0xc30736b3	-135.21367
5	0xc2c26368	-97.19415
6	0x4009137f	2.141815
7	0xc32d1377	-173.07603

running_var f4 [8]
0	0x45d31005	6754.0024
1	0x461084e2	9249.221
2	0x459eaa28	5077.2695
3	0x4630ca9f	11314.655
4	0x464900d0	12864.203
5	0x4601b3cc	8300.949
6	0x459bc4aa	4984.583
7	0x464ed3f4	13236.988

weight f4 [8, 8, 3, 3]
0	0xc05ab2d4	-3.4171648
1	0x3f862887	1.0481118
2	0xbf2966e2	-0.6617261
3	0xc055eccb	-3.3425777
4	0x3f921d01	1.1415101
5	0x3f8a4b85	1.0804297
6	0xbf5401ca	-0.8281523
7	0xc00d0dda	-2.2039704
8	0x3ff2b825	1.8962446
9	0xc05b6c9c	-3.428504
10	0x40ab84d0	5.3599625
11	0xc07bfe16	-3.9373832
12	0x3fd7add7	1.6849927
13	0x3fff4dfb	1.9945673
14	0x400dc6f9	2.2152693
15	0xc0a1591b	-5.042127
16	0xbf3f333e	-0.74687564
17	0x3fca35ef	1.5797709
18	0x3efcb7d4	0.49359
19	0xbff613f0	-1.9224834
20	0xbdbb2d8a	-0.09139545
21	0x404bbf89	3.1835654
22	0xc0051d61	-2.0799181
23	0x3f38d989	0.7220693
24	0x3f05acb0	0.52216625
25	0x3ff20354	1.8907266
26	0xbfa600cf	-1.2968997
27	0xbddced5a	-0.10787459
28	0x40555f92	3.3339581
29	0x40ae4446	5.445834
30	0xbfb9fc60	-1.4530144
31	0xc02a8c66	-2.6648192
32	0x3fa8beb2	1.3183196
33	0x40980969	4.7511487
34	0xbe9e73b3	-0.30947646
35	0xbfb1a664	-1.3878903
36	0x40517025	3.2724698
37	0x40130750	2.2973213
38	0x3ecb1471	0.39664033
39	0x3e5846c9	0.21120752
40	0xbfb68033	-1.4257873
41	0xbff6ae96	-1.9272029
42	0x3fa9138b	1.3209089
43	0x3ffb6935	1.9641482
44	0xbf4ffc99	-0.8124481
45	0x41011129	8.0666895
46	0xc0a1ef1b	-5.0604377
47	0xc08189cc	-4.048071
48	0xc09824a8	-4.7544746
49	0x4013f15e	2.311607
50	0x3f1c4183	0.6103746
51	0xbf245588	-0.6419301
52	0x3f659c57	0.8969168
53	0xbfc7ac04	-1.559937
54	0xc0191810	-2.3920937
55	0x40869c0e	4.2065496
56	0x407332cd	3.7999756
57	0x3f3b8b6f	0.73259634
58	0xc0068e56	-2.1024375
59	0xc087b61d	-4.2409806
60	0x3fa14d08	1.2601633
61	0x3e8fbc58	0.28073382
62	0xc0684b17	-3.6295831
63	0x3f55e129	0.8354669
64	0x3fc6cb8f	1.5530871
65	0x3ddf56da	0.109052375
66	0xbee9dffd	-0.45678702
67	0xbf515b42	-0.81779873
68	0xbf8fe63c	-1.1242137
69	0x3fc0af6d	1.5053536
70	0xc0095e0f	-2.146366
71	0x3fa7a780	1.3097992
72	0x3edd8805	0.43267837
73	0xc0350e0e	-2.8289828
74	0xbeaec38f	-0.34133574
75	0x3ff934cf	1.9469241
76	0xbdbb3128	-0.09140235
77	0x400be05a	2.1855683
78	0x403ad77a	2.9194016
79	0x3f7c8f18	0.98655844
80	0xc05308c9	-3.2974112
81	0x3fe7b73d	1.8102795
82	0xc03df1ae	-2.967876
83	0xbfe0dd76	-1.7567585
84	0x40a5426e	5.164359
85	0xbfd576ea	-1.6676915
86	0xc03753e5	-2.8644955
87	0xbf692f9f	-0.9108829
88	0x3f37f828	0.7186303
89	0x3eecdc72	0.46261936
90	0xc08eb1af	-4.45919
91	0xbf6f25e5	-0.934172
92	0xbfc1bfd7	-1.513667
93	0x3e9ffdb0	0.31248236
94	0xbfad5a2f	-1.3543147
95	0x3f983e3d	1.1893994
96	0x3fb78c08	1.4339609
97	0xbe712d9f	-0.2355256
98	0x401a3eec	2.4100904
99	0xbe3b47a0	-0.18289042
100	0xc00d1e5b	-2.2049778
101	0xc0394abe	-2.895187
102	0xbee254c5	-0.442053
103	0x3e0b5e0c	0.13610095
104	0x3fe30fb0	1.7739162
105	0xbf1f9c95	-0.623483
106	0xc03f2d69	-2.9871466
107	0x40133648	2.300188
108	0xbeb2876b	-0.3486894
109	0xc03e64d2	-2.9749036
110	0x3ffe5384	1.9869237
111	0x407405b4	3.812848
112	0xbf89d909	-1.0769359
113	0xc01ec229	-2.4806006
114	0xc0585667	-3.3802736
115	0x406c55b9	3.692732
116	0x3f676fed	0.9040516
117	0x40480248	3.1251392
118	0x409a494a	4.8214464
119	0xbfbb6d54	-1.4642739
120	0xc015c3e1	-2.3400805
121	0xbff297c8	-1.895257
122	0x3fe1fd79	1.7655479
123	0xbf9b20c8	-1.2119379
124	0xc00654f1	-2.0989344
125	0xbefd6bb4	-0.49496233
126	0x3f975d97	1.1825436
127	0xc02e0c52	-2.719502
128	0x3fd30e2f	1.6488703
129	0x4029681d	2.6469796
130	0xbf661ac1	-0.89884573
131	0xc00ec4ed	-2.2307694
132	0xbf0254f3	-0.5091087
133	0xc021f849	-2.5307791
134	0xc09657a4	-4.6981983
135	0xbd252a5b	-0.040323596
136	0x3f94ae9f	1.161579
137	0x408aade5	4.3337274
138	0xbf343df3	-0.70407027
139	0xc08a3ef0	-4.320183
140	0x4051119b	3.2666996
141	0xc08080fc	-4.015745
142	0xbf93733c	-1.1519542
143	0x408438d8	4.131939
144	0xbe8fab75	-0.280605
145	0x3cbdeda8	0.023184612
146	0x409e265a	4.9421816
147	0x3eab2341	0.33425334
148	0x406cb81d	3.6987374
149	0xbf53e45a	-0.8277031
150	0xc0680d89	-3.6258261
151	0xbe7598e9	-0.23984112
152	0xc084c177	-4.1486163
153	0x3efebba2	0.49752527
154	0xbfc8cf52	-1.5688269
155	0x3f1e5547	0.6184887
156	0x3fd1fe3d	1.6405712
157	0x40057bca	2.0856805
158	0x3f0114a2	0.5042211
159	0x401464d8	2.318655
160	0xc04dee89	-3.217684
161	0x3f72e472	0.9487983
162	0xc04a11fb	-3.1573474
163	0xc034898c	-2.8208952
164	0xc08d6ab8	-4.419277
165	0x3f6cde85	0.9252704
166	0xbfb7ad68	-1.4349794
167	0xbf8ab2ee	-1.0835855
168	0x3ebe4447	0.37161466
169	0x3ff4ced1	1.9125615
170	0xc007b0a0	-2.1201553
171	0xc094c401	-4.6489263
172	0x3f0426f5	0.51621944
173	0xbf166ccf	-0.5875978
174	0x405e045c	3.469016
175	0xbf2080c8	-0.62696505
176	0x3ec3fe03	0.38279733
177	0x409995a8	4.7995186
178	0xbf3bf326	-0.7341789
179	0xbfc63fb8	-1.5488195
180	0x3edca562	0.43094927
181	0x3f921c3a	1.1414864
182	0xc0a30e84	-5.095522
183	0xbf288f54	-0.658437
184	0xbf599134	-0.8498719
185	0x40863580	4.194031
186	0xbf2ab4d7	-0.6668219
187	0x4004674b	2.0688045
188	0xbde8489c	-0.11341974
189	0x3fbb870b	1.4650587
190	0x4048b90c	3.1362944
191	0x3ed1f711	0.4100881
192	0x3e7e235c	0.24818176
193	0xbf8d2cd5	-1.1029307
194	0x3e2a477c	0.16628832
195	0xbf4095f6	-0.7522882
196	0xbf67244d	-0.90289766
197	0xbe07f1cb	-0.1327583
198	0x40bfb147	5.9903903
199	0xc078effe	-3.889648
200	0xc02ca27b	-2.697417
201	0xbfd32a27	-1.6497239
202	0xbfb784cb	-1.43374
203	0x3fd36fdc	1.6518512
204	0xc0142be0	-2.315178
205	0x3fabdbca	1.3426449
206	0xbf4f3a35	-0.8094819
207	0x3fd69665	1.6764647
208	0x40315922	2.7710652
209	0xc0fbc498	-7.8677483
210	0x3fb0b396	1.3804805
211	0x3f6f0837	0.9337191
212	0x3f8d05d5	1.1017405
213	0xbf991e5d	-1.1962391
214	0x3f16eb0d	0.5895241
215	0x404166eb	3.0219066
216	0xbfdc6a04	-1.7219853
217	0x3ef8e7f8	0.48614478
218	0xc01ec269	-2.4806159
219	0x40223928	2.5347385
220	0xc047a4cb	-3.1194332
221	0xbec55a12	-0.3854528
222	0x3fad40f1	1.3535444
223	0xbf1cc5be	-0.6123923
224	0x4052cbeb	3.2936962
225	0xbfdb0b7a	-1.7112877
226	0x401c1707	2.4389055
227	0xc04a16a6	-3.1576324
228	0x3f966435	1.1749331
229	0x3f0af74a	0.54283583
230	0x3fb39342	1.4029315
231	0xc016f8c5	-2.3589337
232	0xbf7acbe6	-0.97967374
233	0xbfd6493c	-1.6741099
234	0xbe5ca97f	-0.21549033
235	0xc08370db	-4.1075263
236	0x3ee56dad	0.44810238
237	0x40633b74	3.5505037
238	0xbf56435d	-0.8369654
239	0xbe4a01e4	-0.19727284
240	0x3f7d0ebd	0.98850614
241	0x3fb656fe	1.4245298
242	0xc06a8385	-3.6642773
243	0xbf38aa82	-0.72135174
244	0x3fd93b94	1.6971307
245	0xbf8d007e	-1.1015775
246	0x3e3a956a	0.1822106
247	0x3f883ce0	1.0643578
248	0x4061b78f	3.5268285
249	0xbf8943a0	-1.0723763
250	0x3fea941d	1.832645
251	0x3f285a6b	0.65762967
252	0x3f8270cc	1.0190673
253	0xc0352b80	-2.83078
254	0x4071baeb	3.7770336
255	0x3f49304e	0.7858933

weight f4 [8]
0	0x40f23cef	7.569938
1	0x40cd0b05	6.407595
2	0x41011d67	8.069678
3	0x4102dc77	8.178824
4	0x40f1ca44	7.5559406
5	0x40c6a243	6.2073073
6	0x40c497c5	6.1435266
7	0x410531df	8.324676

bias f4 [8]
0	0xbf6af64e	-0.9178208
1	0x3f79b038	0.97534513
2	0xc0126f3f	-2.28804
3	0xc02e119d	-2.719825
4	0xbfe4fb53	-1.7889198
5	0x3fc5cd94	1.5453362
6	0xbf1a1b3d	-0.6019781
7	0xc01c9e1e	-2.4471507

running_mean f4 [8]
0	0x41b1067e	22.12817
1	0xc203060b	-32.7559
2	0xc1097fec	-8.593731
3	0xbfab3946	-1.3376853
4	0xc299af89	-76.84284
5	0xc1850865	-16.629099
6	0xbf61ee57	-0.882543
7	0xc2bd72f4	-94.72452

running_var f4 [8]
0	0x45c685dd	6352.733
1	0x45b9e668	5948.801
2	0x45c57f4d	6319.9126
3	0x45da9085	6994.065
4	0x45ccba51	6551.2896
5	0x45b16310	5676.383
6	0x45972480	4836.5625
7	0x45c44e0e	6281.757

weight f4 [16, 8, 3, 3]
0	0x3f66505a	0.89966357
1	0x3fb56240	1.4170609
2	0xbf0208b4	-0.5079453
3	0x40b000cc	5.5000973
4	0xbdcf147b	-0.10111328
5	0xbeb37741	-0.3505192
6	0xc0423c80	-3.0349426
7	0xc0196bcf	-2.397205
8	0xbf206e44	-0.6266825
9	0x3f9efb88	1.2420511
10	0xc009daa4	-2.1539698
11	0xbf984d80	-1.1898651
12	0x3eac77cb	0.33685145
13	0x3f5e53cf	0.8684663
14	0x403c46ff	2.9418333
15	0xbfe243d4	-1.767695
16	0x3f4f9be7	0.81097263
17	0x3ef618a7	0.48065683
18	0xc02cc94f	-2.699787
19	0x40331ae7	2.798517
20	0xc0730100	-3.796936
21	0xc0403cfc	-3.0037222
22	0x4072d65c	3.7943335
23	0x40227687	2.5384843
24	0x3ddfc211	0.10925687
25	0x3f3cd714	0.73765683
26	0xbf67ce63	-0.90549296
27	0xbf7e3ba2	-0.9930974
28	0xbffdc19a	-1.9824708
29	0xbfc7331e	-1.5562475
30	0x3fc07d3b	1.5038217
31	0xbe895d9c	-0.2682923
32	0x3da91c63	0.082573675
33	0xbfb36bbe	-1.4017255
34	0x3f4d2ecc	0.8014953
35	0xbf2f2502	-0.68415844
36	0x3e05747e	0.1303272
37	0x3f9c361e	1.2204015
38	0xbe532266	-0.2061859
39	0x3f5637fb	0.8367917
40	0xbfaa72f1	-1.3316327
41	0xbf5eb027	-0.8698754
42	0xc00721fb	-2.111449
43	0x3e26ec28	0.16301024
44	0xbe19fc71	-0.15037705
45	0xc07d41da	-3.9571443
46	0xbf6e1024	-0.9299338
47	0x3e92b1ab	0.28651175
48	0x3f9265eb	1.1437353
49	0xbddf86b0	-0.109143615
50	0x3f84998e	1.0359361
51	0x3fd994d8	1.6998549
52	0x3f956328	1.1670885
53	0x3f792d90	0.9733515
54	0xbe358019	-0.17724647
55	0x4036de5b	2.8573215
56	0x3ee6fae6	0.45113295
57	0x3f925e90	1.1435108
58	0x3fb6d832	1.4284728
59	0xbf987b4d	-1.1912628
60	0x3f6a8c28	0.9162011
61	0x403f18c9	2.9858878
62	0xbfa87f6e	-1.3163888
63	0xbfa6c816	-1.3029811
64	0xc073cc2d	-3.809337
65	0x3f71c787	0.9444508
66	0x3fe17999	1.7615234
67	0x3fc90a63	1.5706295
68	0x3f024b7e	0.5089644
69	0xbfe7b4ba	-1.8102028
70	0xbf6e5c7f	-0.9310989
71	0x3ede5090	0.4342084
72	0x40001850	2.001484
73	0xbff0ef3b	-1.8823007
74	0xc080bdbd	-4.0231614
75	0x3ddb94fc	0.10721776
76	0xbf26b3e8	-0.65118265
77	0x3f5e4ab7	0.86832756
78	0xc022d5ec	-2.5443068
79	0x3e803707	0.25041983
80	0xbed07257	-0.40712234
81	0x40851c20	4.159683
82	0xbeba1b9b	-0.36349186
83	0xbe41d1b0	-0.18927646
84	0xbfc8ca24	-1.5686688
85	0xbeefd3a5	-0.4684116
86	0x3facd52c	1.3502555
87	0x3f158c9d	0.58417684
88	0x3fa09419	1.2545196
89	0x3f051b95	0.5199521
90	0xbfd041db	-1.6270097
91	0xbf0b23d8	-0.5435157
92	0x3fd46630	1.6593685
93	0xc09e6528	-4.949848
94	0x3f914c8a	1.1351483
95	0xbfb0ffcb	-1.3828062
96	0xbfcf325d	-1.6187245
97	0xbf566d3b	-0.8376042
98	0xbfffb966	-1.9978454
99	0x3e09ec7a	0.13469115
100	0x3f8fbb1f	1.122898
101	0x3ff5a4cc	1.9190917
102	0xbfc16e14	-1.5111718
103	0xc08f257f	-4.473327
104	0x3f34afbf	0.7058067
105	0xc00de919	-2.2173522
106	0xbe0a117e	-0.13483235
107	0xbf6a3828	-0.9149194
108	0x404c009b	3.187537
109	0xbfa13359	-1.2593795
110	0xbfa3343e	-1.2750318
111	0xbf33e908	-0.7027745
112	0xc01d2c62	-2.455834
113	0x3e4ca012	0.19982937
114	0x3f097591	0.5369502
115	0x3e918f25	0.28429523
116	0x402a82db	2.6642368
117	0x3f1a6ce7	0.6032242
118	0xbfb0eb0a	-1.3821728
119	0xc00e0412	-2.2189984
120	0x3e38819b	0.1801819
121	0xc01bcdd3	-2.4344375
122	0xbf32e60d	-0.6988228
123	0x3f4a75d4	0.7908604
124	0xbf1f2d1f	-0.62178224
125	0x3f228cf9	0.6349636
126	0xc002b1ae	-2.0420947
127	0xc044fbf3	-3.0778778
128	0x401f844d	2.49245
129	0x3f67e128	0.90577936
130	0xbf88fb97	-1.0701779
131	0xbf4f6bd6	-0.8102392
132	0xbf896f22	-1.073704
133	0xc010ebe9	-2.2643988
134	0x404a73b5	3.1633122
135	0xc08aecf3	-4.3414245
136	0xbebd6505	-0.36991134
137	0xbfb9f727	-1.452855
138	0xbf904245	-1.1270224
139	0x3f49a248	0.78763247
140	0xbe18bde6	-0.1491619
141	0x4038871a	2.883246
142	0xbf16c3c7	-0.5889248
143	0xbf30f08b	-0.6911704
144	0x3f664949	0.89955574
145	0x4080f0f8	4.029415
146	0x3da7bf93	0.08190837
147	0xbd518c37	-0.05115911
148	0xbf3a0064	-0.72656846
149	0x3ebf8937	0.37409374
150	0xc07cc73e	-3.9496608
151	0xbeae01a4	-0.33985627
152	0x3fb37a8f	1.4021777
153	0xbe21c638	-0.1579827
154	0x3f08d0f8	0.5344386
155	0xc08490cf	-4.142677
156	0xbf9dd6d7	-1.2331189
157	0xbffbb947	-1.9665917
158	0x3f4209bf	0.7579612
159	0x3f25a16f	0.64699453
160	0x3f6b2128	0.9184747
161	0xc008b803	-2.1362312
162	0x4015868e	2.3363376
163	0xbdb7cad3	-0.089742325
164	0x3fd36515	1.6515223
165	0x3f4646a0	0.77451515
166	0x40267aaf	2.601238
167	0xbfc8ae93	-1.5678276
168	0xbf863369	-1.0484439
169	0xbf75c0ae	-0.9599713
170	0xbe6b379d	-0.22970434
171	0xbf933f66	-1.1503723
172	0x4009b4f4	2.1516695
173	0x3ffaa399	1.9581176
174	0xc0474242	-3.113419
175	0x3de3f2e7	0.11130314
176	0x3fd416fb	1.6569513
177	0x3ffd0ccf	1.9769534
178	0x3e6957e1	0.2278743
179	0x3f14c757	0.5811667
180	0xbe92501d	-0.28576747
181	0xc039a9fb	-2.9009998
182	0x4004d075	2.0752232
183	0xbf8e9c06	-1.1141365
184	0x3fedffac	1.859365
185	0x3fee4603	1.8615116
186	0x3e20e4fa	0.15712348
187	0xc0291057	-2.6416223
188	0x3e1aa0ac	0.15100354
189	0x3ffb82d7	1.9649304
190	0xbfaa0545	-1.3282858
191	0x3fef9474	1.8717179
192	0x3ee2efd0	0.44323587
193	0x3ff0fc3d	1.8826977
194	0x3a73fb40	0.00093071535
195	0x3f17b177	0.59255165
196	0x3e53b92c	0.20676106
197	0x3fae1a95	1.3601862
198	0x4026c3e1	2.6057055
199	0xbf71e708	-0.9449315
200	0x401eb3f3	2.4797332
201	0xbfa2611a	-1.2685883
202	0xbefbd675	-0.49187055
203	0xbeff7d25	-0.49900165
204	0xbfda8014	-1.7070336
205	0xbee98329	-0.4560788
206	0x40848dcb	4.1423087
207	0xbf55766e	-0.83383834
208	0x3e712e63	0.23552851
209	0xc04c3af5	-3.1910985
210	0xc02681ba	-2.601668
211	0x40270ff8	2.6103497
212	0xbf30277f	-0.68810266
213	0xbf9ca211	-1.2236959
214	0xbf3543f8	-0.7080684
215	0x40225013	2.5361373
216	0xbf8c2fbf	-1.0952071
217	0xbf3192b8	-0.693645
218	0xc089cf66	-4.306567
219	0xbed9695c	-0.42463195
220	0xc02263e9	-2.537348
221	0x3f3fd2a0	0.74930763
222	0x3f9d4719	1.2287322
223	0xbf8bd46a	-1.0924199
224	0x3f4b3cad	0.7938946
225	0xc0870dcf	-4.2204356
226	0xbf0a99cb	-0.5414092
227	0x40bc657b	5.8873878
228	0xbf381b67	-0.7191681
229	0x3f657d24	0.89644074
230	0xc01eb600	-2.4798584
231	0x3ff2bf8f	1.8964709
232	0x40066a3f	2.1002347
233	0x406fb56e	3.7454486
234	0xbec93212	-0.39296013
235	0xc02fa78c	-2.7446012
236	0xc0481428	-3.1262302
237	0x3e560d6f	0.20903562
238	0xbff89104	-1.9419255
239	0xbf31ac45	-0.6940349
240	0xbf1d5fdc	-0.61474395
241	0xbf896538	-1.0734015
242	0x3e6d063c	0.2314691
243	0xbecbee2c	-0.39830148
244	0x3ea12402	0.31472784
245	0x40276959	2.615805
246	0x3f852adb	1.0403703
247	0xbf01ec21	-0.5075093
248	0x406bfb5b	3.6872165
249	0xbfc270aa	-1.5190632
250	0x3ea2eb75	0.31820264
251	0xc05b632f	-3.4279287
252	0x3f65f641	0.8982888
253	0x4051dfd0	3.2792854
254	0x3f924cf8	1.1429739
255	0xbfee3094	-1.8608575

weight f4 [16]
0	0x405e29d2	3.4713025
1	0x403e4ffb	2.9736316
2	0x407ac787	3.9184282
3	0x40627dad	3.5389206
4	0x40597df5	3.3983128
5	0x4051a85c	3.2759008
6	0x40557aa3	3.3356102
7	0x4066590c	3.599185
8	0x40d09ff0	6.5195236
9	0x40b5857a	5.6725435
10	0x40cfa2c5	6.4886193
11	0x40c9bd1e	6.3043356
12	0x40db6cad	6.857016
13	0x40e80b92	7.2514124
14	0x40e42a49	7.130162
15	0x40d7ea52	6.7473536

bias f4 [16]
0	0xbfcef2d3	-1.6167854
1	0xbef0eb6d	-0.47054616
2	0xc015f114	-2.3428392
3	0xbfbc9dde	-1.4735677
4	0xbfab649c	-1.3390079
5	0xbf74e7e8	-0.9566636
6	0xbfe4f7e1	-1.7888147
7	0xbfc2f332	-1.5230467
8	0xc00d0826	-2.2036223
9	0xbf051e60	-0.51999474
10	0xbf9f5ca2	-1.2450144
11	0xbfc1bd6d	-1.5135933
12	0xbfa8f6f2	-1.3200362
13	0xc01c06c1	-2.4379122
14	0xbfae63e6	-1.3624237
15	0xbf1f7399	-0.62285763

running_mean f4 [16]
0	0x3f7fc6d1	0.99912745
1	0xc2485a98	-50.08847
2	0x41b7dbe2	22.982365
3	0xc1b0f3eb	-22.1191
4	0xc20e7866	-35.617577
5	0xc2a13725	-80.607704
6	0xc1f8bb27	-31.091383
7	0xc2264dec	-41.576096
8	0xc20a7573	-34.614697
9	0x422aa3a7	42.659817
10	0xc28e0249	-71.00446
11	0xc25fd5b9	-55.958714
12	0x419458e4	18.543404
13	0xc1ee03b4	-29.751808
14	0xc298b0ac	-76.34506
15	0x40ed31b2	7.4123163

running_var f4 [16]
0	0x45419b8b	3097.7214
1	0x45465154	3173.083
2	0x452ae069	2734.0256
3	0x457c71cd	4039.1125
4	0x4581b1ed	4150.2407
5	0x45356729	2902.4475
6	0x4562fa7a	3631.6548
7	0x45405285	3077.1575
8	0x45516c2e	3350.7612
9	0x453724ef	2930.3083
10	0x4532035a	2848.2095
11	0x456538d0	3667.5508
12	0x453aff7a	2991.9673
13	0x452bd3aa	2749.229
14	0x4568a244	3722.1416
15	0x4539e81a	2974.5063

weight f4 [64, 96]
0	0x3f60e348	0.87846804
1	0xbe867f09	-0.26268795
2	0xbf0a845f	-0.5410823
3	0x3e9a0d7b	0.3008841
4	0x3e027940	0.12741566
5	0xbf4bf6d0	-0.7967348
6	0xbee65798	-0.44988704
7	0xbe9f2cd6	-0.31088895
8	0x3eb7170b	0.35759768
9	0xbf0f9dcb	-0.5610015
10	0xbf3ac899	-0.7296234
11	0xbef44e08	-0.47715783
12	0x3f658ab0	0.89664745
13	0xbf16bebb	-0.5888478
14	0xbeea1d53	-0.45725498
15	0xbf1ddc9c	-0.6166475
16	0xbee37d15	-0.44431368
17	0x3f2aa8ee	0.66664016
18	0x3e5445eb	0.20729797
19	0x3ed99874	0.42499125
20	0xbf5bc985	-0.8585437
21	0xbe0ff3d5	-0.14057858
22	0xbe44fc2e	-0.19236824
23	0xbf622f29	-0.8835321
24	0xbed2bdf9	-0.41160563
25	0xbfa219e5	-1.2664152
26	0xbdd94ff1	-0.10610951
27	0x3f121b3d	0.5707281
28	0x3e5bf764	0.21481091
29	0x3f32e99e	0.6988772
30	0xbe6de942	-0.23233512
31	0x3d755a7e	0.059900753
32	0xbf44f156	-0.7693075
33	0x3ebe6ada	0.37190896
34	0xbd3ad2a2	-0.04561103
35	0xbf28a692	-0.65879166
36	0xbf42e1f1	-0.7612601
37	0x3f01b9b0	0.5067396
38	0xbe8b4267	-0.27199098
39	0xbfa03f8b	-1.2519392
40	0x3f2879f6	0.658111
41	0x3e544e62	0.20733026
42	0xbfdfb371	-1.7476636
43	0xbfd1adbf	-1.6381148
44	0xbf3e686b	-0.7437808
45	0x3f49e231	0.78860766
46	0x3f7cbc1e	0.98724544
47	0x3e20777e	0.15670583
48	0xbe741e30	-0.2383964
49	0xbf5f5144	-0.87233377
50	0xbec892e1	-0.3917456
51	0x3f9f85d7	1.246272
52	0xbf3bc908	-0.73353624
53	0xbeee8bc5	-0.4659101
54	0xbf8a6c89	-1.0814372
55	0xbecea5e2	-0.40360934
56	0xbe8bd2ac	-0.27309167
57	0xbc411a16	-0.0117860045
58	0xbea3344c	-0.31875837
59	0x3d06c535	0.032902915
60	0x3fb25d83	1.3934788
61	0xbf411b80	-0.75432587
62	0xbf17005c	-0.58984923
63	0xbf56309d	-0.8366793
64	0x3f0aaabc	0.5416677
65	0xbed7affd	-0.42126456
66	0xbed180a7	-0.40918466
67	0xbe81d4af	-0.25357577
68	0xbfb1cfa8	-1.3891497
69	0xbf27654b	-0.65388936
70	0xbf02877b	-0.50987977
71	0xbe3ec002	-0.18627933
72	0xbf3ccc41	-0.73749167
73	0xbeb888b6	-0.36041802
74	0x3e08f039	0.13372888
75	0xbf4732a0	-0.7781162
76	0x3fb64a0c	1.4241347
77	0xbe968852	-0.2940088
78	0xbf66a9b5	-0.901027
79	0x3f133f64	0.575186
80	0x3f8a1902	1.0788882
81	0x3f68e16c	0.90968966
82	0x3dacb4cd	0.084329225
83	0xbf14e614	-0.5816357
84	0xbf064fe3	-0.5246565
85	0xbf4f5be6	-0.809996
86	0xbf8f6062	-1.1201289
87	0xbf955b66	-1.1668518
88	0xbf11bb84	-0.5692675
89	0xbe220ee4	-0.15825993
90	0xbf229a38	-0.6351657
91	0xbf1f693e	-0.6226996
92	0xbf369924	-0.71327424
93	0x3f5d7d28	0.865191
94	0xbf8262e2	-1.0186427
95	0x3f633c68	0.8876405
96	0x3fcfc352	1.6231482
97	0xbed83d26	-0.42234153
98	0xbf40f2fc	-0.75370765
99	0xbf0395dc	-0.5140054
100	0xbf944f49	-1.1586696
101	0x3e879446	0.2648031
102	0xbe6739c6	-0.22580633
103	0xbf144f5c	-0.5793359
104	0xbf423727	-0.75865406
105	0xbd63f9db	-0.055658203
106	0x3f33da96	0.7025541
107	0xbf3be212	-0.7339183
108	0x3fbc0c98	1.4691343
109	0xbf657f73	-0.896476
110	0x3e82c0b8	0.25537658
111	0x3f9448e3	1.1584743
112	0xbfb1e138	-1.3896856
113	0x3dbdc0d8	0.09265298
114	0xbd721220	-0.059099317
115	0x3f2ec6ed	0.68272287
116	0xbfaca8fc	-1.348907
117	0x3ea2907f	0.31750867
118	0xbfd3a873	-1.6535782
119	0x3fa68c98	1.3011656
120	0x3f66374d	0.8992813
121	0x3f5443ea	0.8291613
122	0xbe4a12c2	-0.19733718
123	0x3f79fc22	0.9765035
124	0x3f8e086b	1.1096319
125	0xbf600d70	-0.87520504
126	0x3f4781ef	0.7793264
127	0x3c1b02c7	0.009461111
128	0xbedf2fe4	-0.43591225
129	0xbfb0f757	-1.3825482
130	0xbe3c1730	-0.1836822
131	0xbe820586	-0.2539484
132	0xbe74a388	-0.23890507
133	0xbf09a818	-0.53772116
134	0x3fa011b3	1.2505401
135	0x3f692359	0.9106956
136	0x3f855614	1.0416894
137	0x3e184325	0.14869364
138	0x3ee8d465	0.45474544
139	0xbeda7e7a	-0.4267462
140	0x3f3a0874	0.7266915
141	0xbec03036	-0.37536782
142	0xbfb612c8	-1.4224482
143	0x3f3030d6	0.6882452
144	0xbf6f13b8	-0.93389463
145	0x3f869c2d	1.0516411
146	0xbedfcace	-0.43709415
147	0xbf2030c3	-0.62574404
148	0xbdf87682	-0.121319786
149	0xbf595c3f	-0.8490638
150	0xbf663acc	-0.89933467
151	0x3faad29b	1.3345522
152	0x3ee1e8f6	0.44123048
153	0xbf18873b	-0.59581345
154	0xbf4ad5f5	-0.7923272
155	0xbfc750cb	-1.5571531
156	0xbf43d41f	-0.76495546
157	0x3f92a8f7	1.1457814
158	0xbf040792	-0.5157405
159	0x3d142912	0.03617198
160	0x3f07b64d	0.53012544
161	0xbe648153	-0.22314958
162	0x3e0d2a70	0.1378572
163	0xbeb9d21d	-0.36293116
164	0x3ed8ba78	0.42329764
165	0x3e2c7e3e	0.16845033
166	0xbfc9d4b4	-1.5768037
167	0x3f776cb2	0.9665023
168	0x3ee1cbdd	0.44100848
169	0xbf028e17	-0.5099806
170	0x3e5c273d	0.21499343
171	0xbf019374	-0.5061562
172	0xbf521f38	-0.82078886
173	0xbf9d0655	-1.2267557
174	0xbd0f5828	-0.03499618
175	0x3eac7e3a	0.33690053
176	0x3f566e86	0.83762395
177	0xbdfadbc2	-0.12248947
178	0x3f7f3a9e	0.9969882
179	0x3e8c433d	0.2739505
180	0xbf670fd6	-0.9025854
181	0xbdcfd6df	-0.10148405
182	0xbf9e6155	-1.2373453
183	0x3f9af255	1.2105204
184	0xbf983a61	-1.1892816
185	0xbed96de0	-0.4246664
186	0x3f886fd6	1.065913
187	0xbf10764d	-0.5643051
188	0xbde9ac53	-0.11409821
189	0x3ebb3717	0.36565468
190	0xbdca5af1	-0.09880627
191	0x3da7b4ca	0.0818878
192	0xbf8a0611	-1.0783101
193	0x3ecd7e8a	0.40135604
194	0xbf64f493	-0.8943569
195	0xbf182183	-0.59426135
196	0xbf84d936	-1.0378788
197	0xbd9015a4	-0.070353776
198	0xbf95a687	-1.1691445
199	0x3ed8894a	0.42292243
200	0x3f2d2da9	0.67647797
201	0xbea3e55c	-0.32010925
202	0x3f0213e2	0.5081159
203	0xbfde0fd1	-1.7348577
204	0x3f85108b	1.0395674
205	0x3f058176	0.52150667
206	0xbe815b42	-0.25264937
207	0xbf160497	-0.58600754
208	0x3eef908a	0.46789962
209	0x3e2d8690	0.16945863
210	0x3e763481	0.24043466
211	0x3e032b49	0.1280948
212	0xbfd12993	-1.6340812
213	0xbf89757c	-1.0738978
214	0xbd17e9fc	-0.03708838
215	0xbfbe2623	-1.4855388
216	0xbf84ddc3	-1.0380176
217	0xbe163b59	-0.14671077
218	0x3f9736ec	1.1813636
219	0xbfa29c93	-1.2704033
220	0xbea11525	-0.31461444
221	0x3ee555fb	0.4479216
222	0x3f8b28d9	1.0871841
223	0x3f0bb0b7	0.5456652
224	0xbf824bd6	-1.0179393
225	0xbefe7a25	-0.49702564
226	0xbf1e960a	-0.6194769
227	0x3edbcb12	0.42928368
228	0xbf433c43	-0.7626383
229	0xbf40a5eb	-0.7525317
230	0x3f6fcd37	0.9367251
231	0x3edefd46	0.43552607
232	0xbf8cdbca	-1.1004574
233	0xbfca0dfa	-1.5785515
234	0x3f246772	0.64220345
235	0xbf81281e	-1.0090368
236	0x3f2f98be	0.6859244
237	0xbd83feef	-0.06445109
238	0x3fcf0591	1.6173574
239	0x3f818fec	1.0122046
240	0x3f952619	1.1652251
241	0xc00e117b	-2.219817
242	0x3e14aa30	0.14518046
243	0xbf4be00c	-0.79638743
244	0xbd9aaab5	-0.07552091
245	0xbfa1d571	-1.2643262
246	0xc00f2c00	-2.2370605
247	0xbdd97e9f	-0.10619854
248	0x3e973455	0.29532114
249	0x3fb2774c	1.3942657
250	0xbe057395	-0.13032372
251	0x3cb54763	0.022128766
252	0xbea602b4	-0.32423937
253	0xbf4cf6bb	-0.8006398
254	0x3c6e47cc	0.014543485
255	0xbe33e5d8	-0.17568147

bias f4 [64]
0	0xbf8425e6	-1.0324066
1	0x40514b7b	3.270232
2	0xbf59cacd	-0.85075074
3	0xbe8baecc	-0.27281797
4	0x40098810	2.1489296
5	0x4076129c	3.8448858
6	0xbf46b22d	-0.77615625
7	0x4031a1df	2.7755048
8	0xbe852057	-0.26001236
9	0xbf0a9a7d	-0.5414198
10	0xbf93428e	-1.1504686
11	0xbfaa7293	-1.3316215
12	0x40858252	4.1721582
13	0x40a8a162	5.2697
14	0xbf4102f4	-0.7539513
15	0xbf8441e5	-1.033261
16	0x4080f38a	4.029729
17	0xbedfa3b1	-0.43679574
18	0xbf5f1efe	-0.87156665
19	0xbf2fd33f	-0.6868171
20	0xbf95c18e	-1.1699693
21	0xbf872eb9	-1.0561134
22	0x40331e7b	2.7987354
23	0xbf67ad85	-0.90499145
24	0xbf9869f2	-1.1907332
25	0x4022f4c1	2.5461886
26	0xbf7f8f08	-0.99827623
27	0xbf238296	-0.63871133
28	0xbf190e6c	-0.5978763
29	0xbf400b00	-0.75016785
30	0x404637dc	3.0971594
31	0xbf712c18	-0.94207907
32	0xbf15982c	-0.5843532
33	0xbf455b17	-0.7709212
34	0xbf95d20f	-1.170473
35	0xbf05db6f	-0.52287954
36	0x40091fc8	2.1425648
37	0x4029b60e	2.6517367
38	0xbf8c7098	-1.0971861
39	0x4012d548	2.2942677
40	0x3fd513f4	1.6646714
41	0x4065fb9f	3.5934827
42	0xbf721179	-0.9455791
43	0xbf98fdcc	-1.1952453
44	0x40a7ee4d	5.2478395
45	0x4086a627	4.2077823
46	0x400ec55f	2.2307966
47	0xbf769104	-0.96315026
48	0xbf13e636	-0.5777315
49	0xbf8fa12f	-1.1221064
50	0xbf84253c	-1.0323863
51	0x3f8e424e	1.1113985
52	0xbf2b66dc	-0.66953826
53	0xbf1f8c4e	-0.6232346
54	0xbf726ac2	-0.9469415
55	0xbf601276	-0.8752817
56	0xbf8324c3	-1.0245594
57	0x40258a59	2.586569
58	0x4032b480	2.7922668
59	0x402c729a	2.6944947
60	0xbee30c04	-0.44345105
61	0xbf8b89dd	-1.0901448
62	0x405dd162	3.4659047
63	0x403e2b6d	2.9714005

weight f4 [1, 64]
0	0xc0306d4a	-2.7566705
1	0x3ff73226	1.9312179
2	0xc081c136	-4.0548353
3	0xbff7b5d0	-1.935236
4	0x3fd2c57c	1.6466517
5	0x3ffea18c	1.989305
6	0xc09a9351	-4.830483
7	0x3feac743	1.834206
8	0xbfcb8945	-1.5901266
9	0xc0250254	-2.578267
10	0xc071319b	-3.7686527
11	0xc0ab74dc	-5.358015
12	0x3f999c42	1.2000811
13	0x3f93d26e	1.1548593
14	0xc06fa30c	-3.7443266
15	0xc094eb2f	-4.653709
16	0x3fbabd5a	1.4589036
17	0xc0054d72	-2.082852
18	0xc086a628	-4.2077827
19	0xc0659e0b	-3.5877712
20	0xc0448e37	-3.07118
21	0xc0940f3f	-4.626861
22	0x3f731e5c	0.949682
23	0xc08f7901	-4.483521
24	0xc067b51d	-3.6204293
25	0x40032904	2.0493784
26	0xc0802a94	-4.0051975
27	0xc04fbbc1	-3.2458346
28	0xc0256662	-2.584374
29	0xc08499f3	-4.1437926
30	0x3fd6eb10	1.6790485
31	0xc067b59c	-3.6204596
32	0xc06a9520	-3.6653519
33	0xc03603f8	-2.8439922
34	0xc052e995	-3.2955067
35	0xc06ba2bf	-3.6818082
36	0x3fb9898e	1.4495103
37	0x3ffc3ad5	1.9705454
38	0xc08ead89	-4.4586835
39	0x40022926	2.0337615
40	0x4010c07e	2.2617488
41	0x3fbd3bb7	1.4783849
42	0xc07d9013	-3.9619186
43	0xc08b82d7	-4.3597217
44	0x3fceaad3	1.6145881
45	0x4010d868	2.2632084
46	0x400e195f	2.2202985
47	0xc0702e2a	-3.7528176
48	0xc094d080	-4.6504517
49	0xc07b4f70	-3.9267235
50	0xc088ade3	-4.2712264
51	0x40092eb1	2.1434748
52	0xc05ef0de	-3.4834514
53	0xc0a90aab	-5.2825522
54	0xc086cf68	-4.212818
55	0xc057616d	-3.3653214
56	0xc07a2457	-3.908468
57	0x3f296c8a	0.6618124
58	0x3f1c6260	0.6108761
59	0x3f915d5b	1.1356615
60	0xc00d47ba	-2.2075028
61	0xc0923a01	-4.5695806
62	0x3fb112d0	1.3833866
63	0x40056fea	2.0849557

weight f4 [64, 96]
0	0x3f7453e4	0.95440507
1	0xbe95d49c	-0.2926377
2	0xbe5231b8	-0.20526779
3	0x3f42f67b	0.7615735
4	0x3f229a47	0.6351666
5	0x3f47407c	0.7783277
6	0x3f1b752b	0.6072566
7	0xbf679a1e	-0.9046954
8	0x3e5fe51d	0.21864744
9	0x3ef72241	0.4826832
10	0x3f55a2f3	0.83451766
11	0xbf20ae95	-0.6276639
12	0x3d5e8472	0.05432553
13	0x3f8c83cc	1.0977721
14	0xbf3265ae	-0.696864
15	0x3b5aa1c2	0.0033360575
16	0x3ff39b6a	1.9031804
17	0xbfadd7be	-1.3581464
18	0xbf39cf79	-0.72582203
19	0xbf50c512	-0.81550705
20	0x3f884f0e	1.0649126
21	0xbf961f0f	-1.1728228
22	0xbf8383b8	-1.0274572
23	0x3ece288e	0.40265316
24	0x3ef0a84f	0.4700341
25	0xbf6aebd9	-0.91766125
26	0x3f396128	0.72413874
27	0xbfcef1f1	-1.6167585
28	0x3cd18609	0.025576608
29	0xbe92b62b	-0.28654608
30	0x3f0b770f	0.54478544
31	0x3d0e6bf1	0.03477091
32	0x3fad3e44	1.3534627
33	0x3e3d991a	0.18515435
34	0x3e16881c	0.14700359
35	0xbf86ee21	-1.0541421
36	0xbf595a66	-0.8490356
37	0x3f1e85fe	0.61923206
38	0xbf99b9d7	-1.2009839
39	0xbf071cef	-0.52778524
40	0xbf2228cc	-0.633435
41	0x3cbb4825	0.02286155
42	0xbe054037	-0.13012777
43	0x3f1a5e7b	0.60300416
44	0xbf41b5aa	-0.7566782
45	0x3e8e41bb	0.27784523
46	0x3f9b9b1c	1.2156711
47	0x3d8f0438	0.069832265
48	0xbe21a12b	-0.15784137
49	0xbf5d45bc	-0.8643453
50	0xbf0183e4	-0.50591874
51	0x3f22b715	0.6356061
52	0x3f581cde	0.8441905
53	0x3f37848f	0.71686643
54	0xbf2dac4d	-0.67841035
55	0xbf6b33e0	-0.9187603
56	0xc001c8ea	-2.0278878
57	0x3fc98b0c	1.5745559
58	0x3ed5ade5	0.41734233
59	0x40038588	2.055025
60	0xbfb1358b	-1.3844465
61	0x3e158d6b	0.14604728
62	0x3f4bd4a8	0.7962136
63	0xbf7d1802	-0.9886476
64	0xbe6c0c2a	-0.23051515
65	0x3feb9f45	1.840798
66	0x3dd6738f	0.1047126
67	0xbfb76464	-1.4327512
68	0xbeebb09b	-0.46033177
69	0x3f8728df	1.0559348
70	0x3e10e225	0.14148767
71	0xbf8f958c	-1.1217513
72	0xbfd99225	-1.6997725
73	0xbeb452e4	-0.3521949
74	0xbf7ba993	-0.98305625
75	0xbfae7b3d	-1.3631359
76	0xbdea9419	-0.11454029
77	0x3f180e8d	0.593972
78	0xbfc014f9	-1.50064
79	0xbf19763e	-0.5994605
80	0xbe9d035b	-0.30666623
81	0x3fa72820	1.305912
82	0x3e40def8	0.18835056
83	0xbe9f838b	-0.31155047
84	0xbf649c3b	-0.8930089
85	0xbeeb6cfc	-0.45981586
86	0xc002cd45	-2.0437787
87	0xbf320315	-0.6953595
88	0x3f892eec	1.0717444
89	0xbf49cc85	-0.788277
90	0xbe6a39e8	-0.22873652
91	0x3b3d134e	0.0028850618
92	0x3f09d40a	0.5383917
93	0x3f4276fe	0.7596282
94	0x3ea21f36	0.31664437
95	0xbf619b78	-0.8812785
96	0x3f34a42d	0.7056301
97	0x3f7a8ae5	0.97868186
98	0x3b816020	0.0039482266
99	0x3f303751	0.68834406
100	0x3ee96709	0.45586422
101	0xbe6e75a4	-0.23287064
102	0xbf0008bb	-0.5001332
103	0x3f59f691	0.85141855
104	0xbf52f69a	-0.82407534
105	0xbe6b4536	-0.2297562
106	0xbf7236d7	-0.9461493
107	0x3eb0f899	0.34564665
108	0x3def34b6	0.11679976
109	0xbf1ca64f	-0.61191267
110	0x3ddb8faf	0.10720765
111	0xbe95bf86	-0.29247683
112	0x3f118f39	0.56859165
113	0xbf2a128d	-0.66434556
114	0x3f917892	1.136492
115	0x3f182c63	0.5944273
116	0x3f9a4889	1.2053386
117	0x3e30658f	0.17226242
118	0x3fc9587c	1.5730128
119	0xbf70c0a3	-0.9404394
120	0xbec3ec08	-0.38266015
121	0xbfd1a99c	-1.6379886
122	0xbf666d39	-0.9001041
123	0x3fa2f8ab	1.2732137
124	0x3ff0ccd2	1.8812506
125	0x3d0b9b2c	0.03408353
126	0xbf4d716f	-0.8025121
127	0x3f0eb8e3	0.55750865
128	0x3e1fe9ef	0.15616582
129	0x3e3b2858	0.18277109
130	0xbe64d0dc	-0.22345299
131	0xbf7c28f1	-0.9849997
132	0x3eda4261	0.42628768
133	0xbf0ff940	-0.562397
134	0x3f9fc936	1.248328
135	0x3e76c2b2	0.24097708
136	0x3ea19335	0.31557623
137	0xbce67fc4	-0.028137095
138	0x3f5fb1eb	0.87380856
139	0xbf8d9a89	-1.1062785
140	0xbf1e6a18	-0.61880636
141	0xbf5d9650	-0.86557484
142	0x3efb36ac	0.4906515
143	0x3f4b0ba3	0.7931463
144	0xbe25046b	-0.16114967
145	0x3ed4a5bd	0.41532698
146	0xbfa21340	-1.2662125
147	0xbfc43927	-1.5329942
148	0xbfa726b5	-1.3058687
149	0x3fdf2fe9	1.7436496
150	0xbf051f79	-0.5200115
151	0x3f3a91cc	0.7287872
152	0x3f3ac2ef	0.72953695
153	0x3dcced8f	0.10006248
154	0xbf5e8724	-0.8692496
155	0xbf85ddc0	-1.0458298
156	0x3dbb37f8	0.091415346
157	0xbf63d7b0	-0.8900099
158	0x3dead263	0.11465909
159	0x3f623154	0.8835652
160	0xbeadebf3	-0.33969077
161	0xbf9b7487	-1.2144936
162	0xbfebde2d	-1.8427178
163	0xbf66548f	-0.89972776
164	0xbe7fc15a	-0.24976102
165	0x3fa81ef6	1.3134449
166	0x3e23234b	0.15931432
167	0x3fe2b3b8	1.7711096
168	0xbf73f560	-0.9529629
169	0x3f724c40	0.946476
170	0xbdf3ed15	-0.11910454
171	0xbf3a757e	-0.7283553
172	0xbf85aee8	-1.0444002
173	0xc00ae6d4	-2.1703386
174	0x3f3066bc	0.6890676
175	0xbf99c2d6	-1.2012584
176	0xbdce8a8e	-0.10085021
177	0x3e0911d8	0.13385713
178	0xbdd75ff0	-0.105163455
179	0x3f38a7d8	0.7213111
180	0xbfcda684	-1.6066442
181	0xbf91ab7a	-1.1380455
182	0xbcdf93f0	-0.027292222
183	0x3ecbfda3	0.39841947
184	0x3e349f3e	0.17638871
185	0xbc8650dc	-0.016395979
186	0x3e2897c8	0.1646415
187	0xbfa7b8a3	-1.3103222
188	0xbf8761ed	-1.057676
189	0xbfb180d9	-1.3867446
190	0xbf7e3a66	-0.9930786
191	0xbe85ea8c	-0.26155508
192	0xbdfc6e56	-0.123257324
193	0xbdfb8cfa	-0.122827485
194	0x3faa4f91	1.3305532
195	0xbef43e4e	-0.47703785
196	0xbeb5281d	-0.35382167
197	0x3f64cbc5	0.8937343
198	0xbf18004c	-0.59375453
199	0xbd97f450	-0.07419646
200	0xbf5643b6	-0.8369707
201	0x3f81c663	1.0138668
202	0x3f2aad31	0.6667052
203	0xbfe29f8d	-1.7704941
204	0xbf2e5db7	-0.6811175
205	0xbe141b63	-0.14463572
206	0x3e2535ea	0.16133848
207	0xbf0202c5	-0.50785476
208	0x3e816902	0.25275427
209	0xbfad900a	-1.3559582
210	0xbff20e57	-1.8910626
211	0x3eda8c91	0.4268537
212	0xbf5dea3e	-0.8668555
213	0x3f29840e	0.66217124
214	0xbe3f1c6c	-0.18663186
215	0xbf4a7a5c	-0.79092956
216	0x3c32535f	0.010884135
217	0xbfc6b158	-1.5522871
218	0x3e9d3be1	0.30709746
219	0x3e590f01	0.2119713
220	0x3f0c23e9	0.54742295
221	0x3f865b46	1.0496604
222	0xbf750f7f	-0.9572677
223	0x3fa7c474	1.3106828
224	0xbf3560f9	-0.70851094
225	0x3fabfbdc	1.3436236
226	0x3f6f50b4	0.9348252
227	0xbecb992c	-0.39765298
228	0x3e37a240	0.17932987
229	0x3eb87392	0.36025673
230	0x3f8db44c	1.1070647
231	0x3d85a7a7	0.06526118
232	0x3f8513bc	1.0396647
233	0xbe95fee3	-0.29296026
234	0x3f0ad96c	0.5423801
235	0x3e7310e2	0.23736909
236	0x3fb4e99c	1.4133792
237	0x3f566033	0.8374054
238	0x3f9a3e97	1.2050351
239	0x3f62d2a4	0.8860266
240	0xbe60df22	-0.21960118
241	0xbfb6bae1	-1.4275781
242	0xbf894f8f	-1.0727404
243	0x3e58a675	0.21157248
244	0x3f306a18	0.68911886
245	0xbf208eaa	-0.6271769
246	0xbe48b6fb	-0.19601052
247	0xbda9763d	-0.08274505
248	0x3f3bf39f	0.7341861
249	0xbfc10894	-1.5080743
250	0xbf8ea4ff	-1.1144103
251	0x3ed43cb8	0.41452575
252	0x3d703d6e	0.058652334
253	0xbfb2902f	-1.3950251
254	0xbf56e97f	-0.83950037
255	0x3d563251	0.05229408

bias f4 [64]
0	0xbd674512	-0.056462355
1	0x3e6a7481	0.22896005
2	0x3cacb2f6	0.021081429
3	0x3e4034ab	0.18770091
4	0x3d0b9ef5	0.03408714
5	0x3dea2d55	0.11434428
6	0x3d727e3f	0.05920243
7	0x3db9b23a	0.09067197
8	0x3c73c546	0.014878577
9	0xbd631a15	-0.055444796
10	0x3ddf7de8	0.109126866
11	0xbd6d8e53	-0.05799706
12	0xbd6f7148	-0.058457643
13	0x3e8b77d7	0.27239868
14	0x3dc34b33	0.095358275
15	0x3d461ee8	0.04836932
16	0xbc508c0a	-0.0127287
17	0x3d0e28e4	0.034706965
18	0x3dae6bc9	0.08516652
19	0x3d9acb36	0.07558291
20	0xbd91abe6	-0.07112865
21	0x3e00b53a	0.12569132
22	0xbc4dfea6	-0.01257292
23	0x3e3f781e	0.18698165
24	0x3dee6435	0.11640207
25	0x3de3f3ff	0.11130523
26	0xbd0a9c34	-0.033840373
27	0xbcde1ab7	-0.027112348
28	0x3dfea7fd	0.12434385
29	0x3e9e623a	0.30934316
30	0x3e024e1c	0.12725109
31	0xbe240ff4	-0.1602171
32	0x3d3b726d	0.04576342
33	0xbe042887	-0.12906085
34	0xbd9d587e	-0.07682894
35	0x3e57280b	0.21011369
36	0x3d981bf5	0.074272074
37	0xbd1b6451	-0.037937466
38	0x3ccd33a2	0.025049035
39	0xbcf2c98e	-0.029637124
40	0x3de29b62	0.11064793
41	0x3d960996	0.07326047
42	0x3e393613	0.18087034
43	0x3e3ba502	0.18324664
44	0xba995089	-0.0011696975
45	0x3db22c1d	0.0869982
46	0xbcd27466	-0.025690269
47	0xbe0ec8b7	-0.13943754
48	0x3dc27151	0.0949427
49	0x3dab5cab	0.083672844
50	0xbd8b0507	-0.06788068
51	0x3dbdb4b9	0.09262986
52	0xbd4c145f	-0.049824115
53	0x3e01415f	0.12622593
54	0xbc879c5c	-0.01655405
55	0x3d8768b4	0.066117674
56	0xbddb17cb	-0.106978975
57	0x3d4f699d	0.05063783
58	0x3c2c2bf5	0.010508527
59	0x3d31998d	0.043359328
60	0x3d781aa7	0.060572293
61	0x3cff2de4	0.031149812
62	0x3eb83b46	0.35982722
63	0x3e42ca5f	0.19022511

weight f4 [128, 64]
0	0xbf08af7c	-0.5339277
1	0xbf07be22	-0.53024495
2	0xbf0aa766	-0.5416168
3	0xbdb9a669	-0.09064943
4	0xbefd77df	-0.49505517
5	0x3d002a95	0.03129061
6	0x3e65a546	0.22426328
7	0x3d9303eb	0.07178482
8	0x3e257a9e	0.16160056
9	0xbc489a92	-0.012243884
10	0x3e462d4a	0.19353214
11	0x3eab8ec0	0.33507347
12	0x3f009940	0.5023384
13	0x3bbb22be	0.0057109287
14	0xbe75bffc	-0.23999017
15	0x3e51e818	0.20498693
16	0x3e583147	0.21112548
17	0xbeb012e1	-0.34389403
18	0xbe9880a4	-0.29785645
19	0xbec3adc0	-0.38218498
20	0xbec668fa	-0.38751966
21	0xbf8b1b8d	-1.0867783
22	0x3e6bdf56	0.23034415
23	0xbe224a31	-0.15848614
24	0x3de61d20	0.11236024
25	0xbf5f211a	-0.87159884
26	0xbe9a5ef8	-0.3015058
27	0x3eaab022	0.33337504
28	0xbe1cc6a9	-0.15310158
29	0xbe80feb9	-0.25194338
30	0xbf17e636	-0.5933565
31	0x3d9e07f0	0.07716358
32	0xbfa1e3d5	-1.2647654
33	0xbf471bed	-0.77776986
34	0x3d9c49e3	0.0763128
35	0xbfb1c0e3	-1.3886989
36	0x3e6ffff3	0.2343748
37	0x3c4f3063	0.012645814
38	0xbe83a0da	-0.25708658
39	0x3e3b3d1b	0.18285029
40	0x3cf3ecf1	0.029776068
41	0xbe7761cf	-0.24158405
42	0x3d30a186	0.04312279
43	0xbe4732eb	-0.19453017
44	0xbe4d517d	-0.20050617
45	0x3e8031b3	0.25037917
46	0xbe691cba	-0.22764865
47	0xbf471149	-0.7776075
48	0x3d0643b7	0.03277942
49	0xbe80afd3	-0.25134143
50	0xbecac586	-0.39603823
51	0xbf4c9c14	-0.79925656
52	0xbe535f8f	-0.20641921
53	0xbe6e535c	-0.23273987
54	0xbe24c40a	-0.16090408
55	0xbf18fb8c	-0.5975883
56	0xbd56c64a	-0.052435197
57	0x3f592680	0.8482437
58	0xbf1f03ce	-0.6211518
59	0xbd38c052	-0.045105286
60	0x3e8a33ce	0.2699265
61	0xbf236bab	-0.63836163
62	0xbe36be68	-0.17846072
63	0xbe55702f	-0.20843576
64	0x3e9d675b	0.30742916
65	0x3e058104	0.13037497
66	0xbe736711	-0.23769785
67	0x3ebcef0b	0.36901125
68	0x3db372a3	0.087620996
69	0x3f79f67d	0.97641736
70	0xbee139be	-0.43989366
71	0x3cd7f3c3	0.026361352
72	0x3e1d6bc6	0.15373144
73	0x3ea550be	0.32288164
74	0x3d995775	0.07487384
75	0xbe0cb506	-0.1374093
76	0xbf442711	-0.7662211
77	0xbdf6e293	-0.12054934
78	0xbe439108	-0.19098294
79	0xbe7a9e5d	-0.24474473
80	0x3f3e1acd	0.74259645
81	0xbc76b8f1	-0.015058742
82	0x3ebb8311	0.36623433
83	0xbe3d0f5f	-0.18462895
84	0x3f040cdf	0.5158214
85	0x3c510d11	0.012759463
86	0xbf3fd17e	-0.74929035
87	0xbe0da4b1	-0.13832356
88	0xbf185ee5	-0.595198
89	0x3f3aeed3	0.73020667
90	0x396ac87e	0.00022390668
91	0xbf482ca4	-0.78193116
92	0xbe115abd	-0.1419477
93	0x3e36654f	0.17812084
94	0xbe702402	-0.23451236
95	0xbe9c501d	-0.30529872
96	0x3e914cbe	0.28378862
97	0xbda30719	-0.07960338
98	0xbee07ca5	-0.43845096
99	0x3e99b237	0.3001878
100	0xbe876151	-0.26441434
101	0x3d168b39	0.036753867
102	0xbe814c2f	-0.25253436
103	0xbeb90aae	-0.3614096
104	0xbf27acc9	-0.65498024
105	0x3d9e7546	0.07737212
106	0xbeeb9921	-0.46015266
107	0xbe1c325e	-0.15253589
108	0x3ea8cfbd	0.32970992
109	0xbc17c7db	-0.009263958
110	0xbd25cfa5	-0.04048123
111	0x3dffcef8	0.12490648
112	0xbe92ab87	-0.2864649
113	0x3f0d6033	0.55224913
114	0x3f34e432	0.706607
115	0xbd841f46	-0.064512774
116	0x3c270d68	0.010196067
117	0xbe2c2b74	-0.16813451
118	0xbd05532d	-0.032550026
119	0x3de63a8d	0.112416364
120	0x3e2aa4b6	0.16664395
121	0xbf823912	-1.0173666
122	0xbe798693	-0.24367742
123	0x3eedc26f	0.46437404
124	0xbef66bd8	-0.48129153
125	0x3ee95b8b	0.45577654
126	0xbe5e3ea3	-0.21703582
127	0xbed88ec3	-0.4229642
128	0x3e5e3429	0.21699585
129	0xbe3e044b	-0.18556325
130	0x3f129461	0.5725766
131	0x3d22e2ec	0.03976719
132	0xbeddb488	-0.43301797
133	0x3ea8269e	0.32841963
134	0xbf333fa6	-0.70018995
135	0x3d90e86c	0.07075581
136	0xbeece88b	-0.46271166
137	0xbdd8d29d	-0.10587046
138	0x3e847478	0.2587011
139	0x3eddf481	0.43350604
140	0xbe50a8e3	-0.20376925
141	0xbdba407d	-0.090943314
142	0xbe321b07	-0.17393123
143	0xbe56790c	-0.20944613
144	0x3ea7a3fe	0.32742304
145	0x3edc8dad	0.4307684
146	0x3e45497c	0.19266313
147	0x3e09a22b	0.13440768
148	0xbe3f9e43	-0.18712716
149	0xbf504cf8	-0.81367445
150	0x3f526030	0.8217802
151	0x3e3dc2fe	0.18531415
152	0xbdb207a8	-0.086928666
153	0x3f1bec79	0.60907704
154	0x3c19ae79	0.009379976
155	0x3ed36ec4	0.41295445
156	0xbe8912f5	-0.26772276
157	0x3e0d04c9	0.13771357
158	0xbe5ea0fe	-0.21741101
159	0x3f75da85	0.9603656
160	0x3f007f26	0.50194013
161	0xbd290ec6	-0.041273855
162	0xbf1c1d64	-0.60982347
163	0xbe20d883	-0.15707593
164	0xbd09d6bc	-0.033652052
165	0xbde03b8b	-0.10948857
166	0xbccb089b	-0.024784377
167	0xbeb75c51	-0.3581262
168	0xbe38a5a8	-0.18031943
169	0x3e4ffcb5	0.20311244
170	0x3fa4c74f	1.2873324
171	0xbeaebd43	-0.3412877
172	0x3e55f182	0.20892909
173	0xbeb7f34b	-0.35927805
174	0x3d08bb79	0.033381913
175	0x3e2d539a	0.16926423
176	0xbf1a5f16	-0.6030134
177	0xbd9b123d	-0.07571838
178	0xbe83e8e8	-0.2576363
179	0x3e769e6e	0.24083874
180	0x3dd3b0d2	0.1033646
181	0xbf0af765	-0.54283744
182	0xbd2b76f5	-0.041861493
183	0xbdf1e7b3	-0.11811771
184	0xbd3806d4	-0.044928387
185	0xbe0f76a9	-0.14010109
186	0x3deba921	0.11506868
187	0xbed0330e	-0.40663952
188	0xbe5b3909	-0.21408476
189	0xbf0a0f97	-0.5393004
190	0xbf7926ec	-0.97325015
191	0x3d80fe6c	0.06298527
192	0xbd7fa583	-0.062413704
193	0xbe041c1a	-0.12901345
194	0x3f3dced6	0.7414373
195	0xbe6b34bc	-0.22969335
196	0xbe1814b8	-0.14851654
197	0x3e17871b	0.14797632
198	0x3f0fc446	0.56158864
199	0xbccd731a	-0.025079299
200	0xbf1dafe8	-0.61596537
201	0xbc0b2154	-0.008491833
202	0x3ed3cfa8	0.41369367
203	0xbdc4f2ef	-0.096166484
204	0xbd37861b	-0.044805627
205	0xbebc1b33	-0.367395
206	0x3c9bd17c	0.019020788
207	0xbe1cc20c	-0.15308398
208	0x3e03fa2e	0.12888405
209	0xbe61182e	-0.2198188
210	0xbe9f84c7	-0.3115599
211	0xbea43cfe	-0.32077783
212	0x3cfb56fa	0.030681122
213	0x3dd48ecb	0.10378798
214	0x3ee98e4e	0.45616382
215	0x3f022e99	0.5085235
216	0xbce5ec4f	-0.028066782
217	0x3edd6dc9	0.43247822
218	0x3f09f729	0.5389276
219	0xbe1bc8b3	-0.1521328
220	0x3eb0af0b	0.34508547
221	0xbbfac3a7	-0.007652718
222	0xbe73662c	-0.23769444
223	0x3e1eecf3	0.15520076
224	0xbdbfd8f9	-0.09367556
225	0x3deda79c	0.116042346
226	0xbe041618	-0.12899053
227	0xbe199b33	-0.1500061
228	0x3cd9efa2	0.026603524
229	0x3e8c3e55	0.27391306
230	0xbec4d5a0	-0.38444233
231	0x3efe2ba4	0.4964267
232	0xbe68d12f	-0.22736047
233	0xbec14c9b	-0.37753758
234	0xbebe4feb	-0.37170348
235	0xbe536014	-0.2064212
236	0x3edc4291	0.43019536
237	0x3e6e0bce	0.2324669
238	0xbe4ec848	-0.20193589
239	0x3daf69c9	0.08565099
240	0xbd564bb1	-0.05231828
241	0x3e9eaa26	0.30989188
242	0xbdef3130	-0.11679304
243	0xbf043146	-0.51637685
244	0x3dd1b17d	0.10238931
245	0xbe5ce458	-0.21571481
246	0xbddb7d97	-0.10717314
247	0x3e876757	0.2644603
248	0x3f0153ee	0.5051869
249	0x3dbb0a8e	0.091328725
250	0xbd543557	-0.05180868
251	0xbc8b2c06	-0.016988765
252	0xbed6c10e	-0.41944164
253	0x3e060834	0.13089067
254	0xbe1d7740	-0.15377522
255	0x3e934107	0.2876055
