trained_models/10/doom-model.pth (torch, 106629 bytes, 27 tensors)

weight f4 [8, 1, 3, 3]
0	0xc00af050	-2.1709175
1	0x4014dfe1	2.3261645
2	0xc020f927	-2.515207
3	0xbfa1e15b	-1.2646898
4	0x401a0ab0	2.4069023
5	0x402c4906	2.691957
6	0xbf5f56de	-0.87241924
7	0x402cb1f4	2.6983614
8	0x40210056	2.5156455
9	0x4009a68c	2.1507902
10	0xc0558276	-3.3360877
11	0x40bf931a	5.9867067
12	0x4095287b	4.6611915
13	0xc0ed81f8	-7.4221153
14	0xc0c6cc7b	-6.212461
15	0xc057fffb	-3.3749988
16	0xc076c21a	-3.855597
17	0x404b5d21	3.1775591
18	0x3f4396fe	0.7640227
19	0x40abf557	5.3736987
20	0x3ee2b478	0.44278312
21	0x3eac930c	0.33705938
22	0xc00d9882	-2.2124333
23	0xc08710dd	-4.2208085
24	0xc09ead64	-4.958666
25	0x40131ba4	2.298562
26	0xc0be96d8	-5.9559135
27	0xbfc54a88	-1.541337
28	0x4017bd23	2.370919
29	0x401d843a	2.4611955
30	0x401040f9	2.2539656
31	0x3fb040e2	1.3769801
32	0x3fe152be	1.7603376
33	0x3ff87f69	1.9413882
34	0xc02b92fe	-2.6808467
35	0xc0649421	-3.571541
36	0x409cf7cf	4.90525
37	0xc05cb634	-3.4486208
38	0xc07ab92a	-3.9175515
39	0xbfb3e75a	-1.4054978
40	0xc0c50743	-6.1571364
41	0xc08d3f96	-4.414012
42	0xbf9b5431	-1.2135068
43	0x404f8b31	3.2428706
44	0x402f7c72	2.7419705
45	0x40c498d7	6.143657
46	0xbfeb1a76	-1.836745
47	0x4023d174	2.559659
48	0xc0b7af91	-5.7401814
49	0xc1049178	-8.285515
50	0x410b7a03	8.717288
51	0x40d86b4b	6.7630973
52	0xc10ae3a8	-8.68058
53	0xc05202de	-3.281425
54	0xc0ff5f59	-7.980389
55	0xc02a381b	-2.6596744
56	0x3f35557a	0.7083355
57	0x40652172	3.5801663
58	0x411200e0	9.125214
59	0xc00a7e53	-2.1639602
60	0xbf2d2fdf	-0.6765117
61	0xbfa10a87	-1.2581338
62	0x3e48a924	0.19595772
63	0xc02eb816	-2.7299857
64	0xc0c880d2	-6.265725
65	0x3f88b0b8	1.067893
66	0x4025a639	2.5882704
67	0x406b725f	3.6788557
68	0x40b1a875	5.5518136
69	0xc08f1753	-4.471597
70	0xc1024338	-8.141411
71	0x3fa26140	1.2685928

weight f4 [8]
0	0x4086e96d	4.2159944
1	0x4129f262	10.6216755
2	0x40f481c8	7.6408424
3	0x4085d2f6	4.182002
4	0x40cb74ec	6.3580227
5	0x40fc551a	7.8853884
6	0x40ad4af7	5.415401
7	0x40e5e139	7.183743

bias f4 [8]
0	0xbce422cc	-0.027848624
1	0xc0203c95	-2.5036976
2	0xbeec1672	-0.46110874
3	0xbf6a4575	-0.91512233
4	0x402c8613	2.6956832
5	0x3fbf841a	1.4962189
6	0xbfd7ea0e	-1.6868303
7	0x3f4f2d3f	0.80928415

running_mean f4 [8]
0	0x3f5c11db	0.85964745
1	0xbf9f588c	-1.2448897
2	0xbf971723	-1.1803936
3	0x3f1dd578	0.6165385
4	0xbfaab2d9	-1.333583
5	0xbf1c5818	-0.6107192
6	0xbdc9bd2a	-0.09850533
7	0xbf85630d	-1.0420853

running_var f4 [8]
0	0x3e64c888	0.22342122
1	0x3ef76b18	0.48323894
2	0x3ef79b03	0.48360452
3	0x3e03f7c4	0.12887484
4	0x3ee76b3f	0.4519901
5	0x3eb431d6	0.35194272
6	0x3dfd440b	0.12366494
7	0x3ebf89bc	0.3740977

weight f4 [8, 8, 3, 3]
0	0xbfa61e4f	-1.2978
1	0xbe3c3ac7	-0.18381797
2	0xbf63cb64	-0.88982224
3	0xbeb3fdcd	-0.35154572
4	0x3faa9417	1.3326443
5	0xbfb6cbc5	-1.4280936
6	0xc04e448a	-3.2229333
7	0xbf0114ec	-0.5042255
8	0xbff9443d	-1.947395
9	0x3ead630c	0.3386463
10	0x3fc14e0e	1.5101945
11	0xbfe8836a	-1.8165104
12	0xbe256e7e	-0.1615543
13	0x3ebcca00	0.36872864
14	0x3fc39bce	1.5281923
15	0x3eb2c1cd	0.34913483
16	0xc0473950	-3.112873
17	0x3ebb3766	0.36565703
18	0x3fecfd0f	1.8514727
19	0xc015db6e	-2.341518
20	0xbedebdee	-0.4350428
21	0xbf20b8a5	-0.62781745
22	0x3f693e3f	0.91110605
23	0x3fc0c38c	1.5059676
24	0xbfd13fa3	-1.6347545
25	0xbdd2580c	-0.102707
26	0xbf221106	-0.63307226
27	0x3ff0b9a7	1.8806657
28	0x3e08c3fb	0.1335601
29	0x40250372	2.5783353
30	0xbef03c9e	-0.46921247
31	0x3db6b700	0.08921623
32	0xbf3a8e95	-0.7287381
33	0xc005963a	-2.087294
34	0xbf8f9bb9	-1.1219398
35	0xbfb58d63	-1.4183773
36	0x406e9b85	3.7282422
37	0x40169da1	2.353371
38	0x401e24c7	2.4709947
39	0xc038822f	-2.8829458
40	0xbf3254cd	-0.69660646
41	0x3cc77b08	0.024350658
42	0x40602b47	3.5026414
43	0xbed8770c	-0.42278326
44	0xbf5bbc50	-0.8583422
45	0xbe008cc0	-0.12553692
46	0xbfe2542f	-1.7681941
47	0x3f84e81a	1.0383332
48	0xbfce77ff	-1.613037
49	0x3efb36cd	0.49065247
50	0x3fd7bb48	1.6854029
51	0x3f8b311c	1.0874362
52	0xc0a2c9a7	-5.087116
53	0x3fc9aefa	1.5756524
54	0xbeacee27	-0.33775446
55	0x3f91c171	1.1387159
56	0x3f8dabd3	1.1068062
57	0x3fc47622	1.5348551
58	0x40107d78	2.257658
59	0xbf9387f0	-1.152586
60	0xc036e4d0	-2.8577156
61	0xbfd5d8d9	-1.6706802
62	0xbfba4b07	-1.4554147
63	0x3fd94bd4	1.6976266
64	0x3f929f72	1.1454909
65	0xc0913f05	-4.538943
66	0x403671cb	2.8506954
67	0xbf4a0593	-0.78914756
68	0xbf27114c	-0.6526077
69	0x3f5b6541	0.85701376
70	0xc035b372	-2.8390775
71	0xbf3e4a05	-0.74331695
72	0x3f5f1520	0.8714161
73	0xbfec0957	-1.844035
74	0xbf080795	-0.5313657
75	0x3f733a41	0.95010763
76	0xbf301877	-0.6878733
77	0x3f39b205	0.7253726
78	0xc03bc448	-2.933855
79	0xc038ae17	-2.8856256
80	0xc00991d1	-2.149525
81	0xbf916596	-1.1359127
82	0xbf20e58e	-0.6285027
83	0xc015664e	-2.3343692
84	0x3f1f14f5	0.6214135
85	0x40ad1414	5.408701
86	0xc00305e3	-2.0472343
87	0x3f691c40	0.9105873
88	0xc0a2ab7e	-5.083434
89	0xc0685074	-3.6299105
90	0xbe9925eb	-0.29911742
91	0x40255ce3	2.5837944
92	0xbdb11d90	-0.08648217
93	0xbeea3078	-0.45740104
94	0x3fa223d9	1.266719
95	0xbe43e8a5	-0.19131716
96	0xc007a629	-2.1195166
97	0xc07e41c6	-3.9727645
98	0xc01385fd	-2.305053
99	0xbe362769	-0.17788471
100	0x3cad8733	0.021182632
101	0xbf3edc92	-0.74555314
102	0x3fb78dc9	1.4340144
103	0xbf4dcc96	-0.803903
104	0x3dbd2466	0.09235458
105	0xbf7c3a70	-0.9852667
106	0xbe53924e	-0.2066128
107	0xbecd9628	-0.40153623
108	0xc0816c86	-4.0444975
109	0xc054fd11	-3.327946
110	0xbf45b281	-0.772255
111	0x3f8913a2	1.0709116
112	0x40009ae8	2.0094547
113	0xbf36b734	-0.71373296
114	0x3f87433d	1.0567394
115	0x40617c8e	3.5232272
116	0xbfa537b9	-1.290763
117	0x40a3454f	5.1022105
118	0xbf86d17c	-1.053268
119	0x4063f3aa	3.561747
120	0x3fed7deb	1.8554052
121	0x400b8527	2.180002
122	0xc00b750c	-2.179019
123	0xc0205e65	-2.5057614
124	0x3f57f6a3	0.8436071
125	0xc0243c03	-2.5661628
126	0x3faa87b5	1.3322664
127	0xc03d811a	-2.9610047
128	0xbf87653d	-1.057777
129	0x3f10b1b6	0.56521165
130	0x3ef4de52	0.47825867
131	0xc0148942	-2.3208776
132	0x4037a6a4	2.869546
133	0xc00758ad	-2.1147873
134	0xbf9428e5	-1.157498
135	0x3eb25312	0.34829003
136	0xbfd3aaa5	-1.6536452
137	0xbfc0bd44	-1.5057759
138	0x3e13fa10	0.1445086
139	0x3fc31cec	1.5243201
140	0x3fccf22b	1.6011404
141	0xbfe9d21e	-1.8267248
142	0x3fef111a	1.8677094
143	0xbfe3b4cb	-1.7789549
144	0xbfe2f865	-1.7732054
145	0xc022863b	-2.5394428
146	0x3e03c4b5	0.12868007
147	0x3fde594e	1.7371004
148	0x3f8801a0	1.0625496
149	0xc0122ba0	-2.2839127
150	0x3e850113	0.25977382
151	0xbfcfcda5	-1.6234633
152	0xbecab7a1	-0.39593223
153	0xbf221a47	-0.63321346
154	0xbfae4239	-1.361396
155	0x3ef5c028	0.47998166
156	0xbeb95650	-0.36198664
157	0x3f9d45fa	1.228698
158	0x405a93cb	3.4152706
159	0xbe0ea4ba	-0.13930026
160	0xbff3071d	-1.8986546
161	0x3fef1bb9	1.8680335
162	0xbfca39b9	-1.5798866
163	0xbfe98f4d	-1.8246857
164	0xc03627f0	-2.8461876
165	0xbfc5027f	-1.5391387
166	0xbea5b9c7	-0.323683
167	0x403964c7	2.896776
168	0x3f96d21d	1.1782871
169	0xc08af137	-4.341945
170	0xbee13bae	-0.43990844
171	0xbfd2449b	-1.6427187
172	0xc01720ca	-2.3613763
173	0x3ec89640	0.39177132
174	0xc066d904	-3.6069956
175	0x3ec8bd1c	0.3920678
176	0xbe92b8f9	-0.28656748
177	0xbf146ea6	-0.57981336
178	0x3ee80d68	0.45322728
179	0xbf8b795e	-1.0896413
180	0x3ff411c4	1.9067922
181	0xbeab17e6	-0.3341667
182	0x3faddba3	1.3582653
183	0x3fcde5dd	1.6085774
184	0xc0b17577	-5.545589
185	0x3e38d764	0.18050915
186	0xc0163452	-2.3469434
187	0x405d079a	3.453589
188	0xbdd69210	-0.10477078
189	0x3d565150	0.05232364
190	0xc082cb9d	-4.087355
191	0xbde426af	-0.11140191
192	0xbfaa648a	-1.3311932
193	0x406337d3	3.5502822
194	0x3fe8a1f9	1.817443
195	0xc04f9699	-3.2435668
196	0x402c3e7a	2.6913133
197	0x4018fecd	2.3905518
198	0x3eda1782	0.4259606
199	0xbe405818	-0.18783605
200	0xc015f13b	-2.3428485
201	0xbf202b3a	-0.6256596
202	0xbeafcda8	-0.3433659
203	0xc01476ea	-2.319758
204	0xbf04dd20	-0.5189991
205	0xbf8ef330	-1.1167965
206	0xbf4033d3	-0.7507908
207	0xbf60f3ce	-0.87872016
208	0x3fdc421d	1.7207676
209	0xc0955ba1	-4.667435
210	0xc03ea9c0	-2.9791107
211	0x3f98dbb2	1.1942046
212	0xbf7716ca	-0.9651915
213	0xbf9e9d9f	-1.2391852
214	0x3ffaa147	1.9580468
215	0x3fc86130	1.5654659
216	0xbfb60a11	-1.4221822
217	0x3f7fb9dc	0.99892974
218	0xbe96f7a0	-0.29485798
219	0xbf39b14f	-0.72536176
220	0x3d5dedd6	0.054181896
221	0x3f9f89a0	1.2463875
222	0xbfa19cc5	-1.2625967
223	0xbf1eb2d7	-0.6199164
224	0xc04726c5	-3.1117413
225	0xc074ad1b	-3.8230655
226	0xbfef018b	-1.8672346
227	0xc008fd54	-2.140462
228	0xc02789a5	-2.6177762
229	0x3ff98815	1.9494654
230	0xbf8a2287	-1.0791787
231	0x40829d08	4.081669
232	0xc087fcd7	-4.2496142
233	0xc002f6d6	-2.0463157
234	0xc0712ddb	-3.7684238
235	0xbff40aee	-1.9065835
236	0x3fd7cc02	1.6859133
237	0x3fa0b9e1	1.2556726
238	0xbf5a7ff3	-0.85351485
239	0x3ef359aa	0.47529346
240	0x4047681b	3.115729
241	0x3fcdbcf1	1.6073285
242	0xc086d876	-4.2139235
243	0xbf8d6250	-1.1045628
244	0x3f914b3f	1.1351088
245	0xbec759d4	-0.3893572
246	0xbccbecbe	-0.02489316
247	0xbfb4556d	-1.408857
248	0xbe2647df	-0.16238354
249	0x3f88abca	1.0677426
250	0xc02a32ee	-2.6593585
251	0xbe8240cd	-0.25440064
252	0xbef29ec1	-0.47386745
253	0xbf9d7f37	-1.2304448
254	0x3fa468d8	1.2844496
255	0x405fa8bb	3.4946735

weight f4 [8]
0	0x40aef206	5.467044
1	0x40f1e520	7.5592194
2	0x40b86d1a	5.763318
3	0x40c29a16	6.0813093
4	0x409df693	4.9363494
5	0x40d12fd1	6.537087
6	0x40c94b37	6.2904315
7	0x40ca1406	6.3149443

bias f4 [8]
0	0x3fcb93ce	1.5904481
1	0xbfd34d22	-1.6507914
2	0x3f457f07	0.77146953
3	0x3f48bb29	0.78410584
4	0x3fe2aca4	1.7708936
5	0x3f5ab9e6	0.8543991
6	0x40245429	2.5676367
7	0xbe2bedc2	-0.16789916

running_mean f4 [8]
0	0xc0f3aa34	-7.6145267
1	0xc22bf277	-42.986782
2	0xc21d0d8f	-39.26324
3	0xc258a033	-54.156445
4	0xc22cfee9	-43.248936
5	0xc23882bc	-46.12767
6	0xc260e332	-56.22187
7	0xc191ea72	-18.239475

running_var f4 [8]
0	0x45395571	2965.34
1	0x455e0c63	3552.7742
2	0x4527164b	2673.3933
3	0x455b0337	3504.201
4	0x45087ccd	2183.8
5	0x453d0c33	3024.7625
6	0x456317b7	3633.4822
7	0x452f95bd	2809.3586

weight f4 [8, 8, 3, 3]
0	0x3fe2bcbc	1.7713847
1	0x40506b92	3.2565656
2	0xc00fb8ea	-2.2456613
3	0x3fd5d59d	1.6705815
4	0x3fc9b1e9	1.5757419
5	0x40115f73	2.2714508
6	0xbfe017be	-1.7507246
7	0xbf6091b6	-0.8772234
8	0x3f05e1c8	0.5229764
9	0xc030f02b	-2.7646587
10	0x400acea4	2.1688623
11	0x40382d0e	2.87775
12	0xbd378e44	-0.04481341
13	0x402ed541	2.731766
14	0xc0453c40	-3.0818024
15	0xbe23aa9b	-0.1598305
16	0x3faaa914	1.3332849
17	0xbf929064	-1.1450315
18	0xbf197549	-0.5994459
19	0xbfa99fc0	-1.3251877
20	0xc089365b	-4.287885
21	0xbe9512ed	-0.29116002
22	0x3f1fc88a	0.62415373
23	0x401672a0	2.3507462
24	0x3f138495	0.5762418
25	0xbfe7db9a	-1.8113892
26	0x3f9bbd24	1.2167096
27	0x3ff006f2	1.875212
28	0x3f7f90c7	0.9983029
29	0xbf79d58d	-0.9759148
30	0xc0333b0a	-2.8004785
31	0xbfeb3970	-1.8376904
32	0x3f987caf	1.191305
33	0x3ee30987	0.44343206
34	0x3f8d67cc	1.1047301
35	0xbea021eb	-0.31275877
36	0xbef442e1	-0.47707275
37	0x4042f65b	3.0462863
38	0xbe380a36	-0.17972645
39	0x3f280b30	0.6564207
40	0xbc705514	-0.014668722
41	0xc084a077	-4.144588
42	0xc027fdf2	-2.6248746
43	0x3f9bfc3f	1.2186354
44	0xbfceb03d	-1.6147534
45	0xc096fc48	-4.718296
46	0x3fbd2e8e	1.4779832
47	0x3fd0d502	1.6315005
48	0xbf3255b3	-0.69662017
49	0xbfadfbbe	-1.3592451
50	0xc08c07c9	-4.3759503
51	0x3f82e89b	1.0227236
52	0xc05c7107	-3.4443986
53	0xbfb1332a	-1.3843739
54	0x403247de	2.7856364
55	0x3fa86766	1.3156555
56	0xc0201382	-2.5011907
57	0xc025565e	-2.5833964
58	0x3c26f937	0.010191253
59	0xbfb0e0e6	-1.3818634
60	0xbffc8348	-1.9727564
61	0x3f39b1e6	0.72537076
62	0xbfa577b8	-1.292716
63	0xc019f9ed	-2.4058793
64	0xbf5323d5	-0.8247655
65	0xc0477465	-3.1164792
66	0x3ebfb11c	0.3743981
67	0x3f51655d	0.81795293
68	0x3fc83e6c	1.564405
69	0x3f90ae61	1.1303216
70	0xc00ca5ac	-2.1976118
71	0xbf759763	-0.9593412
72	0xbfb6bce4	-1.4276395
73	0xbfd31539	-1.6490852
74	0x3f8c6344	1.0967793
75	0x3e889956	0.26679486
76	0xbf7c2778	-0.98497725
77	0xbfb6fb0b	-1.4295362
78	0x3e8b1379	0.27163294
79	0x3f8ecf8f	1.1157092
80	0xbf072cb2	-0.52802575
81	0xbf9aab17	-1.2083462
82	0x3fc40aff	1.5315856
83	0x3f9270f0	1.1440716
84	0x3fa5c769	1.295148
85	0x4018b75b	2.3861911
86	0xbfd07323	-1.6285137
87	0xbf86bf89	-1.0527202
88	0xbff39f97	-1.9033078
89	0xbfd50ff7	-1.6645497
90	0xbfc3b6fc	-1.5290217
91	0x3f507e99	0.8144317
92	0x3fad54ef	1.3541545
93	0x3f67f763	0.9061186
94	0x3ea126b6	0.31474847
95	0xc080f427	-4.0298038
96	0xc01526bb	-2.330489
97	0xbfb5ca08	-1.420228
98	0x403095de	2.7591472
99	0xbe383a4d	-0.1799099
100	0xc01c6c47	-2.4441087
101	0xbef2928a	-0.47377425
102	0x3f4fff94	0.81249356
103	0x3eaeb9fd	0.34126273
104	0x404d3bfd	3.2067864
105	0x3f812f54	1.0092568
106	0xc08b4e1c	-4.353285
107	0xbfa365db	-1.2765459
108	0xc07935ac	-3.8939009
109	0x4001c0eb	2.0273998
110	0xbf24842b	-0.6426417
111	0xbfa904f0	-1.3204632
112	0x3fbc1bc9	1.4695979
113	0x3f90fb89	1.1326762
114	0xbfecccf4	-1.8500047
115	0x3fe5bc03	1.7948002
116	0x3e43cb22	0.19120458
117	0xc0b8a606	-5.7702665
118	0x40026c1f	2.0378492
119	0xbf3d23c0	-0.73882675
120	0x3f2d80b2	0.677745
121	0xc0a337d8	-5.100567
122	0x4061dcf5	3.5291111
123	0xc088ed8b	-4.278997
124	0x4009b210	2.151493
125	0xbfcd4b1d	-1.6038548
126	0xbf8276f8	-1.0192556
127	0xbf8a6d1a	-1.0814545
128	0x3fc45245	1.5337607
129	0x3e97e85b	0.2966946
130	0x4043f75d	3.0619729
131	0xbe9a4ea6	-0.3013813
132	0xbf7a6f2e	-0.97825897
133	0x3ecdb28f	0.40175292
134	0x40097c9d	2.1482308
135	0xbe9782bb	-0.29591927
136	0x3fa76fec	1.3081031
137	0xc05d1734	-3.4545412
138	0xc00024ff	-2.002258
139	0xbfc819d9	-1.5632888
140	0xbfeb7996	-1.839648
141	0x3f444491	0.76667124
142	0xbfa1c973	-1.2639602
143	0xbff52f20	-1.9155006
144	0xbfae0fbc	-1.3598552
145	0xbdef5463	-0.11686017
146	0xc010bd0f	-2.2615392
147	0x401754b9	2.364546
148	0xbf518e01	-0.81857306
149	0x3ffbb8ef	1.9665812
150	0x402cedcb	2.7020137
151	0xc07e789b	-3.9761112
152	0x3f5da80e	0.86584556
153	0x3f30046d	0.68756753
154	0x3e2a1f99	0.16613616
155	0x405238e5	3.2847226
156	0xc023635e	-2.55294
157	0x3fc6fd29	1.5546008
158	0xbf265a80	-0.6498184
159	0x3f859373	1.0435623
160	0xc02950cf	-2.6455572
161	0x4075a948	3.838457
162	0x3f3e3350	0.74297047
163	0xbf0c63c0	-0.54839706
164	0x4050dfb1	3.263653
165	0xbfef9306	-1.8716743
166	0xbe4a1584	-0.1973477
167	0x3f199a04	0.60000634
168	0x3d6f51b0	0.058427513
169	0x3fa84d7d	1.3148648
170	0x3f654076	0.89551485
171	0x40727022	3.788094
172	0x407fe950	3.9986153
173	0xbf90e31c	-1.1319308
174	0xc021ad19	-2.52619
175	0x3ef9ebaf	0.48812625
176	0xbeae93a4	-0.34097016
177	0x3f9b8963	1.2151302
178	0x3f873ac7	1.0564812
179	0xbf64fc84	-0.8944781
180	0xbf5b0c85	-0.8556598
181	0x3fbbcab7	1.4671239
182	0x3e410b2c	0.18851918
183	0xbfee1022	-1.8598673
184	0x400b386b	2.1753185
185	0xbddd3fc8	-0.10803181
186	0xbf6cdd3a	-0.92525065
187	0xbf51cb09	-0.8195043
188	0xc01d38a4	-2.456582
189	0x40856015	4.167979
190	0xc0480ef0	-3.1259117
191	0xbfb03d15	-1.3768641
192	0xbf581f7f	-0.8442306
193	0xbd00a028	-0.031402737
194	0x40357315	2.835149
195	0x3e95b09e	0.2923631
196	0xbd95fdbe	-0.07323788
197	0xbeb4acbc	-0.35288036
198	0x3f5b836b	0.857474
199	0xbf8c7c04	-1.0975347
200	0xbe105cbc	-0.14097875
201	0x3fc0da16	1.5066555
202	0x405195da	3.2747712
203	0xbfc61597	-1.5475339
204	0xbea27fce	-0.31738132
205	0x3f94db7f	1.1629485
206	0x3ecc6551	0.39921048
207	0x402f2e2c	2.737193
208	0x406b8420	3.6799393
209	0xbfcf86c5	-1.6213003
210	0xbfb473a0	-1.4097786
211	0x3f36b7fb	0.7137448
212	0xbf564c0f	-0.83709806
213	0xc025077c	-2.5785818
214	0x3f6898ff	0.90858454
215	0xbf9e8c9b	-1.2386659
216	0xbf06c505	-0.5264438
217	0xbfeb7d25	-1.8397566
218	0x40320a69	2.7818854
219	0xbf81b128	-1.0132189
220	0xbf542c19	-0.8287979
221	0xbffe519c	-1.9868655
222	0x40018578	2.0237713
223	0xbc4a604a	-0.012352059
224	0xc07e2ba5	-3.9714139
225	0xbf42fa4c	-0.7616317
226	0xc010d351	-2.2628977
227	0x3f37686c	0.7164371
228	0x3f9c2b34	1.2200685
229	0x3f20385e	0.6258601
230	0x3f8f5a9a	1.1199524
231	0x3ff5eec9	1.9213496
232	0x3feb1d42	1.8368304
233	0x3f0cebd5	0.5504735
234	0xbf703756	-0.93834436
235	0x3fddc3d4	1.7325387
236	0x40363117	2.8467462
237	0xbf203ae2	-0.6258985
238	0xbb926b08	-0.0044683255
239	0xc056a1d4	-3.3536272
240	0xbeec216d	-0.46119252
241	0x404ad03c	3.1689596
242	0xc01bdac3	-2.4352272
243	0x404b98c9	3.1812003
244	0xc08aaf19	-4.333874
245	0x40a9a1a8	5.3009834
246	0xbfbba17e	-1.4658659
247	0x3ff61396	1.9224727
248	0x3feeda98	1.866046
249	0xbf58910a	-0.8459631
250	0xc015a78f	-2.338352
251	0x3faafb2d	1.3357903
252	0x402b1d96	2.6736808
253	0xbe2eaeb2	-0.17058828
254	0xbf5c789b	-0.8612153
255	0x402ad605	2.6693127

weight f4 [8]
0	0x40b32776	5.598567
1	0x40e77153	7.2325835
2	0x40c77dbd	6.234099
3	0x40d3b022	6.6152506
4	0x40c34955	6.1027017
5	0x40c1aa61	6.052048
6	0x40a378e4	5.108507
7	0x409f3afd	4.9759507

bias f4 [8]
0	0x3eeb85dd	0.46000567
1	0xc0323961	-2.7847521
2	0xc0063034	-2.096692
3	0xc01767c6	-2.3657088
4	0xbeea9882	-0.4581948
5	0xbf566a12	-0.837556
6	0xbe022a7e	-0.12711522
7	0x3f9a8679	1.2072288

running_mean f4 [8]
0	0xc271d954	-60.462234
1	0xc286c79f	-67.389885
2	0x422e3f1d	43.561634
3	0x4195b979	18.715563
4	0xc25f9b53	-55.901684
5	0xc24465d0	-49.099426
6	0xc215f42e	-37.488457
7	0xc1d89949	-27.074846

running_var f4 [8]
0	0x45560a45	3424.6418
1	0x4548c0c7	3212.0486
2	0x451dc5a7	2524.3533
3	0x4541e320	3102.1953
4	0x452c21a8	2754.1035
5	0x4528e826	2702.5093
6	0x4529af91	2714.973
7	0x4538a8cb	2954.5496

weight f4 [16, 8, 3, 3]
0	0x4034b39d	2.8234627
1	0xbf621b26	-0.88322675
2	0x3ea66736	0.3250062
3	0x3fb71e21	1.430607
4	0x3ec76e5d	0.38951388
5	0xbe32bab1	-0.1745403
6	0xc0107e7d	-2.2577202
7	0x3eca9910	0.39569902
8	0xbf13b1f5	-0.57693416
9	0xbf2d9f9d	-0.67821676
10	0x400f48c9	2.2388175
11	0x3fcb3fd9	1.587886
12	0xbf98c051	-1.193369
13	0x3f0ba370	0.5454626
14	0xbfb47c51	-1.4100438
15	0xbe4e72e7	-0.2016102
16	0xc0345b5c	-2.8180761
17	0x3fe30f5b	1.7739061
18	0xc0378099	-2.867224
19	0x3f6a5893	0.91541404
20	0x3c1ee994	0.009699244
21	0x3f4d7d66	0.8026947
22	0x3f613d24	0.8798392
23	0xc0243ba8	-2.5661411
24	0xc033e340	-2.8107452
25	0xbfa57a6f	-1.2927989
26	0x3f54b2df	0.83085436
27	0x3d9e32fb	0.077245675
28	0xc02c3913	-2.6909835
29	0xc02dd7e7	-2.7163026
30	0x3ef0b7db	0.4701527
31	0xbf66a9b5	-0.901027
32	0x400bbbaf	2.1833303
33	0x3f1c2586	0.60994756
34	0xbf464725	-0.7745231
35	0xc0025248	-2.036272
36	0xbff88838	-1.9416571
37	0xbe37e0a8	-0.17956793
38	0x3f11dc37	0.56976646
39	0xbf7c9aa9	-0.9867349
40	0xbfbeb555	-1.4899088
41	0xbf90adac	-1.1303
42	0xbfc79442	-1.559212
43	0xbf147338	-0.5798831
44	0x3fe08336	1.7540042
45	0xbe86b505	-0.26309982
46	0x3e2ff217	0.17182194
47	0x3ff30bb4	1.8987947
48	0x3f0168c5	0.5055049
49	0x3f205281	0.6262589
50	0x3fcdc0c3	1.6074451
51	0xbf4f4f96	-0.80980814
52	0x4065e943	3.5923622
53	0xbddff256	-0.10934894
54	0xbf02e5bc	-0.51131797
55	0xbf2c9a2b	-0.6742274
56	0x403f17c0	2.9858246
57	0x3f7f6354	0.9976094
58	0xbdd23cc4	-0.102654964
59	0xbe913f7b	-0.28368744
60	0xbe29025e	-0.1650481
61	0xc0567d81	-3.3514102
62	0x3fbb5ad7	1.4637097
63	0x3f2d31c1	0.67654043
64	0xc0562deb	-3.3465526
65	0x4045ba5d	3.0894997
66	0xbe211107	-0.15729152
67	0xbefd04f2	-0.49417835
68	0xbf522ec1	-0.8210259
69	0xbf0c581a	-0.5482193
70	0xbf574c6e	-0.84101
71	0xbfb9e43b	-1.4522775
72	0x3f6a36ed	0.9149006
73	0x3fe457f4	1.7839341
74	0x3ebc3836	0.36761636
75	0xc01717dd	-2.3608315
76	0xbf83f313	-1.0308555
77	0x40007a40	2.0074615
78	0x3fa29ff4	1.2705064
79	0xbee7320a	-0.45155364
80	0xbc9deebe	-0.01927888
81	0x401984e7	2.3987367
82	0x3fc0cad2	1.5061896
83	0xc0553933	-3.3316162
84	0x3f268ea7	0.6506142
85	0xbff64e4c	-1.9242644
86	0x3f02c1a7	0.5107674
87	0x3e843397	0.2582061
88	0x3f0fc82a	0.561648
89	0x3f2b4ca9	0.6691385
90	0x3fc6fa2a	1.5545094
91	0xc01b6e88	-2.4286213
92	0xc01fa47a	-2.4944139
93	0x3f8f1eaf	1.1181239
94	0xbfd2520f	-1.6431292
95	0x3ed22d91	0.4105039
96	0xc034f1db	-2.8272617
97	0x3ea73990	0.32661104
98	0x40005afd	2.0055535
99	0xbe22dafe	-0.15903851
100	0x40476bd1	3.1159556
101	0xbeb83063	-0.35974416
102	0x3e14b088	0.14520466
103	0xbd62cea6	-0.055372857
104	0xbfaf2904	-1.3684392
105	0xbf824e76	-1.0180194
106	0x3e30e585	0.17275055
107	0xbfa7aa08	-1.3098764
108	0x3fc6ea6a	1.5540287
109	0xc024d410	-2.5754433
110	0x3fb7f69a	1.4372132
111	0xbfa35b8a	-1.276231
112	0x3ebab278	0.36464286
113	0x3f01f8de	0.50770366
114	0x3f455595	0.7708371
115	0x3e5aa82f	0.2135322
116	0x3f2b7c64	0.6698668
117	0xc01bccac	-2.4343672
118	0xbf08b233	-0.5339691
119	0x3de8aad5	0.113607086
120	0xbf05ad2c	-0.52217364
121	0x400c8941	2.1958773
122	0x3e64a7be	0.22329614
123	0x3ea9587d	0.33075324
124	0xbf942f2f	-1.1576899
125	0x3f500b48	0.81267214
126	0x3f9702c6	1.1797721
127	0xc02df4ec	-2.7180738
128	0xbf82f3e5	-1.0230681
129	0xbdd1ad77	-0.10238164
130	0xbf821747	-1.0163354
131	0xbfe7ba4c	-1.8103728
132	0xc0185aba	-2.3805375
133	0xbed2d70c	-0.41179693
134	0xbfc53aef	-1.540861
135	0xbf7c999d	-0.98671895
136	0xbfbc6b2b	-1.4720205
137	0x402809b2	2.6255918
138	0xbeaad81e	-0.3336801
139	0xc001238b	-2.0177944
140	0xc01adc67	-2.4197023
141	0xbf0bb086	-0.5456623
142	0x3ee8f441	0.4549885
143	0xbe53f824	-0.20700127
144	0x3ff8e7b3	1.9445709
145	0xbf2a97ae	-0.66637695
146	0xbfd2a5ff	-1.6456908
147	0xc000f2e1	-2.0148242
148	0xbfc2cfe0	-1.5219688
149	0x3dc981b0	0.09839189
150	0xbf8c96f3	-1.0983566
151	0xc060dc2d	-3.5134385
152	0x3ea70a26	0.3262493
153	0x3e6674f2	0.22505549
154	0x3f09104e	0.53540504
155	0x3f9ba0ce	1.2158449
156	0xbe735076	-0.23761162
157	0xbfca61a2	-1.5811045
158	0xbf62b7c1	-0.88561636
159	0xc039e38b	-2.9045131
160	0xbf2023cb	-0.62554616
161	0xbf8b1c10	-1.0867939
162	0x3d92452a	0.07142098
163	0xbf79c6e9	-0.9756914
164	0xc01fa94e	-2.4947085
165	0xbf6e068a	-0.9297873
166	0xbf4352aa	-0.7629801
167	0x3e956283	0.2917672
168	0xbf801891	-1.0007497
169	0x3f451288	0.769814
170	0xbf0020c9	-0.50050026
171	0xbf380808	-0.71887255
172	0x3fe8c5ef	1.8185405
173	0xbfbca9bd	-1.47393
174	0x3fd7cb72	1.6858962
175	0xbe3b20ff	-0.18274306
176	0xbf988b1a	-1.191745
177	0xc00f30ee	-2.2373614
178	0xbfe78478	-1.8087301
179	0x3ffa7fb5	1.9570223
180	0xc0277c0a	-2.6169457
181	0xbf5200a1	-0.8203221
182	0xc01ad0b4	-2.4189882
183	0xbff13765	-1.884503
184	0xbf1137b6	-0.56725633
185	0xbe81661c	-0.25273216
186	0xbf9ea35b	-1.2393602
187	0xbf72c502	-0.9483186
188	0xbfa6fa18	-1.3045073
189	0x401984d8	2.3987331
190	0xc04a63a0	-3.1623306
191	0x3f9fb7f4	1.2478013
192	0xc00517af	-2.0795705
193	0x4020f039	2.514662
194	0xbfee6199	-1.8623534
195	0xbfe280fb	-1.7695612
196	0x3f9bc675	1.2169939
197	0xbf638d01	-0.8888703
198	0x3eccb074	0.39978373
199	0x3f15acd9	0.5846687
200	0xbf3f6b6f	-0.74773306
201	0xbfe7d5ad	-1.8112084
202	0x3f6a56a2	0.9153844
203	0xbea66afb	-0.32503495
204	0x4018ae86	2.385652
205	0x3edeea2e	0.4353804
206	0x3fdf0f37	1.7426518
207	0xbf075d66	-0.5287689
208	0x3ec19015	0.37805238
209	0x40038dde	2.055534
210	0x4006126d	2.0948746
211	0xbf0cb8a7	-0.5496926
212	0x3fd07428	1.6285448
213	0x3f0b7c40	0.54486465
214	0x3fa97d73	1.3241409
215	0x3ead865a	0.33891565
216	0xbfa40ffa	-1.2817376
217	0x3f13b5da	0.5769936
218	0xc041e788	-3.0297565
219	0x3eedd361	0.46450332
220	0x3e9808e1	0.29694274
221	0x3f633b08	0.8876195
222	0x3f492bc4	0.78582406
223	0x3fda45bb	1.705253
224	0x3f8ec086	1.1152503
225	0x3e0fd526	0.14046153
226	0xbf044a68	-0.51676035
227	0xbf15dce5	-0.58540183
228	0xbf6084f3	-0.87702864
229	0xbebd87da	-0.3701771
230	0xbe6e9f1d	-0.23302884
231	0x402363bc	2.5529623
232	0x3fcc5544	1.5963521
233	0x3cf64a86	0.030064832
234	0xc03d7e11	-2.9608195
235	0x3ffe6b9f	1.9876593
236	0x40175968	2.364832
237	0xbdd36aa3	-0.10323074
238	0x3f82b7df	1.0212363
239	0xbef54ebe	-0.47911638
240	0x3e5517e5	0.20809896
241	0xbfe0ffa7	-1.7578019
242	0xbfc969e9	-1.5735446
243	0x3f06db5d	0.5267847
244	0xbfe19f5d	-1.7626759
245	0xc026a7c6	-2.60399
246	0xbf923796	-1.1423213
247	0x3fd747ce	1.6818788
248	0xbf7b2c89	-0.9811483
249	0x40273556	2.6126304
250	0xbf43b29a	-0.764444
251	0xbea50304	-0.32228863
252	0xc01150ed	-2.2705643
253	0xbeb96e14	-0.36216795
254	0x3f856c4e	1.0423677
255	0xc02bc4d0	-2.6838875

weight f4 [16]
0	0x405b48ea	3.4263253
1	0x405af26f	3.421047
2	0x406e4007	3.722658
3	0x4061b0dc	3.5264196
4	0x4059ff37	3.406202
5	0x403ac859	2.9184783
6	0x4030a956	2.7603354
7	0x40820f57	4.0643725
8	0x40da05bb	6.8131995
9	0x40db6442	6.8559885
10	0x40c4cbeb	6.1498923
11	0x40d62b15	6.692759
12	0x40daa725	6.8329034
13	0x40d06304	6.512087
14	0x40e02201	7.004151
15	0x40de0d9c	6.9391613

bias f4 [16]
0	0xbf688d45	-0.9084056
1	0xbfaccc51	-1.3499852
2	0xbfee1fef	-1.8603495
3	0xbf7c325c	-0.9851434
4	0xc00588ef	-2.0864828
5	0xbf6b73e5	-0.91973716
6	0xbe065ba2	-0.13120893
7	0xc0057ce9	-2.085749
8	0xbf8abf33	-1.0839599
9	0xbf12abe8	-0.5729356
10	0xbd216663	-0.039404284
11	0xbf8acf76	-1.0844562
12	0xbf2412a0	-0.6409092
13	0xbf236b51	-0.63835627
14	0xbfaa64b1	-1.3311979
15	0xbf2cdb6f	-0.6752233

running_mean f4 [16]
0	0xc1cfad47	-25.959608
1	0xc2043ed2	-33.061348
2	0xc23e7eef	-47.62396
3	0xc0ce0a78	-6.438778
4	0x414a7be3	12.655246
5	0x401d18b9	2.454634
6	0xc28bba88	-69.86432
7	0xc19bb0e1	-19.461367
8	0xc0aee5fd	-5.4655747
9	0xc212a875	-36.66451
10	0xc1b14ced	-22.162561
11	0x4215adf9	37.419895
12	0xc1f1f8e4	-30.246529
13	0x41b7a4ee	22.955532
14	0x407ebb1a	3.9801698
15	0xc102f4e1	-8.184785

running_var f4 [16]
0	0x44cff3c8	1663.6182
1	0x44bbe897	1503.2684
2	0x44a1fa97	1295.8309
3	0x44d5ae56	1709.448
4	0x449dc2dd	1262.0895
5	0x44b80e92	1472.4553
6	0x44ac5253	1378.5726
7	0x44e54d71	1834.42
8	0x449c5c4e	1250.8845
9	0x448c8ed0	1124.4629
10	0x4495906d	1196.5133
11	0x44c45a8e	1570.8298
12	0x44b56ffa	1451.4993
13	0x448be005	1119.0006
14	0x449dc516	1262.1589
15	0x44a96ea1	1355.4572

weight f4 [64, 96]
0	0xbf912351	-1.1338903
1	0x3e4b8039	0.19873132
2	0xbef96318	-0.48708415
3	0x3e51b544	0.20479304
4	0xbd3b1ad6	-0.04567989
5	0x3ecbc74b	0.39800486
6	0xbecf59b2	-0.4049812
7	0x3cb4eb14	0.02208475
8	0x3e783b49	0.24241365
9	0xbd5391e7	-0.051652815
10	0xbebb011d	-0.36524287
11	0x3f4d265e	0.8013667
12	0xbf453156	-0.77028406
13	0xbf45d7f1	-0.77282625
14	0xbf024a8e	-0.5089501
15	0x3efefbe3	0.4980155
16	0xbf543877	-0.8289866
17	0x3e053608	0.13008893
18	0x3e8d7647	0.276293
19	0x3f94e092	1.1631033
20	0x3e9b2b74	0.3030659
21	0xbe8d65dc	-0.27616775
22	0x3d2c895a	0.042123176
23	0xbea83925	-0.32856098
24	0x3dec036a	0.11524089
25	0xbf0a634e	-0.54057777
26	0x3f3665b8	0.7124896
27	0x3e258ec8	0.16167748
28	0xbe7c916e	-0.24664852
29	0xbeb17568	-0.34659886
30	0x3da2fddc	0.07958576
31	0x3eb7d4b8	0.3590448
32	0x3e94e0eb	0.2907785
33	0x3e7ec17a	0.24878493
34	0x3e74ec1d	0.23918195
35	0x3f23d8e9	0.64002854
36	0xbc20184c	-0.009771418
37	0xbe44c05c	-0.19214004
38	0x3e248f1c	0.16070217
39	0x3d718535	0.058964927
40	0x3ec217a3	0.37908658
41	0x3f2d1a47	0.6761822
42	0xbe84f0ce	-0.2596497
43	0x3ec5d650	0.3864007
44	0xbf51ae1b	-0.8190629
45	0x3e17b620	0.14815569
46	0xbeca0e9a	-0.39464265
47	0x3e221e87	0.15831958
48	0xbf5e649a	-0.86872256
49	0x3e988680	0.29790115
50	0xbf05fde7	-0.5234055
51	0xbeeea53f	-0.46610448
52	0xbee97343	-0.4559575
53	0xbf58edb3	-0.847377
54	0x3e44e08c	0.19226283
55	0x3f499051	0.78735834
56	0xbe54c21d	-0.20777173
57	0xbecafd89	-0.39646557
58	0xbed99b58	-0.4250133
59	0xbe93f3fa	-0.28897077
60	0x3ea7bc32	0.3276077
61	0x3d87b0a0	0.066254854
62	0xbf73ffbe	-0.95312107
63	0xbf3f9c52	-0.748479
64	0x3d8e27de	0.06941198
65	0xbecd2825	-0.4006969
66	0xbe011d28	-0.12608778
67	0x3e8d7079	0.27624872
68	0xbd187386	-0.037219547
69	0xbedc5681	-0.43034747
70	0x3f25f977	0.6483378
71	0xbecc4576	-0.39896744
72	0x3f1f61a5	0.6225837
73	0x3ee270fb	0.44226822
74	0x3e953d29	0.29148224
75	0x3f5d8f79	0.86547047
76	0x3f80e54f	1.006998
77	0xbe0108d7	-0.12601028
78	0xbebbb173	-0.3665882
79	0x3de59918	0.11210841
80	0xbe5e9a30	-0.21738505
81	0xbf20e9a2	-0.62856495
82	0x3f77296e	0.9654759
83	0x3ebd97c0	0.3702984
84	0x3e90b3ea	0.28262264
85	0xbe8eb9a1	-0.27876
86	0xbda6fae5	-0.08153323
87	0xbf5e916e	-0.8694066
88	0xbef74da3	-0.4830142
89	0x3b782db5	0.003786904
90	0xbf475eaf	-0.7787885
91	0xbf2a5adc	-0.6654489
92	0xbe698b88	-0.22807133
93	0x3e21c4a5	0.1579767
94	0x3ea581ec	0.32325685
95	0xbf04e666	-0.5191406
96	0x3f2d222a	0.67630255
97	0xbe83bfb2	-0.2573219
98	0xbfb46ece	-1.4096315
99	0xbf435d19	-0.7631393
100	0xbeb7433f	-0.35793492
101	0xbec80334	-0.39064944
102	0xbe92cd76	-0.2867238
103	0xbe2b2ff5	-0.16717513
104	0xbf861f60	-1.0478325
105	0xbdb2dd09	-0.08733565
106	0x3e0336cd	0.12813874
107	0xbf1a71b1	-0.6032973
108	0xbee24790	-0.44195223
109	0x3faf15ce	1.3678529
110	0x3f3a867f	0.72861475
111	0xbf91ba6e	-1.1385019
112	0x3e14dc4b	0.1453716
113	0x3f80b3b0	1.0054836
114	0xbf8473a3	-1.034779
115	0x3e5889d8	0.21146333
116	0xbe69e90e	-0.2284281
117	0xbf9fc96e	-1.2483346
118	0x3f09c9b7	0.5382342
119	0xbf361645	-0.7112773
120	0x3d3a5227	0.045488503
121	0x3e5c215b	0.21497099
122	0x3eb7d3f3	0.35903892
123	0x3e24415e	0.1604056
124	0xbf18e1ea	-0.5971972
125	0xbf3887d6	-0.7208227
126	0x3e13f8b7	0.14450346
127	0xbf7f7f55	-0.9980367
128	0xbf1b516a	-0.60671103
129	0xbe5a4922	-0.2131696
130	0x3f27b1ba	0.65505564
131	0xbf0bc560	-0.54598045
132	0xbf0a34c7	-0.5398678
133	0x3f06a782	0.52599347
134	0xbf36480b	-0.7120368
135	0xbfa582e0	-1.2930565
136	0xbf46dbee	-0.77679336
137	0x3fdcc5e9	1.7247897
138	0xbebfe57e	-0.37479776
139	0xbf078952	-0.5294391
140	0xbd17b127	-0.03703418
141	0xbeea1ccb	-0.45725092
142	0xbef0c576	-0.4702565
143	0xbf3119b2	-0.6917983
144	0xbe5e41b7	-0.21704756
145	0xbe9289fa	-0.28620893
146	0xbd8d4d90	-0.068995595
147	0xbe80efd5	-0.25182977
148	0xbf779e21	-0.9672566
149	0x3f024183	0.5088121
150	0xbe3b9cd8	-0.1832155
151	0xbe925ad9	-0.28584936
152	0xbfa97f23	-1.3241924
153	0x3f2823ef	0.6567983
154	0xbe8aabd1	-0.2708421
155	0xbec6e560	-0.38846874
156	0xbf018ed4	-0.50608563
157	0x3d42c528	0.047551304
158	0xbe47fb93	-0.19529562
159	0xbf84482c	-1.0334525
160	0x3f134d55	0.57539874
161	0xbd80f137	-0.06296008
162	0x3e9d3f38	0.30712295
163	0xbfa49c26	-1.2860153
164	0x3edd4ea7	0.4322407
165	0xbea0aec6	-0.31383342
166	0xbf416e74	-0.75559163
167	0xbe8acc75	-0.27109113
168	0x3e0bb49c	0.13643116
169	0x3d347ba0	0.04406321
170	0x3e1b14f1	0.15144707
171	0x3ee805ce	0.4531693
172	0xbf12245f	-0.5708675
173	0xbd9117b2	-0.07084598
174	0xbf971162	-1.180218
175	0x3e88e037	0.26733562
176	0x3f8e9741	1.1139909
177	0xbecd81b7	-0.40138027
178	0xbecb4118	-0.396981
179	0x3e42477c	0.18972582
180	0xbcf6185c	-0.030040912
181	0x3f70b6ed	0.9402912
182	0x3f921931	1.1413938
183	0xbdf56afd	-0.11983297
184	0xbf08bb76	-0.5341104
185	0xbe22813d	-0.15869613
186	0x3d857a3a	0.065174535
187	0xbf069044	-0.5256388
188	0xbe7087f2	-0.23489359
189	0x3f44c379	0.7686077
190	0xbed86cce	-0.4227051
191	0xbf073c11	-0.5282603
192	0xbf5e2137	-0.8676943
193	0xbf37424e	-0.7158555
194	0x3e55032a	0.20801988
195	0xbfa089d7	-1.2542065
196	0xbf9c6173	-1.2217239
197	0xbdf7a45d	-0.12091897
198	0x3f8f2ccd	1.1185547
199	0xbec118f2	-0.37714344
200	0xbf86378f	-1.0485705
201	0x3fcd1fe3	1.6025356
202	0xbf1de995	-0.6168454
203	0x3e93a6d7	0.28838226
204	0xbf2cb35d	-0.67461187
205	0xbedd159e	-0.43180555
206	0x3e848e75	0.25889936
207	0xbf9dd83c	-1.2331614
208	0x3ea5816c	0.32325304
209	0xbe6f4b7b	-0.23368637
210	0xbf2438ef	-0.64149374
211	0x3ed4d6e0	0.41570187
212	0x3ef6e340	0.48220253
213	0xbf625fdf	-0.8842754
214	0x3e41874f	0.18899272
215	0xbe06f179	-0.13178052
216	0xbfd7ec77	-1.6869038
217	0x3eb799c0	0.3585949
218	0xbf0e88a0	-0.55677223
219	0x3f8488c4	1.0354238
220	0xbe43cc74	-0.19120961
221	0x3eba0677	0.36333057
222	0xbbcfb5c1	-0.0063388054
223	0xbf03895a	-0.51381457
224	0x3e052cea	0.13005415
225	0xbe4fb52f	-0.2028396
226	0xbf805440	-1.0025711
227	0x3f360b80	0.711113
228	0xbea8166f	-0.32829615
229	0xbf2b8a2a	-0.67007697
230	0xbf2e34ea	-0.6804949
231	0xbe949bd1	-0.29025128
232	0xbf221c3e	-0.63324344
233	0xbfa04006	-1.2519538
234	0xbeb728b7	-0.3577325
235	0xbf28fc00	-0.6600952
236	0x3eb33e1f	0.35008332
237	0xbf8aa61e	-1.0831945
238	0xbe9f7ee6	-0.31151503
239	0xbf8d7889	-1.105241
240	0x3e9bb6b8	0.3041284
241	0x3db5bbff	0.08873748
242	0xbf253adc	-0.6454294
243	0xbe895e7c	-0.26829898
244	0x3d142208	0.036165267
245	0x3ee64b33	0.44979247
246	0xbeb3de7c	-0.3513068
247	0x3f6eef6a	0.93334067
248	0xbed96b10	-0.42464495
249	0x3ec3fa17	0.3827674
250	0xbf142da1	-0.57882124
251	0x3d35b35c	0.044360504
252	0xbf7a1135	-0.97682506
253	0x3f191962	0.59804356
254	0x3e340b6f	0.17582487
255	0xbf0db505	-0.5535434

bias f4 [64]
0	0x3fcf09d4	1.6174874
1	0xbeaf40ca	-0.34229118
2	0xbea5f852	-0.32416016
3	0xbed6e694	-0.41972792
4	0x3f035316	0.51298654
5	0x3f468ee5	0.7756179
6	0xbf10ba81	-0.5653458
7	0xbeac707e	-0.33679575
8	0xbe876317	-0.26442787
9	0x3f81720b	1.0112928
10	0xbe709759	-0.23495235
11	0x3ff92cbc	1.9466777
12	0xbee96cd9	-0.45590857
13	0xbeb6f043	-0.3573018
14	0xbf23adf5	-0.6393731
15	0x3f7ee898	0.9957366
16	0x40098deb	2.149287
17	0x3fb91064	1.4458127
18	0xbf14a142	-0.5805856
19	0x3ffa57cb	1.9558042
20	0x3ff7e62a	1.9367115
21	0x3f0bfb73	0.54680556
22	0xbee7d95a	-0.45283014
23	0xbe94c9e1	-0.2906027
24	0x3fe9571f	1.8229712
25	0x402f0980	2.7349548
26	0x3ff63e72	1.9237807
27	0xbef204a9	-0.4726918
28	0x3f9f2d90	1.243578
29	0xbe90a3b0	-0.28249884
30	0x3f8febd6	1.1243846
31	0xbea408dc	-0.3203801
32	0xbebc28e8	-0.3674996
33	0x3fc7514e	1.5571687
34	0xbee49990	-0.4464841
35	0xbf19dc53	-0.60101813
36	0x3fdfbaff	1.7478942
37	0x403c248f	2.9397314
38	0xbee03a29	-0.43794373
39	0x3f3bf7bc	0.7342489
40	0xbec0239f	-0.37527177
41	0x3f49989a	0.78748477
42	0x3fa21771	1.2663404
43	0x3fd950b1	1.697775
44	0x3f672268	0.90286875
45	0xbebcb046	-0.36853236
46	0x3f8d192b	1.1023306
47	0xbecf6b6c	-0.40511644
48	0xbf2bdf28	-0.67137384
49	0xbf078ff4	-0.5295403
50	0xbe72adbe	-0.2369909
51	0x3fa6af6f	1.3022288
52	0xbe231b66	-0.1592842
53	0xbf17fe2a	-0.593722
54	0xbebd2f7e	-0.36950296
55	0x3fdc2aa3	1.7200512
56	0xbe7da6b5	-0.24770625
57	0x3f7e45d9	0.9932533
58	0xbe4389e6	-0.19095573
59	0xbea93fa9	-0.3305638
60	0xbe3510cd	-0.1768219
61	0xbe6adb7d	-0.2293529
62	0xbf10d9d8	-0.56582403
63	0xbe882563	-0.26591024

weight f4 [1, 64]
0	0x3fab9a44	1.3406453
1	0xc0515360	-3.2707138
2	0xc008c2fe	-2.1369014
3	0xc045fa85	-3.0934155
4	0x3f9f825c	1.2461658
5	0x4010429a	2.254065
6	0xc064a483	-3.572541
7	0xc08652bc	-4.1975994
8	0xc06952bf	-3.6456754
9	0x401b5105	2.42682
10	0xc0149918	-2.321844
11	0x3f8ceb5d	1.1009327
12	0xc035376f	-2.8315084
13	0xc035669b	-2.8343875
14	0xc0639d6f	-3.556484
15	0x401e179c	2.470191
16	0x3ff58d39	1.9183723
17	0x40023e85	2.035066
18	0xc0440f36	-3.0634284
19	0x3fc75823	1.5573772
20	0x3f898dcd	1.0746399
21	0x3f6054fd	0.8762968
22	0xbff1ae99	-1.8881408
23	0xc083c13e	-4.117339
24	0x40094548	2.1448536
25	0x3f7d24de	0.9888438
26	0x3fc6b1cc	1.5523009
27	0xc0557d3e	-3.3357692
28	0x3fd2cd7f	1.6468962
29	0xc0569f6b	-3.35348
30	0x401be7fc	2.4360342
31	0xc00c4a55	-2.1920369
32	0xc05fe105	-3.498109
33	0x3f8da8ba	1.1067116
34	0xc031245d	-2.7678444
35	0xc08aaead	-4.3338227
36	0x3faf62e0	1.3702049
37	0x3f8132cd	1.0093628
38	0xc06db230	-3.7140007
39	0x40352bb0	2.8307915
40	0xc0892aa9	-4.2864575
41	0x40203b18	2.5036068
42	0x40044bb0	2.0671196
43	0x3fdde73d	1.7336193
44	0x3ef6212a	0.48072177
45	0xc0117d6b	-2.27328
46	0x3f21f823	0.6326925
47	0xc061a886	-3.5259109
48	0xc046e37e	-3.107635
49	0xc0426369	-3.0373175
50	0xc035c446	-2.8401046
51	0x3ffd1f81	1.9775239
52	0xbfed3d4a	-1.8534329
53	0xc0020848	-2.0317554
54	0xc03a0afb	-2.9069202
55	0x3fd5e53c	1.6710582
56	0xc05161ab	-3.2715862
57	0x40111fe7	2.2675722
58	0xc02cc0fb	-2.6992786
59	0xc03cd6ea	-2.9506173
60	0xc05313b9	-3.2980788
61	0xc01d597b	-2.4585865
62	0xc016b735	-2.354932
63	0xc0499cf3	-3.1502044

weight f4 [64, 96]
0	0x3e6c3460	0.23066854
1	0x3ed0cb42	0.40780073
2	0x3f0693cf	0.5256929
3	0xbf86b08c	-1.0522628
4	0x3dd57e6f	0.10424506
5	0xbf64e2b8	-0.89408445
6	0xbf1a1755	-0.6019185
7	0x3f8480ca	1.0351803
8	0xbe41f03a	-0.18939295
9	0x3ddb4f02	0.10708429
10	0x3e9e990e	0.30976146
11	0xbeda94a9	-0.42691544
12	0xbf364d22	-0.71211445
13	0x3ba1c097	0.0049362886
14	0x3f23e57e	0.6402205
15	0xbf07eaf9	-0.53092915
16	0x3f75b88b	0.95984715
17	0x3e1b7455	0.15181096
18	0x3ef11563	0.4708663
19	0xbe7a80a6	-0.24463138
20	0xbf81dda7	-1.0145768
21	0x3e9ffd7a	0.31248075
22	0x3f6f2a64	0.9342406
23	0x3f56c57a	0.83895075
24	0x3d54cce8	0.051953226
25	0xbc7aa760	-0.015298694
26	0xbf3c8c80	-0.73651886
27	0x3e1a88f7	0.1509131
28	0x3f570fc2	0.8400842
29	0xbeed4fd4	-0.46349967
30	0x3e053bfc	0.13011163
31	0x3e915457	0.2838466
32	0x3f546a22	0.82974446
33	0x3e504c12	0.20341519
34	0x3dd32073	0.103089236
35	0x3e41619d	0.18884893
36	0xbed514ee	-0.4161753
37	0xbf0e1a9e	-0.55509365
38	0xbf33c3f6	-0.7022089
39	0xbfb87592	-1.441088
40	0xbf0465f7	-0.51718086
41	0x3e9fd82b	0.3121961
42	0x3f476096	0.77881753
43	0xbf4c9cc0	-0.7992668
44	0xbc9d63b3	-0.01921258
45	0xbf0437a2	-0.5164739
46	0x3ce5bb67	0.028043462
47	0xbf83f341	-1.030861
48	0x3f86563e	1.0495069
49	0x3f0baab6	0.5455736
50	0xbf2a9480	-0.66632843
51	0xbffde1aa	-1.9834492
52	0xbfcc1d0c	-1.5946364
53	0xbf2273c5	-0.634579
54	0xbf1814b0	-0.59406567
55	0x3e7e6aaf	0.24845384
56	0xbb8b14dd	-0.0042444305
57	0x3f7adabf	0.9799003
58	0x3e086429	0.13319458
59	0xbf0ba9fa	-0.5455624
60	0x3fb80763	1.4377254
61	0xbda2e25d	-0.079533316
62	0x3f1f1f4c	0.6215713
63	0x3e5a9767	0.21346818
64	0xbf1c66a7	-0.61094135
65	0x3f05838d	0.52153856
66	0x3f22e95b	0.6363732
67	0xbd384703	-0.044989597
68	0x3eefaa3e	0.46809572
69	0x3ee0a274	0.43873942
70	0x3ebbb3d7	0.36660644
71	0xbeb892d3	-0.36049518
72	0xbf990e69	-1.1957523
73	0xbd04ad24	-0.032391682
74	0x3b8b10b0	0.0042439327
75	0xbdd39652	-0.10331406
76	0xbf70bcd2	-0.94038117
77	0xbfcc39f6	-1.5955188
78	0x3e1fa0bb	0.15588658
79	0xbebc0a16	-0.36726445
80	0xbf59b234	-0.8503754
81	0xbe108fa1	-0.1411729
82	0xbe8ff60a	-0.281174
83	0xbf8b0f17	-1.086398
84	0xbd55ecb8	-0.052227706
85	0x3f9720b7	1.1806859
86	0xbff8084b	-1.9377531
87	0x3f818a33	1.01203
88	0x3f50ba64	0.8153441
89	0xbe1b57d5	-0.15170224
90	0x3a510d90	0.0007974738
91	0xbe6e098c	-0.2324583
92	0xbed8c3ad	-0.4233679
93	0x3d24e222	0.04025472
94	0xbf4574d5	-0.77131397
95	0xbf315ee7	-0.69285434
96	0x3cd0f35f	0.025506673
97	0x3d223035	0.039596755
98	0xbecd6930	-0.40119314
99	0x3e36ea34	0.17862779
100	0xbf4c7758	-0.79869604
101	0x3eaf796f	0.34272334
102	0x3f28bb4e	0.65910804
103	0xbe841375	-0.25796095
104	0xbfbe49c8	-1.4866266
105	0x3eca5b23	0.39522657
106	0xbe6b4a08	-0.2297746
107	0xbec518ac	-0.38495386
108	0x3e31c80b	0.17361467
109	0x3ed48a95	0.4151198
110	0x3f46e098	0.7768645
111	0x3f6dda2a	0.92911017
112	0xbf863921	-1.0486184
113	0x3eb19ceb	0.3469003
114	0xbf6e49ed	-0.9308155
115	0xbf427e13	-0.75973624
116	0x3f09d03d	0.5383337
117	0xbec1ec27	-0.37875482
118	0xbf659bf3	-0.89691085
119	0x3f4ac7cf	0.79211134
120	0xbf3c7590	-0.73616886
121	0x3e88320a	0.26600677
122	0xbf35789e	-0.7088717
123	0x3f7e38f2	0.9930564
124	0xbfbe5140	-1.4868546
125	0x3ec97883	0.39349756
126	0xbda3dd54	-0.08001199
127	0xbea8e1b5	-0.329847
128	0xbedeb2d6	-0.43495816
129	0x3e43e8ab	0.19131725
130	0x3ed51dcd	0.416243
131	0x3f461066	0.7736877
132	0xbf35a284	-0.70951104
133	0xbf4d925f	-0.8030147
134	0xbed03d58	-0.40671802
135	0xbeda162a	-0.42595035
136	0x3ef15b0a	0.4713977
137	0x3ec89842	0.39178663
138	0x3f688898	0.90833426
139	0x3e28d53f	0.16487597
140	0x3ea410b9	0.32044008
141	0x3e7544b2	0.23951986
142	0x3ea18d7c	0.31553257
143	0x3ebd7fce	0.3701157
144	0xbf1c9299	-0.6116119
145	0xbf05bb86	-0.52239263
146	0xbe37b381	-0.17939569
147	0xbe7aefba	-0.24505511
148	0xbc950fe3	-0.018196052
149	0xbe3ca5e9	-0.18422665
150	0xbf14eb75	-0.5817178
151	0xbecaca4a	-0.3960746
152	0x3f8413b5	1.0318514
153	0xbf772958	-0.9654746
154	0xbfae4c94	-1.361712
155	0x3f12e069	0.5737367
156	0xbe4df98e	-0.20114729
157	0xbf2caae7	-0.67448276
158	0x3edec1bc	0.43507183
159	0xbee22472	-0.4416843
160	0x3ee9bbc5	0.4565107
161	0xbeafaeac	-0.34312952
162	0x3db606e6	0.088880345
163	0xbd8dc6e1	-0.06922699
164	0x3cb7c595	0.022433082
165	0x3cc6e213	0.024277722
166	0xbf9c126b	-1.2193121
167	0xbf122f2a	-0.57103217
168	0x4004f6ed	2.0775712
169	0xbe81df35	-0.25365606
170	0xbf394019	-0.7236343
171	0xbea4e5a4	-0.32206452
172	0xbd383aa8	-0.044977814
173	0xbf7f9701	-0.9983979
174	0x3d9bf085	0.07614235
175	0x3f4b4c5f	0.7941341
176	0xbf77fd05	-0.9687045
177	0xbf5a6641	-0.8531228
178	0x3fa56dbc	1.2924113
179	0xbeaf87f7	-0.3428342
180	0x3db8f465	0.090309896
181	0x3e0bbe55	0.13646825
182	0xbf7b59d8	-0.98183966
183	0x3e5a31b6	0.21308026
184	0xbea560f4	-0.32300532
185	0x3eac1f10	0.3361745
186	0xbe2b0d7a	-0.1670436
187	0xbfb2aab3	-1.3958343
188	0x3f5b776f	0.85729116
189	0x3eded645	0.4352285
190	0x3fb7188b	1.4304365
191	0x3e0fd81d	0.14047284
192	0xbec6e251	-0.3884454
193	0xbfa9a5bb	-1.3253702
194	0xbe5f7e3f	-0.21825503
195	0xbe83aea5	-0.2571918
196	0x3ec1f6f1	0.37883714
197	0xbd25c1cf	-0.040468033
198	0xbf375204	-0.7160952
199	0xbf45bd7d	-0.7724226
200	0x3f3fcb9f	0.74920076
201	0x3fba23ba	1.4542153
202	0xbf4b00ec	-0.7929828
203	0x3e89c53e	0.26908296
204	0xbed8194d	-0.42206803
205	0x3e9547cc	0.2915634
206	0xbd48bc35	-0.049007613
207	0xbf2e5b24	-0.6810782
208	0xbf569550	-0.8382158
209	0xbe063cca	-0.13109127
210	0xbf412ea0	-0.7546177
211	0xbee38573	-0.4443775
212	0xbf9faf3a	-1.247535
213	0xbf5c0260	-0.85941124
214	0x3f412cc7	0.7545895
215	0x3e5a986c	0.21347207
216	0xbf84ed50	-1.0384922
217	0xbf030b66	-0.5118927
218	0xbf201f24	-0.62547517
219	0xbd8c8dc8	-0.0686298
220	0xbf967582	-1.175461
221	0x3f2d3bad	0.67669183
222	0xbd9f9734	-0.077925116
223	0x3ef24547	0.4731848
224	0x3d948988	0.072527945
225	0xbebffa07	-0.37495443
226	0xbe89c847	-0.26910612
227	0xbf401e43	-0.75046176
228	0x3f8448ac	1.0334678
229	0xbdbab7af	-0.09117066
230	0x3eb4bac7	0.3529875
231	0xbf03cd50	-0.51485157
232	0x3ebcc6b6	0.36870354
233	0x3f440ea1	0.7658482
234	0xbe90f091	-0.28308538
235	0xbe0b1ecf	-0.13585971
236	0xbfabde30	-1.3427181
237	0x3eca10f1	0.3946605
238	0x3f6c5ae3	0.9232618
239	0x3e8494aa	0.25894672
240	0x3f2aeca1	0.6676732
241	0x3f14f184	0.58181024
242	0xbde04598	-0.10950774
243	0xbd5c7501	-0.05382252
244	0x3f86e2cb	1.0537962
245	0xbf6d078a	-0.9258963
246	0x3e9cda8f	0.30635497
247	0xbe9d06c8	-0.30669236
248	0x3f1bb20f	0.6081857
249	0x3faabc4f	1.3338717
250	0x3f882486	1.0636146
251	0x3f985f73	1.1904129
252	0xbf04383a	-0.51648295
253	0x3ef96c20	0.48715305
254	0x3f3728a4	0.7154639
255	0xbece3079	-0.40271357

bias f4 [64]
0	0xbd03df96	-0.03219565
1	0x3ce743ff	0.028230665
2	0xbdad36f8	-0.0845775
3	0x3a84ddf4	0.0010136948
4	0x3d009cdb	0.03139959
5	0x3e04d91e	0.12973449
6	0x3d74bf7a	0.05975292
7	0x3e7d79aa	0.24753442
8	0x3da8f9b5	0.08250753
9	0x3e393ad9	0.18088855
10	0x3d1103fd	0.035404194
11	0x3d5824bc	0.052769408
12	0x3d1d540a	0.038410224
13	0x3c50d0f8	0.0127451345
14	0x3e00dc6f	0.12584089
15	0xbadbaf43	-0.0016760606
16	0x3c57b27e	0.013165114
17	0xbcf5f5fa	-0.030024517
18	0xbc2431d1	-0.010021643
19	0x3dd2cf5f	0.10293459
20	0xbc465715	-0.012105723
21	0x3d365a61	0.044519786
22	0x3e2871e4	0.16449696
23	0x3d9f56c5	0.07780222
24	0xbbd0d4da	-0.00637303
25	0xbd4ba4e8	-0.049717814
26	0x3d2125a9	0.039342556
27	0x3ceeb42e	0.02913865
28	0xbb85c337	-0.0040821093
29	0xbb96f6b4	-0.004607046
30	0x3e0225ad	0.12709685
31	0xbda8f57f	-0.0824995
32	0x3e4d7a1b	0.20066111
33	0x3e16305f	0.1466689
34	0x3db99bb9	0.09062905
35	0x3d20764e	0.039175324
36	0x3da3f4da	0.08005686
37	0x3e1329ac	0.14371365
38	0x3e0a7248	0.13520157
39	0xb93e250e	-0.00018133616
40	0x3de23c03	0.110466026
41	0x3c46bfe3	0.01213071
42	0x3d885590	0.06656945
43	0x3e0e1eda	0.13878956
44	0x3d6fa084	0.05850269
45	0x3e543cfe	0.20726392
46	0xbc9184aa	-0.017763454
47	0xbcef3122	-0.029198233
48	0xbcaf2a07	-0.021382345
49	0x3e6e0f9d	0.23248143
50	0x39d50894	0.00040632917
51	0xbd1e7173	-0.038682412
52	0xbd0848de	-0.033272617
53	0xbe16ffa1	-0.14745952
54	0x3d1464ae	0.036228828
55	0x3d58acc9	0.052899156
56	0x3de18ae3	0.11012819
57	0xbc602637	-0.013680986
58	0x3c924f92	0.017860208
59	0x3e1f192c	0.15536946
60	0x3da4d06c	0.08047566
61	0xbcb2b93e	-0.021816846
62	0x3e081f7a	0.13293257
63	0x3c1d7a01	0.0096116075

weight f4 [128, 64]
0	0x3e2e23d1	0.1700585
1	0xbda74a30	-0.08168447
2	0xbd0e372b	-0.03472058
3	0xbbb8cca5	-0.00563963
4	0xbecd9033	-0.40149078
5	0xbeae956a	-0.3409837
6	0x3c40b275	0.0117612975
7	0xbf1a1ef7	-0.602035
8	0x3ee5fae0	0.44917965
9	0xbe174768	-0.14773333
10	0xbdc4f0ca	-0.09616239
11	0x3dc0c5d4	0.09412733
12	0x3e1ec470	0.15504622
13	0x3e80715d	0.2508649
14	0x3f19fc91	0.6015101
15	0xbe72fd0f	-0.23729347
16	0x3f0e6fec	0.5563953
17	0xbeb8649e	-0.36014265
18	0xbcc1fae8	-0.023679212
19	0xbc4841c7	-0.012222714
20	0xbd2bbbf1	-0.04192728
21	0x3e11c2e5	0.14234503
22	0x3d0fe38c	0.035129115
23	0x3ed1b427	0.40957758
24	0xbe93f125	-0.28894916
25	0x3dcf171f	0.10111832
26	0xbe71029b	-0.2353615
27	0x3dc754d0	0.097329736
28	0x3e4b72ac	0.19867963
29	0xbe4eafbd	-0.20184226
30	0xbe837500	-0.256752
31	0xbdf57cf9	-0.11986727
32	0x3d031a0b	0.03200726
33	0xbe2cc2a0	-0.16871119
34	0xbe15afed	-0.14617892
35	0x3ecada0b	0.3961948
36	0xbdd79236	-0.105259344
37	0xbe6348df	-0.22195767
38	0xbd0fcdab	-0.03510825
39	0xbe6fa7d7	-0.2340387
40	0x3e90bfff	0.2827148
41	0x3f05deac	0.52292895
42	0x3da17796	0.07884137
43	0x3da681d4	0.081302315
44	0xbe0c2e6f	-0.13689588
45	0xbd8f3f09	-0.06994445
46	0xbc2c4172	-0.01051365
47	0xbe375d8d	-0.1790678
48	0xbea539e2	-0.32270724
49	0x3e63339a	0.22187653
50	0xbdca74ab	-0.09885534
51	0xbd357ef0	-0.04431051
52	0xbea4e07a	-0.32202512
53	0xbdbcefcf	-0.09225427
54	0xbe100493	-0.14064245
55	0xbebb28c7	-0.36554548
56	0x3e938af7	0.2881696
57	0xbd8d22fb	-0.068914376
58	0xbe1e2e56	-0.15447363
59	0x3e5bc9fa	0.21463767
60	0x3da0f266	0.07858734
61	0x3e7d2120	0.24719667
62	0x3d5490a3	0.05189575
63	0x3e999d03	0.30002603
64	0x3f0b720f	0.54470915
65	0xbe165ce9	-0.1468388
66	0x3f2087bd	0.6270712
67	0x3ed486dc	0.4150914
68	0xbda0997f	-0.07841777
69	0x3dce887d	0.10084627
70	0xbe89118f	-0.2677121
71	0x3d808d4a	0.06276949
72	0xbe2e4998	-0.17020261
73	0xbd561ee4	-0.052275553
74	0xbefc8388	-0.493191
75	0x3dbf269e	0.093335375
76	0x3e983051	0.29724362
77	0x3ec4438a	0.38332778
78	0x3e83be4b	0.2573112
79	0xbe8207f2	-0.25396687
80	0xbe16fefa	-0.14745703
81	0xbd306d5b	-0.04307304
82	0x3ee5460b	0.4478
83	0xbe91600d	-0.28393593
84	0x3dbc609f	0.091981165
85	0xbe9d1686	-0.30681247
86	0x3ed13392	0.40859658
87	0xbeba4fb3	-0.3638893
88	0x3ec25fbd	0.37963668
89	0x3e682ce9	0.22673382
90	0x3d9487fe	0.07252501
91	0x3f1d6026	0.61474836
92	0x3e8b4d6d	0.2720751
93	0x3edf39e8	0.43598866
94	0x3df8f60a	0.12156303
95	0x3f754316	0.9580549
96	0x3ef2dc5d	0.4743375
97	0x3e9d8d0c	0.30771673
98	0xbe0a21e7	-0.13489495
99	0x3e957c23	0.2919627
100	0xbe5de6b1	-0.21670033
101	0x3d716fdc	0.058944568
102	0x3e3251e5	0.17414053
103	0xbee6f0d3	-0.4510561
104	0x3df41a23	0.11919048
105	0x3e021723	0.12704138
106	0x3d94772c	0.07249293
107	0x3ef8965c	0.48552215
108	0x3f119f64	0.56883836
109	0x3e4af972	0.19821718
110	0xbdb9dc35	-0.09075204
111	0x3ee9389e	0.45551008
112	0x3edb97d8	0.42889285
113	0xbf146d55	-0.5797933
114	0x3f0b0ffa	0.54321253
115	0x3dd797db	0.10527011
116	0x3ee494f2	0.44644886
117	0xbdc40c01	-0.09572602
118	0xbd052795	-0.03250845
119	0xbd808d83	-0.06276991
120	0x3e3b1432	0.18269423
121	0xbea94be1	-0.33065704
122	0xbf145ba4	-0.5795233
123	0xbda221d3	-0.07916608
124	0xbe42f571	-0.19038941
125	0x3f5af476	0.8552927
126	0x3f173efc	0.5908048
127	0xbd8cabe3	-0.06868722
128	0xbe8c5439	-0.27408007
129	0xbe2a5bdb	-0.16636603
130	0x3e604c05	0.21903999
131	0x3f0dfc0c	0.5546272
132	0x3dca3950	0.09874213
133	0xbe335f5b	-0.17516844
134	0xbf0458b0	-0.51697826
135	0x3f451f8c	0.7700126
136	0x3f0c0d36	0.5470766
137	0xbe4c3d25	-0.199452
138	0x3eb22ec9	0.3480132
139	0x3c52c044	0.0128632225
140	0xbe9a838b	-0.30178484
141	0xbe3d0740	-0.18459797
142	0x3ea59ae6	0.3234474
143	0xbf60a6b7	-0.87754387
144	0xbf17cb62	-0.5929471
145	0xbec14084	-0.37744534
146	0x3e4a11af	0.19733308
147	0x3ddd8dda	0.10818072
148	0xbe2d89b4	-0.16947061
149	0x3d07a5f2	0.033117242
150	0x3df660c0	0.12030172
151	0x3e4ae7f9	0.19815053
152	0x3ee8af39	0.45446184
153	0x3ea42bb3	0.3206459
154	0x3d15bfea	0.036559977
155	0xbe0e1c37	-0.1387795
156	0x3d681d73	0.05666871
157	0xbf24153c	-0.640949
158	0x3f4e9698	0.8069854
159	0xbe486f3a	-0.1957368
160	0xbef2da53	-0.47432193
161	0x3e83bdf5	0.25730863
162	0x3eed5108	0.46350884
163	0x3df1a99d	0.11799929
164	0xbeaa211e	-0.3322839
165	0xbee59ecd	-0.44847718
166	0xbd6edf3e	-0.05831837
167	0xbddfe659	-0.10932607
168	0xbf4047fc	-0.7510984
169	0x3bb27dfa	0.0054471465
170	0x3f41df6e	0.7573155
171	0xbf1c18e6	-0.6097549
172	0x3d3cf20b	0.046129268
173	0xbdf1f3e1	-0.11814094
174	0xbecb19d9	-0.39668158
175	0x3f2e10a0	0.6799412
176	0x3e153c55	0.14573796
177	0xbf56d401	-0.8391724
178	0xbdf14240	-0.11780214
179	0x3e139e06	0.1441575
180	0x3f47ccf7	0.78047127
181	0xbd8d7a11	-0.06908048
182	0x3ec59315	0.38588777
183	0x3d123004	0.035690323
184	0xbe6509b7	-0.22366987
185	0x3e0f6cf4	0.14006406
186	0x3e17e281	0.14832498
187	0xbee312d9	-0.44350317
188	0x3e58530d	0.21125431
189	0x3e84a413	0.2590643
190	0xbda17f00	-0.078855515
191	0xbb76dfd9	-0.0037670045
192	0x3f1a01f7	0.6015925
193	0xbda787ff	-0.08180236
194	0xbdb266a7	-0.08710986
195	0xbe571d53	-0.2100728
196	0x3e22ec36	0.1591042
197	0x3e8b0260	0.2715025
198	0xbf015ad7	-0.50529236
199	0xbde09d0c	-0.10967454
200	0xbec91b63	-0.39278707
201	0xbdb79bc4	-0.08965257
202	0xbde71995	-0.11284176
203	0xbe7cae7b	-0.24675934
204	0xbf08b57a	-0.5340191
205	0xbd74485e	-0.059639327
206	0x3e6b6fbb	0.2299184
207	0xbde643c8	-0.11243397
208	0xbcacd2e9	-0.021096664
209	0x3e3f3dcf	0.18675922
210	0x3e5d82cc	0.21631926
211	0x3d73da8a	0.059534587
212	0x3ed8acd6	0.42319363
213	0x3deda22a	0.11603196
214	0x3e6bcac6	0.2302657
215	0x3e94e9af	0.29084536
216	0x3f4446af	0.76670355
217	0x3f28652c	0.65779376
218	0x3e364c8d	0.1780264
219	0x3eb8db8e	0.36105007
220	0xbe43763a	-0.19088069
221	0x3f23c80a	0.6397711
222	0x3e66784a	0.22506824
223	0xbef060b4	-0.4694878
224	0x3e8b2f79	0.27184656
225	0x3f4058e6	0.7513565
226	0x3edd4843	0.43219194
227	0xbc584734	-0.01320057
228	0x3d4ceb6e	0.05002921
229	0xbc653656	-0.0139900055
230	0xbd314951	-0.04328281
231	0x3e43b601	0.19112398
232	0x3c2245b1	0.009904311
233	0x3d58d0e6	0.052933596
234	0xbe6ef3c6	-0.2333518
235	0xbe21ca6b	-0.15799873
236	0xbe0f95db	-0.14022009
237	0x3dd196e7	0.102338605
238	0xbe655a0d	-0.22397633
239	0x3e91244d	0.28348008
240	0xbe7b8dd1	-0.24565817
241	0x3e65d71f	0.22445343
242	0xbde847ec	-0.11341843
243	0x3e9c1868	0.3048737
244	0xbb16cdd4	-0.0023010867
245	0x3e5fdc70	0.21861434
246	0x3e553de3	0.20824389
247	0xbe4f7029	-0.2025763
248	0x3f12e6a5	0.57383186
249	0xbe366c7a	-0.17814818
250	0x3f1a6571	0.6031104
251	0xbebcc720	-0.3687067
252	0xbd7c69e1	-0.06162441
253	0xbe4f5ca6	-0.20250186
254	0xbe10bca8	-0.14134467
255	0x3eb4efbd	0.35339156
